experiments/puffer_enduro-abdb4e45/model_002800.pt (torch, 566331 bytes, 9 tensors)

weight f4 [128, 52]
00000000: 4bb4 8cbe f9e0 21bd 4994 5b3e 918a ddbd
00000010: 89fd 2d3d 4dce f8bd 5f51 d33c e8f6 81bd
00000020: 3ea7 adbb 8217 073f 85da eabd 98c9 2f3e
00000030: 8a11 c33c 12dc b23d 8b1b 78bf 6711 8a3d
00000040: 9c74 973d dff2 f53d 906c 3c3e 2985 dfbd
00000050: 016c f3bc 25d1 103e d260 34be 4504 f43c
00000060: 2aef 02bd 8172 cd3d 00e7 adbc acdf c6bd
00000070: 8a47 c1bc c2f1 0d3e fc20 c8bc 00f7 ab3d
00000080: 5d88 163d dc78 713d 9bef 44be d68b c13c
00000090: a7d1 993d 2326 2abe 8bb2 abbe 0108 e8bc
000000a0: b6e4 2fbe 8029 34be a3a0 30bd b23a 89bb
000000b0: 19af f5bd 29c9 96bd 46ef 7abb e81f 6dbd
000000c0: d419 37bd 6b01 61bf 50d4 d93d 1923 0bbe
000000d0: cb7a 2d3d 3dec 85bf 122d 91bf 5b4b 74bc
000000e0: ea21 7d3e 4ad3 2b3e d6c4 5e3c eaa7 0a3e
000000f0: e52d febc 596e 6abd 8f6d 883d e996 38be
00000100: 1c20 cabd f93a 29be 394c 46be 8235 f3bc
00000110: 138b 063e f8d4 b8bc 8214 023e b5fe e0bd
00000120: e7a0 82bc b60f b93d 872b d7bd 75c6 483d
00000130: 570a 81bd d231 e83d e2bf 93be 552c 07bc
00000140: 844e 5e3d c086 ae3d 4856 72be 632c 5ebd
00000150: 9944 12bd 6150 273e 627d 03be 57e6 83bb
00000160: 3c37 583d 8875 323e d646 323d 0b55 ba3e
00000170: 319f 903c cd57 b83d 5a67 993b a6c0 a13e
00000180: a5e5 693e c7b5 a2bc 6c44 033e 2e5f f33d
00000190: d7f7 40bd b256 383c fe1f 45bd 9439 03bd
000001a0: ebdf 45be 2316 8a3e 479a a73e dcf1 663b
000001b0: 1aa1 0f3e 7895 583e 631a 293d bda9 0e3e
000001c0: afa0 8c3d 1da8 47bf 6ffa f03d f909 963e
000001d0: 96b3 cd3c 91fd 463e 6557 60bf 70b1 e13c
000001e0: 519d e5bc c7f1 64bd a964 93bc 98c1 d53b
000001f0: 2630 59bc 3c8e 56bd 0d9f 94be 0eaa 94bc
00000200: 13c2 bfbc 8c49 cfbd 8512 a1bd f485 d8bd
00000210: 258b 813d 8e65 6b3d f9d6 4a3e 77ac 293d
00000220: 9834 f5bc c564 30bc ad1e 823b 2372 acbd
00000230: aa61 223d 81d4 ba3c b4fb 70be c3fd e3bd
00000240: c61e 0fbe 2285 c0bd 51d8 013e 313d 10be
00000250: 977e abbd 754c e4bb 444e ee3d 354a 2c3d
00000260: c307 a63d 138f 383e 7299 a93d 5087 fabd
00000270: 4820 d8be 02d0 b6bc 0317 65bd be30 793d
00000280: f416 9f3c ae07 653e 2ff5 a3bc 6254 b1bd
00000290: 5ff7 dd3d ba65 fc3e a0d0 de3c 8268 bf3d
000002a0: 698f 79bd 6aa0 803d 6953 33bf 8433 c6bc
000002b0: 4628 85bd b86d b33d 5586 05bf ea0a 0ebd
000002c0: 89ad 6c3d 59fe 713d be6e 153e 5e8d 303e
000002d0: cc42 5dbd a27c 18be 7487 2d3e dd2f 22be
000002e0: 84be aebd 0f46 103e bc08 ecbb faa3 ecbd
000002f0: 7d8f f1bc 13ce 2a3e ea17 b53e f897 fcbd
00000300: 56c6 23bd 6bf2 1b3d ffde 1ebe 64d7 2bbe
00000310: c88c 18be a307 febc 8d2d 383d 6009 85bd
00000320: d1c0 1dbe 5eb9 233d ba80 80bd 700d f4bd
00000330: 1375 13bd c39e 6d3e c87e 673e 6348 fa3d
00000340: a158 653e 8cd0 223a 42ff fd3d 014e b9bc
00000350: 74bb e8bb 8fd8 37be 4dcd 24be 303f 1bbe
00000360: 18e8 b93c ed12 423f 51a2 86bd ab2b 703e
00000370: 0ba4 57bd 5560 553e ba97 12bf 74fe 0a3e
00000380: 3a0e ebbc e6e4 4c3e edfb 823e 3825 083d
00000390: 3918 4d3d bffa 6e3b d47d d23d e43a 06bd
000003a0: 7b07 3e3d 935b f13c 03f8 713d c2e8 0f3c
000003b0: c850 89bc 2597 dcbd f772 b03d 799f 173d
000003c0: cefb 683d 8070 fc3d 8529 cebd e4f6 2abd
000003d0: 7785 053e 225f d8ba 5d64 11be e7e1 c8bc
000003e0: fc42 eabc 7315 0abe 56bd 273e 8311 75bd
000003f0: 215a 8e3d 10e2 8b3d 9469 c9bc cf75 06bd
-0.27481303 -0.03952119 0.21443285 -0.10817445 0.042478118 -0.12148724 0.025795637 -0.06345922
-0.005299478 0.52770245 -0.114674605 0.17166746 0.023812074 0.08733381 -0.9691703 0.067416005
0.07395288 0.120092146 0.18400788 -0.1091407 -0.029714586 0.14142282 -0.17615059 0.029787192
-0.031966366 0.100316055 -0.021228313 -0.09710631 -0.023593683 0.13861755 -0.02442979 0.08396721
0.03675114 0.05895315 -0.19232027 0.02362625 0.07510691 -0.1661611 -0.33534655 -0.028324129
-0.1717709 -0.17593956 -0.043121945 -0.004187905 -0.11996288 -0.07362587 -0.003828959 -0.057891756
-0.044702366 -0.8789279 0.106361985 -0.13587607 0.042353433 -1.0462719 -1.1341879 -0.014910544
0.24719968 0.16779819 0.013596734 0.13540617 -0.031027744 -0.057234142 0.06661522 -0.18026318
-0.098694056 -0.16526403 -0.19365014 -0.0296886 0.1313899 -0.022562489 0.12703136 -0.109860815
-0.015945865 0.090362 -0.10506349 0.04901739 -0.063008 0.113376275 -0.28857332 -0.008250316
0.054274097 0.08521795 -0.23665726 -0.05424155 -0.03570995 0.16339256 -0.12840798 -0.0040252614
0.05278705 0.17427647 0.043524586 0.36393008 0.017654033 0.09001122 0.00468151 0.31592292
0.22841509 -0.019862069 0.1281907 0.118833885 -0.04711136 0.0112511385 -0.048126213 -0.032037333
-0.19323699 0.26970014 0.32734892 0.0035239374 0.14026299 0.21150768 0.04128493 0.13931938
0.068665855 -0.77990896 0.117665164 0.29304484 0.025110047 0.19432665 -0.87633353 0.02755043
-0.028029116 -0.05589464 -0.017992334 0.0065233223 -0.013256108 -0.05238174 -0.29027596 -0.018147495
-0.023407971 -0.1012145 -0.078648604 -0.105724245 0.06325368 0.057469897 0.19808568 0.04142424
-0.029932305 -0.010766213 0.003970942 -0.08420207 0.03964392 0.022806408 -0.23533517 -0.111323856
-0.13976583 -0.09400393 0.12680174 -0.14085843 -0.083737545 -0.006967122 0.11636022 0.042062957
0.08106949 0.18023328 0.082812205 -0.1223284 -0.4221213 -0.022315983 -0.05593015 0.0608375
0.019420125 0.22366211 -0.020014374 -0.08658673 0.10838198 0.4929636 0.02719909 0.09346105
-0.060927782 0.062805966 -0.7004915 -0.024194486 -0.06501822 0.087611616 -0.521581 -0.034678377
0.057782684 0.059080455 0.14593026 0.17241427 -0.05401878 -0.14891294 0.16946203 -0.15838571
-0.08532432 0.14089225 -0.0072031897 -0.115547135 -0.029487366 0.16680174 0.35369807 -0.12333673
-0.03998407 0.038072985 -0.15514754 -0.16781384 -0.14897454 -0.0310095 0.044965316 -0.06495929
-0.15405585 0.0399717 -0.06274553 -0.119166255 -0.036000323 0.23205094 0.22606957 0.12220838
0.2239709 0.00062108855 0.12402202 -0.022620203 -0.0071024243 -0.17953704 -0.16093941 -0.15160823
0.022693679 0.7581013 -0.06573928 0.23454158 -0.052646678 0.20837529 -0.57262766 0.13573629
-0.028693307 0.20009193 0.2558283 0.03323862 0.05007193 0.0036465374 0.10277906 -0.032771006
0.046393853 0.029462611 0.059074413 0.008783521 -0.016762152 -0.10771016 0.08615678 0.03701732
0.056880765 0.12326145 -0.10066513 -0.04173936 0.13039194 -0.0016507844 -0.14198442 -0.024521781
-0.028596394 -0.13484745 0.1638082 -0.059831154 0.069507845 0.068302274 -0.024586476 -0.032827195

bias f4 [128]
00000000: 76f7 02bd cd3f 1b3e fdd8 b9bd 4f1e c93c
00000010: ee61 cf3d 3d59 7d3c d3dd 1abc be05 f53d
00000020: 0afb 9b3d 82b3 083a 6e4b d93d d716 6dbc
00000030: b997 f1bd e6c7 22be 61a4 b1bd 3d8c 7ebc
00000040: 5e1c a43d 5c5f 393e 4bc4 00be d997 d13d
00000050: 609a 723c 803f 0d3b e4d1 62bd 46bd 37be
00000060: b15e 313d 5d94 33bd 1e9b 69bd 2c51 c83d
00000070: 0a1b 8fbd 322b 01be 20ae c9bd 538a 703d
00000080: c608 b93c 2645 5e3d 1e40 213d e551 6f3d
00000090: 20e1 313d 2d48 013e 894d 84bd 11de b13d
000000a0: f13c 9ebc 62c8 5dbb 82ed c13d e8ed 05be
000000b0: e3f0 643d c03f 2e3d 89d1 1bbe 774d 0d3e
000000c0: 8537 d03c f10b f13c 8756 823c f649 b73d
000000d0: 2119 89bd c944 0e3d c6c2 383d 4433 a03d
000000e0: d128 32bc 94ed b6bd 64c0 7f3d 4bff ae3d
000000f0: eb57 c4bc 54a5 523d f300 46bd 2720 86bd
00000100: 912d b23d 5421 40bd d2d9 06be 155b 993d
00000110: 422b 8c3d 0c05 6c3d d3cd e9bc 8f00 e03c
00000120: 4edc bd3d 5ab7 dd3c 3e09 233c c86e 8abd
00000130: 5b58 3bbd 93e2 20bd 4f79 283d d5de dcbc
00000140: c3f3 bdbd 8da6 d2bd 89ea a13c c5f7 f73d
00000150: 1029 17be 4b93 f6bd 9450 04be a1b8 90bd
00000160: e700 bbbd cc05 8b3c de46 b4bd 2430 66bd
00000170: 7760 193d 32aa a23d 0e32 063e fb28 1c3e
00000180: 0e17 fdbd 2ffb 80bc c915 d6bd ec7d 123e
00000190: f05f c83d 48bd 7abd 86da d9bb a016 213d
000001a0: edb8 353e 7adc d03c b65b d93d e5fa 083e
000001b0: 4d10 85bd 162d 74bc 2c7d edbd 641f d53d
000001c0: ee5b 033e cf0a b03c e84e 023e 5334 9abd
000001d0: 34a8 a83b a4eb 39bd 478f ccbd 6ed5 1a3e
000001e0: 14bb b93c ed14 16bd 7fd8 ca3d 5675 993d
000001f0: 27b4 f43d e8bb c0bd b4b0 8cbd bbe0 163e
-0.03197428 0.15161057 -0.0907459 0.024550585 0.101261005 0.015463171 -0.009452301 0.11963986
0.07616241 0.0005214737 0.1061009 -0.0144707775 -0.11796517 -0.15896568 -0.08673931 -0.015536365
0.08013223 0.18102783 -0.1257488 0.10234041 0.014807314 0.0021552742 -0.05537595 -0.17943296
0.043303195 -0.043842662 -0.057032697 0.09781107 -0.06987579 -0.12614134 -0.09847665 0.058725666
0.022587191 0.054265164 0.039367788 0.05842771 0.043427587 0.12625189 -0.06460101 0.08684934
-0.019316169 -0.0033841361 0.09469129 -0.13079035 0.05589379 0.042541265 -0.1521665 0.13799082
0.025417099 0.02942464 0.0159104 0.08949654 -0.06694246 0.034733567 0.045107625 0.07822278
-0.010873989 -0.08932033 0.062439337 0.08544787 -0.023967704 0.0514272 -0.04834075 -0.06549101
0.08700097 -0.046906784 -0.1316903 0.07488076 0.06844188 0.057622 -0.028540527 0.027344016
0.092705354 0.027064968 0.009950934 -0.06759411 -0.04573856 -0.039278578 0.041131314 -0.026961723
-0.092750095 -0.10285673 0.019765155 0.12107805 -0.14761758 -0.12039813 -0.12921363 -0.07066465
-0.091310315 0.016970538 -0.08802579 -0.056198254 0.03744551 0.079426184 0.13105032 0.15250008
-0.12357913 -0.015744774 -0.10453374 0.14305848 0.097839236 -0.06121567 -0.0066483645 0.039328218
0.17746325 0.025495756 0.106131956 0.13376959 -0.0649725 -0.014903327 -0.1159614 0.10406378
0.12828037 0.021489529 0.12725413 -0.07529511 0.0051470045 -0.04539074 -0.099882655 0.1512048
0.022672214 -0.03664105 0.099045746 0.07493083 0.11948424 -0.0941084 -0.06869641 0.14734165

weight f4 [9, 128]
00000000: a225 e43d cb8d 5bbc 155b 013d 5b76 4bbb
00000010: 7950 50be bac0 823e f5eb 51be b2fa 8d3d
00000020: 8a7f a13d fa2c e7bd 890e d1bd 358b 73be
00000030: 207e cabe 0361 0d3e 196a 043e 572a bdbb
00000040: 9821 b23d 717b dc3e a950 6b3d 6a0f 2f3e
00000050: 0864 ebbc 8ab7 153e 81a9 0e3d 05ff 8a3d
00000060: e5b0 bf3e a234 18bd 5797 c13e 41e8 9f3d
00000070: 9c63 47be 76f3 223e 4654 13bd 6f38 35bd
00000080: a468 28bd 8fc1 e8bd 2c98 1fbc 133b 473e
00000090: 6d9e 9dbc 0824 653c 0b87 04be 7a2a 5f3e
000000a0: 1238 a13c cde5 ffbd db06 603e 3db3 213e
000000b0: daaa 503d d8f4 1dbe c80b 803d ee24 77be
000000c0: f1aa 0e3f 8473 96bc 9853 d1bd 56b9 e23d
000000d0: bfc2 b0bc 43b7 9f3c c2a1 253d a76a 783d
000000e0: 7733 e93c 5b63 023e a43c a8be 6896 823d
000000f0: e593 3e3c 66fb 0d3e b343 2c3e 9c53 4e3d
00000100: 2a13 693d ea32 fa3b 9eda 08be 12d1 c43c
00000110: 9a89 45bd 9d6f b63e 1a03 cabe 3892 c6bd
00000120: e6c7 3dbc 29ec 35bb 6ec5 2c3e 895e 813d
00000130: 5c2a 083d 3be8 173e 070b 6fbd ce2b 0aba
00000140: dce9 84bd 296d 283d c350 c2bd 84ce 143c
00000150: ff1b 2a3e 0726 fd3d 8043 363d 0be4 a93d
00000160: d2c8 4fbe 2dfb a13d c7e2 643d 5024 80bb
00000170: cec9 d0bd d994 87be 85e6 2d3e ee3f aebd
00000180: bd8e 9bbe 19e9 e2bc 42be 963d 68c0 0ebe
00000190: 18db 7b3d 419e 853c d34a 95bb 342a e63d
000001a0: 5fb3 2c3d 371f 35be eec8 cbbb 8719 fd3e
000001b0: 2d76 ca3d 936c 543e a620 163d f33e d63c
000001c0: f5ea 0f3e ab20 4c3d d94f f33d fc27 9abd
000001d0: f5b0 30bd f144 1f3c 0ee5 233e d002 f8bc
000001e0: f413 15bd 587d a43a 40d5 7bbe 29aa 8fbc
000001f0: 70bb d5bd aadc 8abd e38e 0f3c 3ee9 763d
00000200: 93dc 0f3d 6c46 11bd 9946 5a3c d063 8f3c
00000210: 607d aabc bbd3 583e 252c 0abe 1042 703d
00000220: e12c e63d 9923 cbbd 818a 18be 6989 1bbe
00000230: fc20 b2be 2741 5e3e 727b c13d c823 71bd
00000240: d611 c63d 9609 523e 4274 5a3d 85b8 68bd
00000250: c538 80bb d1d6 a4bc e69d a13b ac1f 1a3d
00000260: db01 da3e 0a3c 5fbd 61fd 813e 9cbe a83b
00000270: ef8b a0bd 5495 d2bc 1222 5abe 026f 3ebe
00000280: 0339 93bc f006 c9bd 8e43 69bb 2185 4c3e
00000290: 3b53 803c 8e64 bc3c ffa3 abbd 0c54 0d3e
000002a0: 636c d33d a02e 1fbe 225c b03d 804a 993d
000002b0: 3511 883d 46df 853a 1471 d9bd 7fa8 94be
000002c0: 27c9 2a3e 645d e13d e486 0bbe 3fe6 c7bc
000002d0: 06a0 03be 8264 c3bc a065 d6bd 20ce b73c
000002e0: 9a14 413b 02f8 533d e180 8ebe 7965 863d
000002f0: 990b bf3d 9215 223e 5c7d f03d e66c 6dbd
00000300: 9d3c f63c b1ee abbd 6b74 6bbd 6a38 273d
00000310: 3ea1 eabd b695 c53e 3999 a8be f5e8 c7bd
00000320: 9c66 363d d732 bf3c cc38 213e ca10 e33d
00000330: 953e 64bb ef73 c13d 97e3 78bd c28a 6dbc
00000340: e0dd d0bc f03d 033e ab1d c2bd 51a9 343b
00000350: 138e 223d c98f b53d 3fc4 94bd e6bb 15bc
00000360: dd12 5cbd 7a3d 263c 8439 aa3a ade9 66bd
00000370: bd71 043d df2f 5e3c 4158 5f3e 4a53 60bd
00000380: 0e55 09be b167 bf3c 6b14 a03d 66f5 173b
00000390: f513 c4bd c113 723c 559c babd 2875 67bd
000003a0: 8c5e 9f3d 3d02 b83b fc2b 3dbd e8ba 873e
000003b0: 23a9 ef3d 0420 1f3e b4e9 bcbd f7c9 803d
000003c0: c447 a43d 3e63 0c3d 09a9 e9bb 1cfb 94be
000003d0: 7aff 10bd 83bb 223d e22c 023e f6f0 b83d
000003e0: e2fe c8bc ee28 4fbd ed2f 69bd 6cce 0c3c
000003f0: c072 ee3c bd50 92bd 0020 05be 9d8f 623d
0.111399904 -0.013400505 0.031581003 -0.0031045887 -0.20343198 0.25537664 -0.20500167 0.06932582
0.07885654 -0.112878755 -0.102078505 -0.23783572 -0.3954935 0.13806538 0.12931098 -0.0057728696
0.08697814 0.43062928 0.05744997 0.17095724 -0.028734222 0.14620796 0.03482962 0.06786922
0.37439647 -0.03715957 0.37810776 0.07807971 -0.19471592 0.15913185 -0.03596904 -0.044243272
-0.041115418 -0.11365043 -0.00974087 0.19456129 -0.019240582 0.013985641 -0.1294214 0.21793547
0.019680057 -0.12495003 0.21877615 0.1579103 0.050944187 -0.15425432 0.06252247 -0.24135181
0.55729586 -0.018365629 -0.10221022 0.11070506 -0.021577237 0.019496566 0.040437467 0.060648587
0.028466923 0.12733214 -0.32858765 0.06376344 0.0116319405 0.13865432 0.168227 0.050372705
0.056903042 0.007635464 -0.13364646 0.024025474 -0.04822693 0.3563203 -0.3945549 -0.09695858
-0.011583304 -0.002775917 0.16872188 0.06316859 0.033243522 0.14834683 -0.058360126 -0.00052708096
-0.06489918 0.04111973 -0.0948806 0.00908244 0.16612242 0.12360769 0.044497967 0.08295449
-0.2029145 0.07909236 0.055880334 -0.003910579 -0.10194741 -0.2648075 0.16982467 -0.08508287
-0.30382338 -0.02769904 0.073605075 -0.13940585 0.06148824 0.016310813 -0.004556039 0.11238518
0.04216325 -0.17687689 -0.006219021 0.49433538 0.098858215 0.20744543 0.03665223 0.026153063
0.14054473 0.049835842 0.11880464 -0.07527158 -0.04313751 0.009721027 0.16005346 -0.030274779
-0.036395982 0.0012549562 -0.24593067 -0.017537193 -0.104361415 -0.067803696 0.008762094 0.06028103
0.035122465 -0.03546755 0.013322496 0.017503649 -0.020811737 0.21174519 -0.13493402 0.058656752
0.11239029 -0.09918899 -0.14896585 -0.15189137 -0.3479079 0.21704541 0.094473734 -0.058872014
0.09671371 0.20511469 0.05333353 -0.056816597 -0.0039130175 -0.020121964 0.004932153 0.03762786
0.4257954 -0.054500617 0.25388625 0.0051496755 -0.0783919 -0.02570597 -0.2130206 -0.18597034
-0.017971521 -0.09815776 -0.0035593244 0.1997266 0.015664687 0.022997167 -0.08380889 0.13801593
0.103234075 -0.1554513 0.08611323 0.07484913 0.06643907 0.0010213635 -0.10617271 -0.29034802
0.16678296 0.11004141 -0.13625675 -0.024401782 -0.12854013 -0.023851637 -0.10468602 0.022437155
0.0029461742 0.05175019 -0.27832702 0.06562323 0.09328384 0.15828541 0.117426604 -0.05796518
0.0300582 -0.08395136 -0.05748407 0.040825285 -0.11456536 0.38590783 -0.329294 -0.0976123
0.04453145 0.023339672 0.15744323 0.11087187 -0.003482734 0.09445941 -0.06076392 -0.0144984145
-0.025496423 0.12816596 -0.09478315 0.002756674 0.039686274 0.088653155 -0.072639935 -0.009139037
-0.053728927 0.010146493 0.0012987112 -0.056375194 0.03233503 0.013561218 0.2181101 -0.05476693
-0.13411352 0.023364874 0.078163944 0.002318704 -0.09574119 0.0147752175 -0.09111849 -0.056508213
0.07781705 0.005615501 -0.046184525 0.26509786 0.11702182 0.15539557 -0.09224263 0.06288522
0.08021501 0.034274332 -0.0071307463 -0.2909783 -0.03539989 0.039729606 0.12712434 0.09030335
-0.0245356 -0.050576143 -0.05693047 0.008594137 0.029107451 -0.07144306 -0.13000488 0.05531274

bias f4 [9]
00000000: a451 ff3d 7b5b 4b3e 3594 99bd 4148 03be
00000010: ba32 a03d 4f33 88bd cef5 fdbd c040 843c
00000020: 961a 043d
0.124667436 0.19859116 -0.074989714 -0.12820531 0.07822175 -0.06650411 -0.12400399 0.016144156
0.032251917

weight f4 [1, 128]
00000000: 4a58 35be e505 0e3d 9456 d23d 6d34 d8bd
00000010: 8eb2 87be c8a3 5b3e de9b 9dbe 1a3f ac3c
00000020: 7b38 b33d d420 65be b0ae e23b 9a20 a2be
00000030: 8b16 98bd 77c0 223e 2d06 da3c af94 713e
00000040: 8103 2bbc 7df6 a63c 7b79 63bd 182d a53d
00000050: cb4c 11bd 274f a73e 8d28 653e 3067 af3b
00000060: 49cf ea3c c1c5 97bc fd04 ae3b baad 5a3d
00000070: 9c5b b63e 649b f23c 4a45 4ebe 7f4a 58bd
00000080: 1f62 f63c 1f08 69be a1ee 79be 3b04 4c3e
00000090: 164f 0fbd 8dab 2c3d 272e 253c 3200 ac3e
000000a0: 3c50 183e ee0c 83bd cb32 413e 7ebf 933d
000000b0: 13b6 fcbd 2c08 05bf 6c64 5d3e c114 233d
000000c0: c54b 73bd 219a 98be 10a4 153e 4b43 3fbd
000000d0: 5d14 b0be cdc5 20be 2656 9d3c 0e41 e0bd
000000e0: 038a bbbc d900 f73e 9b39 15be 7686 aa3b
000000f0: 1e3e fdbb 067b 853e 9a16 a63e ada9 a33c
00000100: fb1e 65be edaf 903d 0fdc c0be 8527 953e
00000110: 1aed 72bd 633e c23e 207b 2b3e 7523 0ebe
00000120: 8cff 4c3d cd12 823d 5eee 953e 6c2a 743d
00000130: 6ef0 1b3e b2c1 153e fd28 f2bc 71df efbd
00000140: cd76 3d3d c71c 273e af4d 5ebe 8854 fd3c
00000150: 7963 423e c389 68bd 80a8 943e 6c9a 64bd
00000160: c9a4 cbbc 0076 dbbd 8bce 293d 5afa 5dbd
00000170: 76a8 d83e b202 a53e d0ce 813e f51b be3d
00000180: b837 8ebe f459 67bd 57e0 703d aaeb 9abe
00000190: b6dc e5bc 0ff6 593e 9cb9 803e 0bdf 0a3d
000001a0: 1fcd 893d ef1b 143c a734 a8bb cdc3 9e3d
000001b0: 2c2c 923d 4664 e33d 1061 1ebe cfb9 e63c
000001c0: 050c 383e 8df0 313d 6a18 56bd 2e78 8c3e
000001d0: 80a2 073d 6d1e 563d 91e6 a13e c514 84bd
000001e0: d8a5 ea3c abdb 4dbd 431d 82bd ca03 a23d
000001f0: 2963 663d f1f1 30be 5523 093d 3f63 9d3d
-0.17709461 0.03467359 0.1027042 -0.105568744 -0.26503414 0.21449196 -0.3078298 0.021026183
0.08751007 -0.22375804 0.006917797 -0.31665498 -0.07426175 0.15893732 0.026614273 0.23591875
-0.010437847 0.020381207 -0.055535775 0.080652416 -0.035473626 0.32677576 0.2237875 0.005352877
0.028663294 -0.018526914 0.0053106532 0.053388335 0.35616767 0.029615112 -0.20143619 -0.05280542
0.030076085 -0.22757004 -0.24407436 0.19923489 -0.03498753 0.04215579 0.010081804 0.335939
0.14874357 -0.063989505 0.18867032 0.072142586 -0.123394154 -0.51965594 0.21620339 0.039814714
-0.05939843 -0.2980509 0.14613366 -0.046695035 -0.34390536 -0.15700455 0.019206118 -0.10949908
-0.022892958 0.48242834 -0.14572756 0.0052040173 -0.007728352 0.26070422 0.3243912 0.019978369
-0.223751 0.07064805 -0.3766789 0.29131714 -0.05930815 0.37938222 0.16746187 -0.13880713
0.050048396 0.06351242 0.29283422 0.05961077 0.15228435 0.1462467 -0.02956056 -0.1171254
0.046255875 0.16319571 -0.21709321 0.030924097 0.18983258 -0.056772005 0.29034805 -0.05581133
-0.02485885 -0.10715866 0.04145674 -0.054193832 0.42316025 0.3222862 0.25353098 0.09282676
-0.27776885 -0.05648227 0.058807697 -0.30257922 -0.028059345 0.2128527 0.2514161 0.033904117
0.06728577 0.009039863 -0.00513323 0.0775219 0.07137331 0.1110311 -0.15466714 0.028164772
0.17973335 0.043442298 -0.052269377 0.2743544 0.033113956 0.05227511 0.3162122 -0.06449274
0.028643534 -0.05025832 -0.063532375 0.07910879 0.05624691 -0.17279793 0.03348096 0.07684945

weight_ih_l0 f4 [512, 128]
00000000: 815c cbbd 268b cb3d eb0d 453e af3b 0dbc
00000010: ed88 973d d253 f9bc 8276 3a3e 49b5 8c3e
00000020: b7f1 313e ed8f b8bd 1ef9 9cbc 530a ae3c
00000030: 23df 683e 72fd d93d 17dd 483e 6405 263f
00000040: 7ea6 16be 5bff 983d a518 bc3e a631 c33e
00000050: b31f 4d3d 4fdc a8bd f69f a33e 3c89 d73d
00000060: 5b7e 2d3d c6c2 e83d 18df 9c3e a8cb 63bd
00000070: 7b6a 24bd c7e6 50bd 0a3f 6fbe 0a38 043e
00000080: 8a3e ae3e 0d07 e73e af80 37be 7b0c ffbd
00000090: b8c3 bfbc b70c d13d 34f6 5f3e 561f 883d
000000a0: 5470 efbc 0edd 3cbe ab82 68bd 3ff6 163e
000000b0: 4991 8bbd c7d5 4cbe 2353 97bc 5276 663d
000000c0: 2960 993c 8ae1 e33e 510e bd3d 3dec 203e
000000d0: db71 f83e aa76 e33d 5e7a 813c 6b77 e13e
000000e0: c3dd 993b 9246 5d3d 51e0 e4bd 00b0 5abc
000000f0: 3004 173d 1d63 0a3e 76c2 03be 63ba ddba
00000100: a5a7 b7bd 4577 bc3e f545 be3e 4e28 8c3d
00000110: 3ff4 473d 9e19 083e 8e0c 6e3c 753e 45be
00000120: 3366 af3c 03da f0bd 554d 1cbd efc5 643e
00000130: cc90 b53d 8a0a 47be 7795 42bd a9b3 b3bd
00000140: 5e88 883e 57cb 16bd e870 d9bd 2b16 163e
00000150: 47a0 083e 0a13 8cbe c17a 17bd 8406 583e
00000160: aae5 1abe a3cd 723e ecfb 883e ce19 1bbe
00000170: 7639 e6bc a7e8 c13d 3372 95bd 266c e1bd
00000180: 06c7 293e 0814 d7bc ad97 23bc 5bcc 013e
00000190: 86b1 393d 4852 073d a8f7 693e 8517 17bd
000001a0: bbe1 cdbd 7ec2 fabd d5e0 613e bf19 70bd
000001b0: e9d7 b63e 9cb0 363e dde1 7d3e f97d 513d
000001c0: e6a4 39bd 888b 7b3e 0c59 c8bc 7056 2ebe
000001d0: d226 01bd 28a7 d73b 1a69 3ebe 9f48 acbd
000001e0: 08bb f9bd f794 643e 8e3c a73e c63f 03be
000001f0: 079e bd3e 8770 e23e 6336 063e 0bb5 9dbd
00000200: 369d 413e 2ab8 d9bd f0db 1b3e 9cda c73d
00000210: a6cb 0b3e 241e 313d 78e7 c8bc 1123 793d
00000220: 3939 e93d 387d e2bd 91ea e73d 655a 0d3d
00000230: f830 2b3e cdec 033d ba6f 793e daaf ae3d
00000240: 8aa2 5e3b 251d 423d 8d9f 033e e042 033e
00000250: 34ab 803d 963a ef3d 568d 833e 13e8 ae3c
00000260: b0dc 003e d387 113e f9cd ca3d 8f09 96bc
00000270: b133 583c 75b0 593d 9a66 413b 7935 2f3e
00000280: ebd4 143e 82fe 1d3e 0f77 193d 968d f93a
00000290: 75d4 133d 1fdc 213d 74ff 623e 73f9 6a3d
000002a0: 7277 94bc 0df2 06bd 0219 9f3d c929 093e
000002b0: 780e 9f3d 9c79 c7bd 1f4d 0d3d 863c 4c3c
000002c0: dd0a b63d c3c9 233e f79e 063e 5b36 f53d
000002d0: a4d4 df3d 5f95 a73b c581 0dbe 7490 803e
000002e0: ce2d b13d 0d47 8e3d efc2 8f3d 3e4a bfbc
000002f0: 2e99 42bd 2834 1b3e 077a 1a3e 4d4d ca3d
00000300: 43cb e7bd eb84 5d3e 7b0d 2e3e a779 433d
00000310: 8646 6ebd c5aa 043d 1d4a bf3c 9033 18bd
00000320: 12e9 543d c62a 393c a335 92bd 15da 6a3e
00000330: 81f8 32bc 1215 39bd 50dc a43d 6f2b 8e3c
00000340: 4d73 943e 875a f13b 5789 f3bb 7cbe 643d
00000350: 52cf 273d 0f64 9c3d 4edc 043e 2cd4 003e
00000360: c032 593e 56f5 943d 7fab bb3d 3ce8 a03c
00000370: 5017 d7bd df2d 013e e626 12bd 100a fd3c
00000380: 70bd b73d 48c9 9f3d a070 133a 20e3 1b3e
00000390: 3c63 ccbb 3f1e 1a3e d96a 603e be37 d43d
000003a0: 6aa5 09bd d05d 413b db9d b53d 4234 683d
000003b0: 3cb9 083e 23d0 c53d 7f92 a33e 233e 343e
000003c0: 2f0e 023d d0f5 d73d a620 d93d 4f6e cc3d
000003d0: 8802 04bc 25ef 2fbd 3da3 9cbd 4dfa fd3d
000003e0: 5953 703d b72f b03d 2586 613d f46b 22bd
000003f0: 12a5 d13d e4ea 683e 6f2a 2b3e 8912 9fbd
-0.09929753 0.0993865 0.1924359 -0.008620187 0.073991634 -0.030435476 0.1820927 0.2748206
0.17377363 -0.09011827 -0.019161757 0.021245157 0.2274137 0.10644044 0.19615589 0.64851975
-0.14711949 0.0747058 0.36737552 0.38123816 0.05007906 -0.082451455 0.31957978 0.10524222
0.04235683 0.11365275 0.30638957 -0.055614144 -0.04014061 -0.051001336 -0.23363891 0.12912002
0.3403209 0.45122567 -0.17920183 -0.12453552 -0.023408756 0.10207503 0.21871263 0.06646602
-0.029228367 -0.184437 -0.05676524 0.14742373 -0.0681482 -0.20003425 -0.01847226 0.056265183
0.01872261 0.4450801 0.09231246 0.15715118 0.48524365 0.11106618 0.01580542 0.4403642
0.0046956255 0.05402238 -0.111755975 -0.013347626 0.036869228 0.13514371 -0.1286715 -0.001691651
-0.089675225 0.36809745 0.37162748 0.06843625 0.048816916 0.13291022 0.01452936 -0.19262107
0.021411037 -0.117603324 -0.038159687 0.2234113 0.088655084 -0.19437614 -0.047505822 -0.08774502
0.2666654 -0.036815014 -0.10617238 0.14656894 0.13342391 -0.27358276 -0.0369823 0.21096236
-0.15126672 0.23711257 0.267547 -0.15146562 -0.028103571 0.09468203 -0.072971724 -0.11006956
0.16579828 -0.026254669 -0.009984893 0.12675612 0.045335315 0.033037454 0.2284838 -0.036887664
-0.1005282 -0.12244128 0.22058423 -0.058618303 0.357116 0.17840809 0.24793191 0.051145528
-0.045323275 0.24564946 -0.024456523 -0.17025161 -0.031531163 0.006581206 -0.1859478 -0.08412289
-0.121938765 0.2232245 0.32663387 -0.12817296 0.37034628 0.44226477 0.13106684 -0.07700547
0.18907627 -0.1063083 0.15220618 0.09758493 0.13651904 0.043241635 -0.024524435 0.060824458
0.113878675 -0.1105904 0.11324037 0.034510035 0.16717899 0.032208253 0.24359027 0.08529635
0.0033971393 0.047391076 0.12853833 0.1281848 0.062826544 0.11681096 0.25693768 0.021350896
0.12584186 0.14211969 0.099025674 -0.018315105 0.013195918 0.0531468 0.0029510618 0.17110242
0.14534347 0.15429118 0.03746706 0.0019039388 0.036091287 0.039516564 0.2216776 0.0573668
-0.018123362 -0.03294568 0.07768442 0.13394846 0.077664316 -0.09739992 0.034497377 0.012465602
0.08888791 0.15994935 0.13146578 0.11973258 0.1092923 0.005114242 -0.13819034 0.2511021
0.08651315 0.069471456 0.070196025 -0.023350831 -0.047509365 0.15156615 0.15085612 0.09878025
-0.11318066 0.21632735 0.1699733 0.04772344 -0.058172725 0.03238942 0.02335077 -0.03715855
0.051980086 0.011301702 -0.07139137 0.22934754 -0.010923506 -0.04518611 0.08049834 0.017354695
0.28994218 0.007365528 -0.0074321437 0.055845723 0.0409692 0.07636272 0.12974665 0.12580937
0.21210766 0.072733566 0.0916357 0.019641988 -0.105024934 0.12615155 -0.035681628 0.030888587
0.08971679 0.07802063 0.00056243874 0.1522336 -0.0062374156 0.150506 0.21915759 0.103621945
-0.033605017 0.002950538 0.08867999 0.056690462 0.13351911 0.096588396 0.31947705 0.17601828
0.031751808 0.10544932 0.1060193 0.09981977 -0.008057244 -0.042952675 -0.07648323 0.12401257
0.058673237 0.08602851 0.05505957 -0.039653733 0.10236563 0.22745854 0.16715406 -0.07767207

weight_hh_l0 f4 [512, 128]
00000000: 02dc 0fbd 69f7 0c3e f96b e1bd 9f99 303e
00000010: c7e6 34bd da32 43bd 0a05 ebbd 5b8e e03b
00000020: 0d0e 9f3d 1de3 9e3d f135 a6bd 4096 34bd
00000030: 45df 113d bd4a afbd 772c 60be 7e9f 06bd
00000040: 3133 30be 4d56 9f3d 34df e63d 0db2 0c3e
00000050: e8bf 933d b8a7 263e 1189 333e 0572 02bc
00000060: d697 583e a204 d3bc 4b98 1f3d ee39 81bd
00000070: 0beb fa3d e0b7 dd3c 39dd 79be 4113 c7be
00000080: 2c9e 1abe ed3c 0dbe 3d50 acbe 8eab 843d
00000090: cd7f 963d 5df2 bf3d 011e 54bc e3d0 5a3c
000000a0: 0a48 f13d f520 47be 81b3 b53d 4215 6c3e
000000b0: f4bd 253e 0c6c 19bd 0bbd f4bd fd1a 933d
000000c0: bb0c f3bc 3680 88be e2aa b7bd 450b 8a3d
000000d0: a740 55be 8c09 053e bce8 083e f2b2 4cbd
000000e0: 6f85 19bb 8bee a73c b745 7b3d 5107 98be
000000f0: 9c6b fdbc 7783 163d 04e0 cd3d 68fc ed3d
00000100: cd7b 6dbe 4060 bf3d 9a13 b4bc 47a0 fbbd
00000110: eda6 273e f2c3 0bbe 7e06 573d 52b5 2d3d
00000120: 8fb0 f13c 0bcb ea3d 2c75 723d d863 6bbb
00000130: 5423 cb3d 2636 fc3d ec55 81bc 85e9 81be
00000140: 07a7 b73b 556b 503e 8fe1 57be 6cba c6bd
00000150: 7f51 80be b149 01bd 9731 923e 82e5 543e
00000160: b371 573c 2304 88bd 6a48 803d 2c02 dd3d
00000170: fe16 5b3e 10d5 883e 0329 f63c aef7 0f3e
00000180: 5cbf b0bd 7c64 c7bd 76ac 323e 5040 31bc
00000190: 7ee8 ce3d ecce c6bd e60b 963d 608a 063d
000001a0: 1084 3cbd 3343 05be d0d5 5b3e e3b1 c43d
000001b0: a2b3 e7ba d53b 583d f496 0abd a87d 87be
000001c0: 7ce6 8a3e fdfc 42bd a142 c73d 003d 75bd
000001d0: 4e7a 0a3e 77c7 a23b 4c8f e93d ab4a 01bd
000001e0: 9d03 913d caf3 4d3e 26a1 943d 6341 46be
000001f0: 7c7f ff3c 7da8 02be b6b3 4bbd f639 15be
00000200: 2df4 e0bc 1a11 cdbc 3c94 203e 956f e73d
00000210: 48e5 17be 86c1 063d d5a1 acbd 7a85 673d
00000220: 8da4 6c3d 294e b7bc 3e8a bcbd b6ae 68be
00000230: 6408 27bd da74 673c ad59 243e 0d53 173c
00000240: bc24 afbd 905d 0e3d faae 683d f033 453c
00000250: 518a c73d 84c8 95bd 4646 553d 4df7 b43b
00000260: 1a40 e43d f562 e33c 607b 333d 15fb 1ebd
00000270: fe44 5dbd 2835 123e 89e5 cbbd a7e6 0fbd
00000280: 9e4c 343d 4589 acbd 6a5a 2f3c f2a3 8e3c
00000290: 6e2d 02bd 136e 593d be5f 3e3d 82b5 2a3e
000002a0: a016 bf3d 023f a4bd 1592 233e 2d07 ed3d
000002b0: 53ed 8b3d fa4b 8c3d 1ded 5a3d b716 2abd
000002c0: 61e4 173e cdb9 02be caa6 8dbd fc8c 90bc
000002d0: 3a12 05be 43cb d2bc 97d5 a03c 930a 993d
000002e0: 59fa dfbc 1de6 363e 3c4d b1bd 56b9 8fbd
000002f0: f6c6 11bd 1af5 113e 526f 3f3e 5f12 0bbd
00000300: 6c98 8d3d dc7c 8a3c 0b65 ffbd 4ad0 dd3d
00000310: 9dc4 74bc 01ef a4ba 99ea f03d 9bb8 26bd
00000320: 3502 b63d 8945 88bc 6bd0 783e e9c7 fe3d
00000330: b939 043e 3a8a 8a3c 13dc 68bd dded a4bc
00000340: 24e1 323d 413a bf3d d011 39be 0148 cebd
00000350: a843 ee3d ee49 1c3c d6f3 11be daa7 463d
00000360: c4b6 e9bc e85d 973d e2d0 f53d 9e65 34bd
00000370: e441 803c 16b6 ed3c e9a6 7e3d 9b5c 35be
00000380: 01fd 5bbd 19e4 d5bd 7471 4f3d 73be c13d
00000390: 8ed7 ee3c 24db cc3c aee0 2dbc 7d71 17bd
000003a0: 04d8 46bd 1ec4 093d 7798 e8bc c0f5 7a3d
000003b0: f7bf 403d a1ab d13d ed8b b3bd 83c6 2b3e
000003c0: 0a6b 9a3c b0d3 a5bd 2a5d 83bd 8d27 aabd
000003d0: 574c 1fbc 750c 623d 73f5 c23d 986f f93b
000003e0: 9b47 0ebd be27 a63d 1b46 e63d 3712 83bb
000003f0: 6f99 eabd 8076 c23c 608c 843c 4551 813d
-0.035121925 0.13766254 -0.11006922 0.17246102 -0.0441654 -0.047655918 -0.114755705 0.0068529076
0.07766352 0.07758162 -0.08115757 -0.044088602 0.035613317 -0.08559177 -0.21891962 -0.032866947
-0.17207028 0.077801324 0.11273041 0.13739796 0.072143376 0.16274917 0.17532755 -0.007961755
0.21151671 -0.025759045 0.038963597 -0.06309877 0.12251862 0.027065217 -0.24400796 -0.38881877
-0.150994 -0.13792773 -0.33654967 0.06478034 0.07348595 0.09372399 -0.012946607 0.013355467
0.117813185 -0.19446166 0.08872128 0.23054984 0.16185743 -0.037456557 -0.119501196 0.07182882
-0.029669156 -0.26660317 -0.0896814 0.06740431 -0.20825444 0.12991923 0.13370031 -0.049975343
-0.002342548 0.020499488 0.061345782 -0.29693082 -0.030935101 0.03674647 0.10052493 0.11620408
-0.23191758 0.0934453 -0.021982003 -0.1228643 0.16372271 -0.13648966 0.052496426 0.04240925
0.029503135 0.114645086 0.059193775 -0.0035917666 0.09918848 0.123150155 -0.015788041 -0.25373474
0.005604628 0.20353444 -0.21082138 -0.09703526 -0.25062177 -0.03156442 0.2855346 0.20790675
0.013149667 -0.06641414 0.06263812 0.1079143 0.2139549 0.26725054 0.030048853 0.14059326
-0.08630249 -0.09735963 0.17448601 -0.010818556 0.10102938 -0.09707436 0.07326488 0.03284681
-0.046024382 -0.13013916 0.21468282 0.09604242 -0.0017677436 0.052791435 -0.033835366 -0.26463056
0.2712897 -0.04760455 0.09729505 -0.059872627 0.13523218 0.0049676257 0.11404285 -0.03156535
0.07080767 0.2011253 0.07257299 -0.1936088 0.031188719 -0.12759586 -0.049731933 -0.14572892
-0.027460182 -0.025032569 0.15681547 0.113005795 -0.14833558 0.032899402 -0.084293045 0.056523778
0.057774115 -0.022376137 -0.09206055 -0.22722897 -0.040779486 0.014126981 0.16049834 0.009236109
-0.085519284 0.034757197 0.056807496 0.012036309 0.09743179 -0.07313636 0.05206897 0.0055226446
0.11145039 0.027757147 0.04381883 -0.03881367 -0.054020874 0.1427809 -0.0995589 -0.035132077
0.04401838 -0.084246196 0.010702709 0.01741216 -0.031781606 0.05308349 0.046478026 0.16670802
0.09330487 -0.0801983 0.15973695 0.11573634 0.068323754 0.06850429 0.053448785 -0.04152557
0.14833213 -0.1276619 -0.06916578 -0.017645352 -0.12995234 -0.025731688 0.019633098 0.0747272
-0.027341055 0.17861219 -0.086573094 -0.07017772 -0.035590135 0.14253655 0.18694809 -0.033953067
0.06913838 0.01690524 -0.12470444 0.108307436 -0.014939454 -0.0012583436 0.11763496 -0.040703397
0.0888714 -0.01663472 0.24298255 0.124404736 0.12912644 0.016911615 -0.056850504 -0.020132953
0.043671742 0.09337283 -0.18073201 -0.100723274 0.11633998 0.009539111 -0.14253172 0.04849992
-0.028529532 0.07390958 0.12002732 -0.044042222 0.01565642 0.02901749 0.062170897 -0.17711107
-0.05370808 -0.10443897 0.050645307 0.094601534 0.029155519 0.025006838 -0.01061265 -0.036973465
-0.048545852 0.033634298 -0.028393013 0.06126952 0.047058072 0.10237814 -0.08766923 0.16774945
0.018849868 -0.08097017 -0.06414254 -0.08308325 -0.009722791 0.05518766 0.09519472 0.00761218
-0.034736257 0.08113049 0.1124384 -0.003999974 -0.114550464 0.023738146 0.016180217 0.06314329

bias_ih_l0 f4 [512]
00000000: 18f7 643d 400d f63d d41c 3e3e 13c9 7c3e
00000010: d175 483d 8cf7 1c3d 080d b2bd 3b52 1f3d
00000020: d2d7 903d 09e2 bf3d 5965 763c 64ec 183d
00000030: b384 a33d a7f8 b53d 7a5c 1dbd 62d4 8d3e
00000040: 8129 c63d fd17 3c3e 5c71 213e bb3f 5e3e
00000050: fcda 503d b8d4 9c3d 2503 d83d c33c 4e3e
00000060: 5f2b 3e3d eafa ebbc 24ce db3d fce2 2b3d
00000070: d6a6 fd3c 4d58 a93c 8885 5f3d e49c 773d
00000080: 3126 cd3c c05c 193d df6c 8b3d 0ab7 943e
00000090: 4cd4 c23b d2ea d0bc 26f3 053e b6be 143e
000000a0: 1483 823d 4b65 473d 071c 0e3d b7c9 e23c
000000b0: e7fa 103d aee8 e23b 0608 683d ba1b 883e
000000c0: 6480 b63e 893f 2a3d f119 6a3e 4bc0 783e
000000d0: add3 de3d d0ea 5b3e b8e7 6d3e c494 e5bc
000000e0: cc22 163d 3142 213d 81de 0b3e 5135 56bc
000000f0: 5020 8c3e 701a 1b3e 414b 833b c4c3 debd
00000100: f5f0 de3b aed1 a13d c4e0 f43d 1654 e53b
00000110: 94a7 493e 9bdc c63d 717a cd3d 12a2 cf3d
00000120: 2650 303e 821b c53c ab24 76bb fa96 e13d
00000130: 4dba a03d 4603 173e c4d9 2c3e 23ef 653d
00000140: 7415 7e3d 3592 4ebd 54e2 3b3e c01e e3bd
00000150: 0438 973e 56d1 243b cb13 9a3d 7b21 99bd
00000160: f396 483e efee 263e 7323 f93c c300 fe3d
00000170: e8e8 033e 1053 f23d c3b8 0b3e 7bc8 0bbd
00000180: 6b5c 92bc 9589 c63d 128b 04bd 9ab9 e7bc
00000190: d327 7b3e fab1 a03e 37a8 553e 4df2 8f3d
000001a0: 65a4 b03c d0c0 ba3d 1e12 543d 0714 efbc
000001b0: 81c6 083e 8fcc 1dbc ef7b 673e 56b7 053e
000001c0: b78a a93d ac42 683d 4bc4 8c3e c763 05bd
000001d0: 3c65 0c3d 9b50 a9bd f4ad 443d 5fe7 9e3d
000001e0: bf2a 43bd cb81 5d3d 57e6 803e 8d8c 323e
000001f0: 9416 bdbc 5251 bf3d 6eb1 163e e62a c03d
00000200: 518b 9cbb 5f74 3bbc 1ab8 93bd 3f45 5bbc
00000210: 2808 56bd 7a25 9abc 9fa9 b13b 285f 8c3c
00000220: 6f67 bc3c 4e0c debc e0b5 033d 6805 76bc
00000230: 521a babd 4e36 b4bc 362d 133d 1180 e8bc
00000240: 2008 76bd 6baf 5dbd 30fe bd3d d962 35bd
00000250: 4358 243d 911d 6ebc 9f94 77bc 1351 363b
00000260: 0997 c1bd c98b b43d 91b3 74bd c7e4 db3d
00000270: 74af b13b 8a61 7d3c 6ed5 583b a4f4 853c
00000280: fbd3 f53d c0d6 143d 6ac8 e9bc 199d a3bd
00000290: 6d9a d93c 0789 b73d fbfd cc3d 8d89 8cbd
000002a0: c41e 283d 95ab f6bb a3d7 fabb 3b89 823d
000002b0: b867 973d 45c2 42bd f5b2 61bd d64c c4bd
000002c0: 372f 6dbd 208c 6dbd e314 b4bd d0eb bb3d
000002d0: 892a 5f3c 863d 84bd 83de c9bd 7381 8f3c
000002e0: 7084 213d f014 1ebd 8b35 7cbd bc5f 8b3d
000002f0: be1c e8ba 6db8 03bd d27d a9bc bf27 8f3d
00000300: b239 a73c 31f2 463c f584 d7bc 3ca6 cc3c
00000310: de5d e03d 4a78 a4bd 0996 01be a8af 8f3c
00000320: 6775 e9bb 6a14 663d ca5a d0bc 9707 243d
00000330: fd95 253c 841c 99bd cedd 0a3e 92bc 91bd
00000340: 3120 333d 7edb 313c 7a4b c6bb 2f41 373d
00000350: 35aa d0bd 9077 08bd 33c2 16bd 46af af3d
00000360: e7b3 31bd 4f06 0abe 7127 d03c b9db cf3c
00000370: e75a 49bc 2bfa 64bd 5d52 8c3b 7603 103c
00000380: 2b5e 95bd 4bb0 c03c 6d93 593d 5d3d 80bd
00000390: 8974 71bd 86a5 5fbd 5ee8 3e3b 2a6d 69bd
000003a0: 3bd8 a23d 786e 85bd 14c0 353d bbbc f1bd
000003b0: 4961 d23c 876b 86bd 43dc 51bd a64c 473d
000003c0: 7194 4b3c 1622 b93d fd05 ffbc 84eb babd
000003d0: b058 d03d d241 313c 875b 25bd 0d0e 23bd
000003e0: 3e8e 9d3d e612 a53d 353f 0dbe e148 463d
000003f0: ca9f e1bd 5dab 3f3b aa73 3f3d ecf1 63bb
0.05589971 0.12014246 0.18565685 0.24686079 0.048940483 0.038322017 -0.08693892 0.03889678
0.070724145 0.09369285 0.015038812 0.037334815 0.07984295 0.08885317 -0.03841827 0.27701098
0.09675885 0.18368526 0.157659 0.21703999 0.05099009 0.076577604 0.10547475 0.20140366
0.04642808 -0.028806169 0.107326776 0.041964516 0.030963343 0.020671988 0.054570705 0.060452357
0.025042625 0.03744197 0.06807875 0.29045898 0.005945718 -0.025502596 0.13081035 0.14525875
0.063726574 0.048680585 0.034694698 0.027684076 0.03539553 0.0069247102 0.056648277 0.26583654
0.3564483 0.041564498 0.22861458 0.24292104 0.10880218 0.21476293 0.23232925 -0.028025039
0.03665428 0.039369766 0.13659097 -0.013074235 0.27368402 0.15146804 0.0040067737 -0.10877183
0.0068036267 0.07901321 0.11956933 0.006998549 0.19692832 0.09710046 0.100331195 0.10138334
0.17218074 0.024060968 -0.0037558477 0.110151246 0.07848034 0.14747342 0.16879946 0.05613626
0.062032178 -0.050432403 0.18348056 -0.110898495 0.29534924 0.0025149188 0.075233065 -0.07477089
0.19588833 0.16302083 0.030412411 0.12402489 0.12881815 0.11832249 0.136447 -0.03412674
-0.017866334 0.096942104 -0.03235919 -0.028286744 0.2452691 0.31385785 0.2086495 0.07028637
0.021562764 0.09118807 0.05177509 -0.029184354 0.13356973 -0.00963129 0.2260587 0.13058218
0.08278411 0.05670421 0.2749351 -0.03256586 0.034276232 -0.082673274 0.048017457 0.07758974
-0.047648188 0.05407886 0.25175735 0.17436428 -0.023082055 0.093416825 0.14716122 0.09383182
-0.00477735 -0.011441319 -0.07212849 -0.013383209 -0.052253872 -0.018816698 0.0054218317 0.017135218
0.02299854 -0.027105477 0.03215587 -0.015015937 -0.090870515 -0.02199855 0.03593179 -0.02838138
-0.060066342 -0.05412237 0.09276998 -0.04428372 0.040123235 -0.014533416 -0.015111118 0.002781932
-0.09452636 0.088157244 -0.05974156 0.10736995 0.005422527 0.01546515 0.0033086198 0.016352005
0.12003323 0.036337614 -0.028537948 -0.079889484 0.026562894 0.08961683 0.100093804 -0.06862173
0.041044965 -0.0075277784 -0.0076551004 0.06373831 0.0739283 -0.04754855 -0.055102307 -0.09584968
-0.057906356 -0.05799496 -0.08793046 0.09175837 0.013620981 -0.06457047 -0.09856894 0.01751778
0.039432943 -0.038594186 -0.0615745 0.06805369 -0.0017708761 -0.032158304 -0.020689879 0.06990003
0.020413253 0.012142704 -0.026308516 0.02498161 0.10955404 -0.08030756 -0.1265489 0.017539814
-0.007124591 0.056171812 -0.025433917 0.0400463 0.010106561 -0.07476142 0.13561174 -0.07116045
0.043731872 0.010855554 -0.006051478 0.0447399 -0.101887144 -0.03331715 -0.036806297 0.08578353
-0.04338446 -0.13478969 0.025409432 0.025373327 -0.012289739 -0.05590264 0.0042822794 0.008789888
-0.07293352 0.023521563 0.05311911 -0.06261704 -0.058949027 -0.054601215 0.00291302 -0.056988873
0.07951399 -0.06515211 0.044372633 -0.118035756 0.025681155 -0.06563478 -0.05123545 0.048657082
0.012425528 0.090397045 -0.031130785 -0.09126952 0.10173166 0.010818915 -0.04037049 -0.03980832
0.07693146 0.08060245 -0.13793643 0.048409346 -0.110168055 0.0029246428 0.046741165 -0.0034781648

bias_hh_l0 f4 [512]
00000000: 18f7 643d 400d f63d d41c 3e3e 13c9 7c3e
00000010: d175 483d 8cf7 1c3d 080d b2bd 3b52 1f3d
00000020: d2d7 903d 09e2 bf3d 5965 763c 64ec 183d
00000030: b384 a33d a7f8 b53d 7a5c 1dbd 62d4 8d3e
00000040: 8129 c63d fd17 3c3e 5c71 213e bb3f 5e3e
00000050: fcda 503d b8d4 9c3d 2503 d83d c33c 4e3e
00000060: 5f2b 3e3d eafa ebbc 24ce db3d fce2 2b3d
00000070: d6a6 fd3c 4d58 a93c 8885 5f3d e49c 773d
00000080: 3126 cd3c c05c 193d df6c 8b3d 0ab7 943e
00000090: 4cd4 c23b d2ea d0bc 26f3 053e b6be 143e
000000a0: 1483 823d 4b65 473d 071c 0e3d b7c9 e23c
000000b0: e7fa 103d aee8 e23b 0608 683d ba1b 883e
000000c0: 6480 b63e 893f 2a3d f119 6a3e 4bc0 783e
000000d0: add3 de3d d0ea 5b3e b8e7 6d3e c494 e5bc
000000e0: cc22 163d 3142 213d 81de 0b3e 5135 56bc
000000f0: 5020 8c3e 701a 1b3e 414b 833b c4c3 debd
00000100: f5f0 de3b aed1 a13d c4e0 f43d 1654 e53b
00000110: 94a7 493e 9bdc c63d 717a cd3d 12a2 cf3d
00000120: 2650 303e 821b c53c ab24 76bb fa96 e13d
00000130: 4dba a03d 4603 173e c4d9 2c3e 23ef 653d
00000140: 7415 7e3d 3592 4ebd 54e2 3b3e c01e e3bd
00000150: 0438 973e 56d1 243b cb13 9a3d 7b21 99bd
00000160: f396 483e efee 263e 7323 f93c c300 fe3d
00000170: e8e8 033e 1053 f23d c3b8 0b3e 7bc8 0bbd
00000180: 6b5c 92bc 9589 c63d 128b 04bd 9ab9 e7bc
00000190: d327 7b3e fab1 a03e 37a8 553e 4df2 8f3d
000001a0: 65a4 b03c d0c0 ba3d 1e12 543d 0714 efbc
000001b0: 81c6 083e 8fcc 1dbc ef7b 673e 56b7 053e
000001c0: b78a a93d ac42 683d 4bc4 8c3e c763 05bd
000001d0: 3c65 0c3d 9b50 a9bd f4ad 443d 5fe7 9e3d
000001e0: bf2a 43bd cb81 5d3d 57e6 803e 8d8c 323e
000001f0: 9416 bdbc 5251 bf3d 6eb1 163e e62a c03d
00000200: 518b 9cbb 5f74 3bbc 1ab8 93bd 3f45 5bbc
00000210: 2808 56bd 7a25 9abc 9fa9 b13b 285f 8c3c
00000220: 6f67 bc3c 4e0c debc e0b5 033d 6805 76bc
00000230: 521a babd 4e36 b4bc 362d 133d 1180 e8bc
00000240: 2008 76bd 6baf 5dbd 30fe bd3d d962 35bd
00000250: 4358 243d 911d 6ebc 9f94 77bc 1351 363b
00000260: 0997 c1bd c98b b43d 91b3 74bd c7e4 db3d
00000270: 74af b13b 8a61 7d3c 6ed5 583b a4f4 853c
00000280: fbd3 f53d c0d6 143d 6ac8 e9bc 199d a3bd
00000290: 6d9a d93c 0789 b73d fbfd cc3d 8d89 8cbd
000002a0: c41e 283d 95ab f6bb a3d7 fabb 3b89 823d
000002b0: b867 973d 45c2 42bd f5b2 61bd d64c c4bd
000002c0: 372f 6dbd 208c 6dbd e314 b4bd d0eb bb3d
000002d0: 892a 5f3c 863d 84bd 83de c9bd 7381 8f3c
000002e0: 7084 213d f014 1ebd 8b35 7cbd bc5f 8b3d
000002f0: be1c e8ba 6db8 03bd d27d a9bc bf27 8f3d
00000300: b239 a73c 31f2 463c f584 d7bc 3ca6 cc3c
00000310: de5d e03d 4a78 a4bd 0996 01be a8af 8f3c
00000320: 6775 e9bb 6a14 663d ca5a d0bc 9707 243d
00000330: fd95 253c 841c 99bd cedd 0a3e 92bc 91bd
00000340: 3120 333d 7edb 313c 7a4b c6bb 2f41 373d
00000350: 35aa d0bd 9077 08bd 33c2 16bd 46af af3d
00000360: e7b3 31bd 4f06 0abe 7127 d03c b9db cf3c
00000370: e75a 49bc 2bfa 64bd 5d52 8c3b 7603 103c
00000380: 2b5e 95bd 4bb0 c03c 6d93 593d 5d3d 80bd
00000390: 8974 71bd 86a5 5fbd 5ee8 3e3b 2a6d 69bd
000003a0: 3bd8 a23d 786e 85bd 14c0 353d bbbc f1bd
000003b0: 4961 d23c 876b 86bd 43dc 51bd a64c 473d
000003c0: 7194 4b3c 1622 b93d fd05 ffbc 84eb babd
000003d0: b058 d03d d241 313c 875b 25bd 0d0e 23bd
000003e0: 3e8e 9d3d e612 a53d 353f 0dbe e148 463d
000003f0: ca9f e1bd 5dab 3f3b aa73 3f3d ecf1 63bb
0.05589971 0.12014246 0.18565685 0.24686079 0.048940483 0.038322017 -0.08693892 0.03889678
0.070724145 0.09369285 0.015038812 0.037334815 0.07984295 0.08885317 -0.03841827 0.27701098
0.09675885 0.18368526 0.157659 0.21703999 0.05099009 0.076577604 0.10547475 0.20140366
0.04642808 -0.028806169 0.107326776 0.041964516 0.030963343 0.020671988 0.054570705 0.060452357
0.025042625 0.03744197 0.06807875 0.29045898 0.005945718 -0.025502596 0.13081035 0.14525875
0.063726574 0.048680585 0.034694698 0.027684076 0.03539553 0.0069247102 0.056648277 0.26583654
0.3564483 0.041564498 0.22861458 0.24292104 0.10880218 0.21476293 0.23232925 -0.028025039
0.03665428 0.039369766 0.13659097 -0.013074235 0.27368402 0.15146804 0.0040067737 -0.10877183
0.0068036267 0.07901321 0.11956933 0.006998549 0.19692832 0.09710046 0.100331195 0.10138334
0.17218074 0.024060968 -0.0037558477 0.110151246 0.07848034 0.14747342 0.16879946 0.05613626
0.062032178 -0.050432403 0.18348056 -0.110898495 0.29534924 0.0025149188 0.075233065 -0.07477089
0.19588833 0.16302083 0.030412411 0.12402489 0.12881815 0.11832249 0.136447 -0.03412674
-0.017866334 0.096942104 -0.03235919 -0.028286744 0.2452691 0.31385785 0.2086495 0.07028637
0.021562764 0.09118807 0.05177509 -0.029184354 0.13356973 -0.00963129 0.2260587 0.13058218
0.08278411 0.05670421 0.2749351 -0.03256586 0.034276232 -0.082673274 0.048017457 0.07758974
-0.047648188 0.05407886 0.25175735 0.17436428 -0.023082055 0.093416825 0.14716122 0.09383182
-0.00477735 -0.011441319 -0.07212849 -0.013383209 -0.052253872 -0.018816698 0.0054218317 0.017135218
0.02299854 -0.027105477 0.03215587 -0.015015937 -0.090870515 -0.02199855 0.03593179 -0.02838138
-0.060066342 -0.05412237 0.09276998 -0.04428372 0.040123235 -0.014533416 -0.015111118 0.002781932
-0.09452636 0.088157244 -0.05974156 0.10736995 0.005422527 0.01546515 0.0033086198 0.016352005
0.12003323 0.036337614 -0.028537948 -0.079889484 0.026562894 0.08961683 0.100093804 -0.06862173
0.041044965 -0.0075277784 -0.0076551004 0.06373831 0.0739283 -0.04754855 -0.055102307 -0.09584968
-0.057906356 -0.05799496 -0.08793046 0.09175837 0.013620981 -0.06457047 -0.09856894 0.01751778
0.039432943 -0.038594186 -0.0615745 0.06805369 -0.0017708761 -0.032158304 -0.020689879 0.06990003
0.020413253 0.012142704 -0.026308516 0.02498161 0.10955404 -0.08030756 -0.1265489 0.017539814
-0.007124591 0.056171812 -0.025433917 0.0400463 0.010106561 -0.07476142 0.13561174 -0.07116045
0.043731872 0.010855554 -0.006051478 0.0447399 -0.101887144 -0.03331715 -0.036806297 0.08578353
-0.04338446 -0.13478969 0.025409432 0.025373327 -0.012289739 -0.05590264 0.0042822794 0.008789888
-0.07293352 0.023521563 0.05311911 -0.06261704 -0.058949027 -0.054601215 0.00291302 -0.056988873
0.07951399 -0.06515211 0.044372633 -0.118035756 0.025681155 -0.06563478 -0.05123545 0.048657082
0.012425528 0.090397045 -0.031130785 -0.09126952 0.10173166 0.010818915 -0.04037049 -0.03980832
0.07693146 0.08060245 -0.13793643 0.048409346 -0.110168055 0.0029246428 0.046741165 -0.0034781648
