experiments/my_enduro_clone-e34ae933/model_000050.pt (torch, 555006 bytes, 9 tensors)

weight f4 [128, 29]
00000000: c33c 0ebe b081 acbc 9f6b 5bbd 3739 263e
00000010: 47f8 0e3e 6d96 143e ad2b e13d 35a5 363e
00000020: 2c2a 99bd 4104 2fbd 3fa9 1abe 5c76 1cbe
00000030: 49ef 3f3c f0bf d53d e9f7 003e 8ecc de3d
00000040: 90a6 c4bd 77f4 2cbe b52f 93bd 8ed7 b7bd
00000050: 7792 023d d704 cb3d 9931 203c a6d9 9e3d
00000060: 5e23 5d3b 4d9c eabd bfb8 81bd 3eb6 6b3d
00000070: eac7 453e ebca 2a3e d03a 3b3e b266 103d
00000080: dcdd 923d 1698 fb3d f63b 1f3e ebd0 74bc
00000090: 3e86 da3a a1f5 1fbe d2e2 67bd 367b 743d
000000a0: 0519 19be 17aa 943c b461 2c3e 24f2 72bc
000000b0: 3541 96bd cc35 26be 4307 c8bd b9e3 a63d
000000c0: 815d b2bd fe91 83bc b157 a2bd 604c fe3c
000000d0: abde f4bd 31c5 c8bd a5e2 2a3d 0470 23be
000000e0: 844e 1ebe a30f 233e d10c f83d 0dc0 2b3e
000000f0: 8514 323e 941b 0b3e 1f98 12bc e55d cebd
00000100: ada4 133e a94e be3d d293 433c e99e 0abc
00000110: 8bc8 9bbd 5959 303e 4246 eb3d 82ec b53d
00000120: dce0 1ebe 3912 903d ea8a 783d 39f1 f33d
00000130: ae62 0e3e 7e65 4b3e da51 a6bd 255c 21be
00000140: e794 c03d e745 383e d50d 08be 4faf eb3c
00000150: 59a2 0bbe ea4a 303e b107 023e 984b 9f3d
00000160: ab63 423d 0a4f 0d3e ccd1 07be 2b1b 893c
00000170: 8dd4 213d 465e a43b 1f7a 0dbe 48e5 903d
00000180: cda3 fabd a94c b23d 7792 75bc db23 ce3d
00000190: aab3 2d3e 2910 a93b 7f98 2fbd 5978 3c3e
000001a0: a418 243e 557b a4bc 97cb 0a3e adf7 303e
000001b0: e821 bc3d 34ed 193e 5296 8ebd 2932 253e
000001c0: d87f 1abe 718c 243d 8ea4 463b d483 233d
000001d0: 9d4b 9e3d 49c9 cf3d 0b96 403e 44e8 a0bc
000001e0: b396 cfbc c175 2d3e ef9e fa3d a257 5abc
000001f0: b705 8c3d 8b3b 82bd 5da1 05be 257f 503e
00000200: 82d9 053e c49d 243d 3092 4e3c f943 77bd
00000210: dd04 ca3d 1ea2 a83c 40c8 dd3c e7fa e23d
00000220: 873b e3bd 2492 993b a770 fcbd 4f48 0a3d
00000230: 99ba 49bd 7823 173e 5805 7abc 0d8f 5e3d
00000240: 20ff 183e ba68 55bd e401 27bd 0d04 ce3d
00000250: 074d aabd a630 6bbd 33bf dc3d 520e b53d
00000260: f87c 3cbe c04e 92bb 7401 24be 8687 37be
00000270: 79be 763d a3ef 2cbe 1f87 3c3d 76e5 243e
00000280: 1c2c 213d 554d c93d e929 ef3d 439c e639
00000290: 70d7 b1bc d9eb 6abd 5dce c23d 79ce 0fbe
000002a0: 9549 fabd ab88 a9bd 55e3 c1bd 19e8 0fbd
000002b0: cb9a 0abe a01b 193e 0dc7 58bc b321 fbbd
000002c0: 726b f13c 3f60 253e 802f 0abe 0626 2b3e
000002d0: 3136 edbd fc7f 2abe f53c 203d 3011 b5bd
000002e0: c4e4 133e 94a2 b3bd 7d4d ebbd 5a0e 2cbe
000002f0: d521 3d3c c386 a6bd bee3 24be 7816 353d
00000300: cf7e 8fbc 4114 433d afcc 9f3c 96db 3b3d
00000310: 7578 c03d 7a97 293d 6bd7 0abe 2d8f 903d
00000320: 5c90 2f3e f0e0 173e 31a4 33bb 8b6d 5b3d
00000330: 4d11 ed3d ee69 3cbd e779 07bd 35c6 4c3d
00000340: 92fe ff3d d0d2 013e 99ec 443e e629 853d
00000350: 4a67 d6bd 2330 01be 3a20 87bd f936 543e
00000360: 9c07 9f3d 2c32 05be 36be 6bbd d2ba 333e
00000370: b037 003e f92e 933d 82ce 4e3e 4442 afbd
00000380: 584e 46bd 4e3a 41bd d488 c5bd e8fd 303e
00000390: 14e4 d73d 7a58 0fbe 4036 0c3e 36d2 3f3e
000003a0: d2c8 2ebc a249 403e 498a 2d3e 8d05 ffbb
000003b0: 8069 38bd 071f 91bd a0bb ac3d cb6b 1c3e
000003c0: 0f03 423e bd13 66bc 3272 353e 54b7 013d
000003d0: df2d 5cbd 699f 26be 8d11 443e ba13 9dbc
000003e0: a399 2a3e 834f b2bc 44be c43d 8523 233d
000003f0: a9bf b63d 2deb a23c 8539 0dbe 62f8 1bbe
-0.13890366 -0.021057934 -0.053569432 0.16232763 0.13961898 0.14510508 0.109946586 0.17836459
-0.07478747 -0.042728666 -0.15103625 -0.15279526 0.011714765 0.10437 0.1259457 0.108788595
-0.09602082 -0.16890131 -0.07186834 -0.08976661 0.03187796 0.099130325 0.00977745 0.07756357
0.0033743004 -0.11455593 -0.06334066 0.057546847 0.19314542 0.1667897 0.18284154 0.035254188
0.071712226 0.122848675 0.15550217 -0.014942388 0.0016672087 -0.15621044 -0.056612797 0.059687816
-0.1495095 0.018147511 0.16834146 -0.014828239 -0.07336656 -0.1623146 -0.0976701 0.081489034
-0.08709241 -0.016060825 -0.07926882 0.031042278 -0.11956533 -0.09803236 0.04172005 -0.159607
-0.15459639 0.15923934 0.121118195 0.1677248 0.1739064 0.13584739 -0.008947401 -0.10076503
0.14418288 0.09292347 0.011937099 -0.008460739 -0.0760661 0.17221583 0.1148801 0.08883001
-0.15515465 0.07034726 0.060679354 0.11911244 0.13904831 0.19862935 -0.08121081 -0.15757807
0.09403401 0.17995416 -0.13286527 0.028770117 -0.1363615 0.17216077 0.12698247 0.0777809
0.047458332 0.13799682 -0.13263625 0.016736588 0.039509345 0.005016121 -0.13816117 0.07074982
-0.12238274 0.08706028 -0.014988533 0.10065433 0.16963068 0.005159397 -0.04287004 0.18405284
0.16025025 -0.02007834 0.13554226 0.17281981 0.091861546 0.15031892 -0.06962265 0.16132416
-0.15087831 0.040172998 0.0030310485 0.039920643 0.07729266 0.10145814 0.18807237 -0.019642003
-0.025340414 0.16939451 0.122373454 -0.013326557 0.068370275 -0.06359013 -0.13049836 0.20361002
0.13071254 0.04018952 0.012608096 -0.06036756 0.09864209 0.020585116 0.027073026 0.11083012
-0.11095338 0.004686611 -0.12326174 0.033760365 -0.04925022 0.14759624 -0.015260063 0.054335643
0.14941072 -0.05210183 -0.040773287 0.100593664 -0.08315473 -0.05741944 0.10778656 0.08840622
-0.18407047 -0.004464954 -0.1601618 -0.17922792 0.060240243 -0.16888289 0.0460273 0.16103157
0.039348707 0.09829203 0.116779156 0.00043985443 -0.021709174 -0.057353828 0.09512017 -0.14043607
-0.12221066 -0.082780205 -0.09467188 -0.035133455 -0.13535611 0.14951944 -0.013231051 -0.12262287
0.02947018 0.16149996 -0.13494682 0.16713724 -0.11582602 -0.16650385 0.039120633 -0.08841169
0.14442736 -0.08771244 -0.11489389 -0.1680235 0.011543711 -0.081311725 -0.16102502 0.04421088
-0.017516522 0.047626738 0.01950678 0.04586371 0.09397975 0.041404225 -0.13558738 0.070585586
0.17144912 0.148319 -0.0027411098 0.053571265 0.115755655 -0.04599946 -0.03307524 0.049993712
0.12499727 0.12678075 0.1923088 0.06502132 -0.104689196 -0.12616019 -0.065979436 0.20724095
0.07765123 -0.1300742 -0.057554446 0.17551735 0.12521243 0.07186694 0.20195964 -0.08557561
-0.04841456 -0.047174744 -0.096452385 0.17284358 0.10541549 -0.13998595 0.1369257 0.18732533
-0.0106679965 0.18778089 0.16947283 -0.007782644 -0.045022488 -0.07085996 0.08434224 0.15275495
0.1894648 -0.014042792 0.17719343 0.031668976 -0.053754684 -0.16271748 0.1914732 -0.019174445
0.1666017 -0.02176643 0.09606603 0.039828796 0.08923275 0.019887531 -0.13791473 -0.1523147

bias f4 [128]
00000000: c8f6 0d3e 4caf 193c 62c2 2b3e 3b31 243e
00000010: 6014 c13d e65b 04be 3610 7ebd 8100 343e
00000020: e18c 31be 3bbf c0bd 7b23 8b3d c778 473d
00000030: b100 2ebd 0a1b 2b3d 36f6 eabd 38ad 5c3d
00000040: 7fc7 8e3c cbeb 8ebc 7740 493e 5816 173e
00000050: 0aab 113e a72e e93d 374c d7bb 6ea9 98bd
00000060: f2cd 1d3e f917 ed3c ade3 6fbc 679f c83d
00000070: a67c f2bd ee8a 2d3e 54a5 7d3d 9065 55bd
00000080: de70 a63d d329 583c a938 393e 48d7 c3bd
00000090: 090f db3c 15df a53c ff2b 37be 011c c4bd
000000a0: 0dad 253e f002 09bd b2d7 ce3d 0423 113e
000000b0: d7b3 0cbe b415 0bbe 40a5 c93c e1c9 0abc
000000c0: 8b06 8fbd 3d1b 1b3e bedf fa3d 15f3 c13d
000000d0: 08b0 0a3e e8f4 c03d 1c97 38be c11f 0cbe
000000e0: 378c f93d ec25 f5bc fad8 2f3e dec2 1fbe
000000f0: f3b4 d3bc 8157 f3bd a151 19be 0c57 1a3d
00000100: 3204 463c e561 5f3d 2268 37bc e0f1 1bbe
00000110: a0d0 093e c338 33be e284 bdbd ca1d 403e
00000120: a6d5 793d 65d5 a63d 3495 af3d b5f3 15bd
00000130: 5c1a 153e f9d8 633d 730a 95bc 6b44 22be
00000140: 2661 3b3d b896 1cbe 4f24 023e 52ae 9a3d
00000150: 1159 29be 8eae 5b3d 5724 9dbd 65ce e73d
00000160: 14d3 2d3e eb61 843d 7b3b 3c3e 3d03 443d
00000170: 5099 12be 6c34 7a3d 27de 153e 7186 803d
00000180: 1b78 a33d 6cd0 3cbe f8b6 00be b4f7 423e
00000190: 9d73 0bbe 2564 413d 076b 143d 18e5 65bc
000001a0: b9b1 fd3d fcb1 96bd bd04 453e 7851 0dbe
000001b0: 70ef a9bb 287c aa3b 093a 0dbe 1dd8 14be
000001c0: 3825 473d 5fdc 593d 5c3f 193e b89b 89bd
000001d0: 0e34 253e 6c6f c5bd 2f64 273e db91 043e
000001e0: 0907 ca3c 67ac e3bd f7ed 1bbe 278c 32be
000001f0: c9ba 953d 0ccd 353e 5035 e53d ebae ab3d
0.13863671 0.009380173 0.1677337 0.16034405 0.09427714 -0.12925681 -0.06202718 0.17578317
-0.17338897 -0.09411474 0.06793877 0.048699167 -0.042481128 0.041773833 -0.11472742 0.05387613
0.017429112 -0.01744642 0.19653498 0.14754617 0.14225402 0.11385851 -0.006570365 -0.07454191
0.15410593 0.028942095 -0.0146416845 0.097960286 -0.11840181 0.16947529 0.061925247 -0.05209881
0.081269965 0.013193565 0.1808802 -0.09562546 0.026740568 0.020247975 -0.17887877 -0.09575654
0.16179295 -0.033450067 0.10099734 0.14173514 -0.13740478 -0.13582498 0.02461493 -0.008470983
-0.0698367 0.1514711 0.12249707 0.09470192 0.13543713 0.09421712 -0.18026394 -0.13683988
0.12184947 -0.02992531 0.17172614 -0.1560168 -0.02584312 -0.118819244 -0.14972545 0.03768067
0.012085961 0.05453672 -0.011194261 -0.15228987 0.1345849 -0.17502122 -0.09253861 0.18761364
0.060994767 0.081461705 0.0857338 -0.03660937 0.14560837 0.055626843 -0.01819346 -0.15846412
0.045746945 -0.1529187 0.12709163 0.0755278 -0.16537882 0.053633265 -0.07672947 0.113186635
0.16975051 0.06463989 0.18382065 0.04785465 -0.14316297 0.06108515 0.14635526 0.06275643
0.07981893 -0.18438882 -0.12569797 0.19039804 -0.13618322 0.047214646 0.03623488 -0.014031671
0.123874135 -0.073581666 0.19240089 -0.13800609 -0.005186014 0.005202789 -0.1379167 -0.14535566
0.04861948 0.053188678 0.14965576 -0.06719154 0.16133139 -0.09640393 0.16346811 0.12946264
0.024661558 -0.111168675 -0.15227495 -0.17436276 0.07311017 0.17754 0.11191809 0.08382972

weight f4 [9, 128]
00000000: 82c4 81bc b0d3 2c3c b280 46bc 5ac8 413c
00000010: 58df 573c 24f7 a73c 712c 803c 34c8 4ebc
00000020: dd4b 64bc ffe0 62bc 440a 6e3d de56 74bc
00000030: 4198 4fbc 7b2c 4a3a c457 503c 466d 533c
00000040: 100e 6e3c c246 54bc 9fad cd3c bb7e 7abc
00000050: edec ba3a 9130 753c 91b4 733c 4e5f 0bbd
00000060: 94a2 463c 0019 9dbc 029b 453c 3fdd 5dbc
00000070: 79c9 723c a441 6bbc 03bb b8bc 90f5 5ebc
00000080: 0ae5 5c3c 94b6 133c 72b3 613c 1909 223c
00000090: 9141 80bc d08c 5b3c dad3 423d 3ed3 7cbc
000000a0: 9cae 45bc b0b1 67bc 1e94 62bc 64a8 493c
000000b0: d6a7 4c3c c67f 993c ab5f 6bbc 8318 91bc
000000c0: 13b8 193c efb2 98bc b03a 3abc 4410 733c
000000d0: f988 283c 387b 3d3c 7400 69bc 8101 87bc
000000e0: 6940 693c 90b6 263c 5e95 6c3c 7390 23bd
000000f0: c321 323c cea2 35bc 1edf 4bbc b33b 633c
00000100: 3e96 ae3c ffec 473c 6e96 613c f1e4 5b3c
00000110: 58fa 51bc 9e29 7cbc c17f 483c 8907 693c
00000120: b4af 81bc be6c 6abc 4fb2 9abc 6030 133d
00000130: fbbf 933c e848 773c cbe3 76bc 3b96 333c
00000140: f96f 7e3c 6547 0f3c 3528 4abc 3d2c 013d
00000150: 6aa3 78bc 5759 703c e47e 7ebc 6078 88bc
00000160: e170 5d3c 38b5 42bc 549e 4dbc 99eb 6dbc
00000170: 68fc 70bc 2bc5 4f3c 40c2 743c ad89 52bc
00000180: adc0 583c 95ad 7c3c 6440 73bc f1dd ff3b
00000190: d99f 503c 64e2 6f3c a7f4 56bc 7bdb aebc
000001a0: 5602 5dbc 4ca0 6bbb 91d3 d9bc c449 923c
000001b0: d410 7e3c ecab 613c 0eb4 ca3c 3db0 83bc
000001c0: 48f5 6cbc 6769 683c 4737 6ebc 392a 523c
000001d0: 6cca 713c 9a85 73bc c6f1 69bc 8a3d 66bc
000001e0: 360e 99bc 1dd7 483c e045 50bc a72f 64bc
000001f0: bc2c 6ebc e44a ecbb 7e58 47bc 57be 4e3c
00000200: 1c68 2abd 0df6 203d 4250 24bd 2243 1c3d
00000210: 980e 173d 6e0d 3a3d 236c 283d 9b7b 25bd
00000220: b1ed 0bbd 57fb 23bd 1676 643d eb90 47bd
00000230: 83fb 24bd 68d4 1fbc 36ae 123d ef4e 163d
00000240: ddc1 383d fd6b 30bd 9d0f 253d 36ae 1bbd
00000250: 7e0c 95bc 12bd 213d 889b 2e3d bb47 68bd
00000260: 5862 1f3d 5a7b 1cbd e90d 253d 1c94 23bd
00000270: 0b4c 253d 55c7 29bd a645 22bd a3d4 38bd
00000280: c6a0 203d ee7e 0a3d 142d 323d 9caa 0c3d
00000290: 9554 31bd 7df2 f13c 510c 693d 9781 37bd
000002a0: c3ae 25bd b154 2bbd 634c 20bd 4580 0f3d
000002b0: 9a18 273d faf2 1c3d 9ee9 23bd 77d0 18bd
000002c0: 8e94 0b3d 472b 33bd 7953 26bd f134 393d
000002d0: d57f 063d d949 273d 0347 3fbd 1c36 23bd
000002e0: 9639 333d 29be 1f3d 94cd 2e3d 8bfa 25bc
000002f0: 270f 1e3d 551b 1dbd 83ab 2bbd fa42 1b3d
00000300: 3f04 2f3d a7a6 013d 45a0 173d 8677 253d
00000310: ae98 21bd 9173 2ebd 2bb4 233d 4ee1 293d
00000320: 498a 4bbd 228c 32bd 47a3 49bd eb1e 5e3c
00000330: 50ad 173d af5a 1a3d cafa 26bd 3e20 183d
00000340: 2a92 333d 5aec 033d 37c3 2fbd 3bab 503c
00000350: b097 18bd 87ac 0e3d 8957 31bd df33 21bd
00000360: 0f07 273d 0789 26bd 50a9 10bd fd92 27bd
00000370: d8e4 20bd 575d 283d 23d9 233d 3104 28bd
00000380: ebbb 313d b6a0 103d 5945 39bd fef8 0b3d
00000390: e22f 393d 1309 363d 932f 2ebd 5ecb b53b
000003a0: 267b 2fbd 212e 12bd 8761 57bd 991e 423d
000003b0: f782 293d 9e43 223d aa90 233c 4908 12bd
000003c0: c20f 44bd 3bd3 2e3d 5d50 17bd add8 2c3d
000003d0: 4d62 163d 441a 17bd 2823 28bd f67a 34bd
000003e0: f458 42bd fa1f 1e3d f6f8 3abd fc11 0fbd
000003f0: 7670 33bd 1900 01bd 0e8c 2dbd 25f4 1e3d
-0.015840773 0.010548517 -0.012115644 0.011827553 0.013175808 0.020503588 0.015646191 -0.012620974
-0.013934103 -0.013847589 0.05811526 -0.014913289 -0.0126705775 0.00077123166 0.012716237 0.012904471
0.01452972 -0.012956323 0.025107203 -0.015289004 0.0014261283 0.014965192 0.014874593 -0.034026437
0.012123723 -0.01917696 0.0120608825 -0.013541519 0.014818543 -0.014358912 -0.022550112 -0.013608351
0.013482342 0.009015698 0.013775693 0.009889864 -0.015656264 0.013400272 0.04756532 -0.015431223
-0.012065556 -0.014141485 -0.013829259 0.012308214 0.012491187 0.018737685 -0.014366071 -0.017711883
0.009382266 -0.01864001 -0.011366531 0.014835421 0.010286563 0.011565022 -0.014221299 -0.01648021
0.014236548 0.010175362 0.014439909 -0.03993268 0.010872307 -0.011086179 -0.012443332 0.013869214
0.021311875 0.0122025 0.013768775 0.013421283 -0.012816034 -0.015390782 0.01223749 0.014222988
-0.015830852 -0.014308153 -0.018883852 0.035934806 0.01803588 0.015093066 -0.0150689585 0.010961111
0.015529626 0.008745049 -0.012338688 0.03153633 -0.01517568 0.014669738 -0.015533183 -0.016658962
0.013515682 -0.011884026 -0.012549955 -0.014521503 -0.014708616 0.012681286 0.014938891 -0.012850207
0.013229531 0.015422245 -0.014846895 0.00780844 0.012733423 0.014641378 -0.013119853 -0.02134489
-0.013489326 -0.0035953699 -0.02659014 0.01785744 0.015506942 0.0137738995 0.02474406 -0.016075248
-0.0144627765 0.014185286 -0.014539546 0.0128274495 0.014757734 -0.014863396 -0.014278835 -0.014052758
-0.018683534 0.012258318 -0.012711972 -0.013927377 -0.014537033 -0.007211076 -0.012167094 0.012618623
-0.041603193 0.039297152 -0.040115602 0.03814996 0.036879152 0.045422964 0.041118752 -0.040401082
-0.034162227 -0.04003462 0.055776678 -0.04872219 -0.040278923 -0.009755231 0.03581067 0.03669637
0.045106757 -0.043071736 0.040298093 -0.038007937 -0.018194433 0.039486952 0.042628795 -0.056709033
0.038912147 -0.038203575 0.04029647 -0.03993617 0.040355723 -0.041449863 -0.039617203 -0.04512466
0.039215825 0.033812456 0.04350002 0.034342393 -0.043293554 0.029534573 0.05689651 -0.04480132
-0.04044987 -0.041828815 -0.039135348 0.035034437 0.040794946 0.038317658 -0.040017717 -0.037308183
0.03407722 -0.043742444 -0.04060695 0.045216504 0.032836754 0.04084191 -0.04669858 -0.039846525
0.04375609 0.03899971 0.042676523 -0.010130535 0.03858867 -0.038356144 -0.041911613 0.03790567
0.04272866 0.031653073 0.03701808 0.04039719 -0.039452247 -0.04259068 0.039966743 0.041474633
-0.049692426 -0.043590672 -0.04922798 0.013557176 0.037030518 0.03768414 -0.040766515 0.037140124
0.043840565 0.032207824 -0.04291078 0.012736137 -0.037254035 0.034832504 -0.04329637 -0.03935611
0.040778216 -0.040658023 -0.03531772 -0.040911663 -0.039280742 0.04110464 0.040002 -0.041019622
0.043392103 0.035309516 -0.04523215 0.034173004 0.04521168 0.044442248 -0.04252584 0.005547925
-0.042842053 -0.035688523 -0.052583244 0.04739246 0.041384663 0.039615266 0.009983221 -0.035652433
-0.04786659 0.042681914 -0.036941875 0.042198826 0.03671484 -0.036890283 -0.041049153 -0.044062577
-0.047448114 0.038604714 -0.045647584 -0.03492926 -0.043808423 -0.031494234 -0.042369895 0.038807053

bias f4 [9]
00000000: 1bf4 103c 0a3e 043d 1fa3 8ebd 3fa2 ec3c
00000010: ebd7 fbbc bfe5 aabd 6237 a13c 1587 e9bc
00000020: f076 823d
0.008847262 0.032285728 -0.06964707 0.028885959 -0.030742606 -0.08344602 0.019679729 -0.028506795
0.06370342

weight f4 [1, 128]
00000000: 1c06 34bc c07d d03b b01e febb e185 adbd
00000010: 8927 363d f4eb b7bc 737e 823d 627a 65bd
00000020: c8d7 96bd 9aa5 733d 694a 67bd f3d1 41bd
00000030: 1760 3ebd 5d42 73bc f737 d0bb 7ae1 223d
00000040: 68eb 143d 29fc 403a 48b1 c93c bbf5 abbd
00000050: 6c27 dcbc 20f6 9e3d 533f 7fbd d4e4 833c
00000060: 5db8 c0bc a1e7 a2bc ef4e 17bc 19d5 7fbc
00000070: 018e 033d 65cc 753d 7d09 a0bd 377e 38bc
00000080: 2ee3 92bd 9e17 aa3d 1ea5 06bc ef03 8e3d
00000090: 0be3 153d 7194 ffbc 34e0 62bd 2cc5 2038
000000a0: 5bc0 99bc ed03 583d 38ce a03d 536a 7c3d
000000b0: 50d7 88bd 1c65 ab3d c6c1 9bb9 1e5f a43d
000000c0: 3d8a 69bd 8b54 80bd a91a 7a3d a631 8e3c
000000d0: 1c7d 223c 25b9 753c 42bc 8c3c 191a 913d
000000e0: f3d2 8abd 9054 8fbd 4943 a6bd 8f08 5cbd
000000f0: 2f69 9abd f287 8bbc e82d 723d 51bc 2cbd
00000100: ad72 10bd 46de 8f3d 859e bdbb bad6 223d
00000110: 395b 133d a32a af3c ae48 53bd 626e 9abd
00000120: ad04 453c f81b d7bc b587 723d 5fc6 8e3d
00000130: 9105 a23c 7091 53bd 8924 9e3c f142 53bc
00000140: c2ef 013d caf6 783d 919c 993c 2710 49bd
00000150: 02a4 633d 5dc4 173d d3b4 4d3b 9094 3dbd
00000160: 1801 823b 27b7 d53c 1f24 0fbc cd45 03bd
00000170: de98 5cbd f8a0 f2bb c07d 323d ceca 84bd
00000180: c391 ddbb 6841 2e3d e9d2 903d b9d0 7fbd
00000190: 19ac 97bc 8bd5 733c 7c55 7bbd 02df 78bd
000001a0: b002 ac3c 61e1 53bd 49af 973d 8477 86bd
000001b0: e070 04bb 7797 37bd 96e7 0b3d 6e2c 9cbd
000001c0: 6057 00bc 11d0 8fbc 01bc 80bd a9ea 03bd
000001d0: a16b 73bc fb22 5fbd d0c4 b1bd 46e8 773d
000001e0: 6b41 9a3d 8be5 513c bf40 853d 64ee 43bd
000001f0: a92e 033c 8e45 33bc 493e db3b b179 c6bc
-0.010987785 0.006362647 -0.007755123 -0.08472801 0.044471297 -0.022451378 0.063717745 -0.056024916
-0.07365376 0.0594841 -0.056467447 -0.047319364 -0.046478357 -0.014847365 -0.006354328 0.039765812
0.036357313 0.00073617935 0.024620667 -0.08396479 -0.026874267 0.07761788 -0.06231625 0.016100325
-0.023525411 -0.01988584 -0.009235128 -0.015614771 0.032117847 0.06000938 -0.0781431 -0.011260561
-0.07172237 0.08305286 -0.008218078 0.06934344 0.03659348 -0.031198712 -0.055389598 3.8330603e-05
-0.01876848 0.05273812 0.07851833 0.061624836 -0.066816926 0.083688945 -0.00029708276 0.08025955
-0.0570166 -0.06266125 0.06106058 0.017357659 0.009917524 0.014997755 0.017179612 0.07085056
-0.067785166 -0.06998551 -0.081183024 -0.0537191 -0.075395934 -0.017032597 0.05912581 -0.04217178
-0.035265613 0.07024817 -0.0057867193 0.03975556 0.03597567 0.021382635 -0.051582985 -0.07540585
0.012025041 -0.026258454 0.05921145 0.0697143 0.019778045 -0.051652372 0.01930453 -0.012894378
0.03172279 0.06078223 0.018751414 -0.04908767 0.055576332 0.0370525 0.0031388297 -0.04628426
0.0039674155 0.02608831 -0.008736639 -0.03204899 -0.053856723 -0.007404443 0.043576956 -0.064839944
-0.006761761 0.042542845 0.07071478 -0.062454913 -0.01851468 0.014882456 -0.06136082 -0.06075955
0.020997375 -0.05172861 0.0740648 -0.065657645 -0.002020888 -0.044822183 0.034156404 -0.07625662
-0.007833332 -0.017555268 -0.06285859 -0.03220621 -0.014857204 -0.05447672 -0.08680117 0.060524248
0.07532009 0.012811075 0.0650649 -0.04783477 0.00800673 -0.010941876 0.0066907746 -0.024227949

weight_ih_l0 f4 [512, 128]
00000000: 5e80 55bc e6a8 2c3d 87b5 b63d b20a b93d
00000010: f9e4 353c 46d8 2f3d c02a 7f3c b02d a23c
00000020: 0e4f b7bc afd6 1e3d 11ba 263c f73c 7b3d
00000030: 1e6d 3abc af11 a43c e026 eb3b d07f 27bd
00000040: 320a 94bc 4da0 8dbb 9aa9 bd3d e8a1 ad3c
00000050: 6162 7c3c c054 5bbd 85ff df3d 06c2 4cbd
00000060: fee4 593d dead fdbc eafc 18bd f089 863b
00000070: e019 c4b9 d000 2f3d 473c 703c 7897 6f3d
00000080: aec7 a43b 1973 5abd 2786 5fbd f9b5 793c
00000090: e608 803d 27f2 963b a6ac 97bb 0536 9e3d
000000a0: 40b8 a73c 855b 97bc bce9 7b3d 85b0 7c3d
000000b0: a2f9 b53c 6b93 833d 040e 43bd d21f f0bb
000000c0: 90b5 0abc 9816 ef3c c6f3 25bd b518 053d
000000d0: dd63 9dbd f679 c7bd aa19 87bd 5ad4 3a3d
000000e0: 2e58 ffbc d798 33bc 29d7 0ebd 0b02 3bbd
000000f0: db05 20bd 0f4f e6bc 807b 41bd a948 793c
00000100: 560e 813d 6092 a9bc 5b8c 2e3d ac25 41bb
00000110: f5f7 bf3b 5dcb a4bc fea2 143d a7ac 963d
00000120: 9c31 67bd e017 c7bc 6bfa f1bb fbb2 f9bb
00000130: 7ea0 8e3d 63ab 80bb 341f 383c 79af 373d
00000140: e8ff 19bd a5e0 a2bd c110 a5bd 659b 963d
00000150: 7164 733d ff38 aa3c 5347 bfbc 9d4e 093d
00000160: 7e2e 7ebd a0ed b6bb b104 e13a 129e 203d
00000170: 1cd5 03bd e2c0 6b3d d419 7ebc ab77 353d
00000180: fae7 143d 535e a4bd ae4f 033d 2d2d 9a3b
00000190: 06da c0bc 745a 08bd cfb7 c83d ca06 bdbd
000001a0: de61 093d 21d6 8dbc 3306 0dbc 963d 863d
000001b0: eb45 da3c e32c 983c 3e04 413d 360a 5f3c
000001c0: fbdc 3fbc 36d7 013c 8bf0 92bd 4746 743c
000001d0: 2a20 b33d d649 903d f799 b9bc 8d0c aebc
000001e0: c770 acbd c07d 2c3c 4926 9d3d 2484 7dbd
000001f0: 0c6f 96bd 66e5 093d f0d2 75bb cd95 cb3b
00000200: 725d ab3d 9dda 113d 0ec0 203c 4308 ae3c
00000210: c34a a33c 161b 68bc c95e 513d 26a4 a33d
00000220: 37f0 b73d 1c06 7abc 367f 823c d72f 873c
00000230: 31cb d23d 9805 95bc 2a4c 4438 d537 553b
00000240: 0169 07bc df5c 3e3d 2581 81bc ae23 b43d
00000250: 585b d439 5b72 2f3d d3a9 8c3d dac7 4e3b
00000260: c3f2 b6bc 3c4b 823a 5ee6 c53c 882b 613d
00000270: 88e2 23bb be05 583d 3117 d53c c7f7 fbbc
00000280: 97a5 1c3d 89fa 653d 7355 5c3c b0d7 81bd
00000290: 7d2c 7abd c00b 133c 8a2e 833d 4812 61bd
000002a0: 8220 b23c cfaa 0d3d f783 153b f032 973d
000002b0: 33df f03c 53ee 0b3d b60e 323d d03e 523b
000002c0: 1f73 613d 63da 273d 0804 29bd b57b c4bb
000002d0: fa1c 7c3d c5db cdbc 0f20 1a3d bcaf f03c
000002e0: c256 4ebd c422 3bbd 6c1b c03b 2495 f63c
000002f0: 5898 9bbb a471 5cbb 5ba2 83bd c90c 5d3b
00000300: 6591 763c c97e d3bc d5b9 843d ffca 483d
00000310: f51f 8bbd 1c52 df3b 1a93 f93d f290 963c
00000320: 694b ef3c 7c1b 6e3d 0e9e 573d b246 59bd
00000330: f10f 933c 151a 1dbd 2aa8 3abd b8f8 853c
00000340: 18bc eb3c c909 6e3c 7322 8f3c 9ce5 5d3d
00000350: 3d8b 6b3d d1ad a63c 3bad debc ad3d c2bb
00000360: 0001 18bd 9e0b 213d 7bc9 c13c e84b 6b3d
00000370: a866 8ebb f010 003e 96bb ccbc 679e 563d
00000380: e7b7 1f3d 9cac 7c3d 5784 7c3d d537 d53b
00000390: 0c6e 2b3d 58d1 de3a b84c 84bc fb75 5ebd
000003a0: c54f fe3c 2b52 ca3c d113 be3d 73e5 de3d
000003b0: 8a35 5f3d 727f 503d 3058 483a fcae 0dbc
000003c0: b0cd ccbc 18ce 81bc 68ee 123d ff61 fbbb
000003d0: 357d 8ebb dd2b 8bbd 49f9 c03c 5040 903d
000003e0: 4ebf e83c 9e35 263c d009 d53d e8c2 80bd
000003f0: 5ed6 62bc f107 663d f3ec 3e3d 03d6 89bd
-0.013031093 0.04215326 0.08921342 0.09035243 0.011101955 0.042930864 0.015574157 0.019797176
-0.022376563 0.038778957 0.010176198 0.061337437 -0.011378555 0.020027963 0.007176265 -0.040893376
-0.018071268 -0.004322088 0.092608646 0.021195367 0.015404315 -0.05354762 0.10937408 -0.049989723
0.0531969 -0.030966695 -0.037350573 0.004105799 -0.00037403312 0.042725384 0.014662809 0.05849406
0.0050286865 -0.053332422 -0.054571297 0.01524114 0.06251697 0.0046065035 -0.0046287356 0.07725147
0.0204736 -0.018476257 0.061502203 0.06169178 0.02221376 0.06424602 -0.04762079 -0.007328012
-0.008466139 0.029185578 -0.040515684 0.032494266 -0.07685063 -0.09740059 -0.06596692 0.04561267
-0.031169977 -0.010961733 -0.03487316 -0.045656245 -0.039068084 -0.02811387 -0.04723692 0.015215077
0.063015625 -0.02069968 0.042614322 -0.0029471917 0.005858416 -0.020116502 0.036288254 0.073571496
-0.056443796 -0.024303377 -0.0073845885 -0.007620213 0.06964205 -0.003926681 0.011237908 0.04484508
-0.037597567 -0.07953004 -0.08059836 0.07353858 0.05942196 0.020779131 -0.02334944 0.033522237
-0.062056057 -0.0055825263 0.0017167536 0.039213248 -0.03218566 0.057556994 -0.015509088 0.044303577
0.036354043 -0.080258034 0.03205841 0.0047050924 -0.023541462 -0.033289388 0.09800684 -0.092298105
0.0335406 -0.017314019 -0.008607435 0.06554715 0.026644668 0.018576091 0.047123186 0.013613274
-0.011710401 0.007924845 -0.07174786 0.014909334 0.08746369 0.07045333 -0.022656424 -0.021246219
-0.08419948 0.010528028 0.07673318 -0.061893597 -0.07345399 0.033666037 -0.0037509762 0.006212926
0.08367433 0.035608876 0.009811414 0.021244174 0.01993311 -0.014166614 0.051115785 0.07990293
0.08981364 -0.015260246 0.0159298 0.016502304 0.10292662 -0.018191144 4.6800975e-05 0.00325345
-0.008264781 0.046475288 -0.015808651 0.08795868 0.00040503847 0.042833667 0.06868329 0.0031552226
-0.022332555 0.0009940634 0.0241577 0.054973155 -0.002500685 0.05273985 0.026012035 -0.030757798
0.038243856 0.056147132 0.013448107 -0.06339967 -0.061077584 0.008974969 0.06405361 -0.054949075
0.021744017 0.034586724 0.0022814253 0.073827624 0.029403305 0.03416283 0.04347106 0.0032080896
0.05504143 0.040979754 -0.04126361 -0.0059961923 0.06155107 -0.025129208 0.03762823 0.029380672
-0.050375707 -0.045687452 0.005862644 0.030100413 -0.0047483854 -0.003363707 -0.06427451 0.0033729544
0.015049313 -0.025817292 0.06480757 0.049021717 -0.06793205 0.006815208 0.121862605 0.018379662
0.029210763 0.05813168 0.052640967 -0.053045936 0.017951937 -0.038354952 -0.04557053 0.01635395
0.028776214 0.0145287 0.017472481 0.05417405 0.057505835 0.020346554 -0.027182212 -0.0059277625
-0.03711033 0.03931772 0.023655644 0.057445437 -0.0043457337 0.12506461 -0.024991792 0.052397158
0.038993742 0.06168805 0.061649647 0.0065069 0.041852996 0.0016999645 -0.016149864 -0.054311734
0.031043896 0.024697384 0.092811234 0.10883608 0.05449442 0.05090279 0.00076425355 -0.008647677
-0.025000423 -0.015845343 0.035871893 -0.007671594 -0.004348422 -0.06795476 0.023556368 0.07043517
0.028411534 0.010144619 0.10402262 -0.062871754 -0.013845054 0.056159917 0.04661269 -0.067302726

weight_hh_l0 f4 [512, 128]
00000000: a20e ec3c db29 6ebd b13a 423d 2a97 143d
00000010: 1ffa 84bc bdb2 a3bd 9911 0d3d c542 5a3d
00000020: 90cb f2bc 1e77 463c d1bf 77bd 2320 ef3c
00000030: 372b 16bb f547 993d c8c8 eb3c 727e 7f3c
00000040: 61ad b83c 13b7 19bd 8d3e 9c3c b835 ec3c
00000050: f201 f8bc e91e d63c fa88 fb3c 709a a5bd
00000060: 59b7 3cbd 2689 383c ba0d c8bc b234 00bd
00000070: 2402 d53c e655 b2bc ab59 a9bd 3622 0d3d
00000080: 7424 613c e8ac 4dbc aa40 c5bc aa68 1fb9
00000090: 1fe8 90ba 1521 29bc 1579 cfbc 983c 8a3c
000000a0: eb24 55bd c09b 7ebc e4b2 2c3c 0c89 613d
000000b0: 21d2 82bd 51d2 99bc 4fdf d73b 6c43 4b3d
000000c0: 001a 5539 63d6 2fbd 6493 7c3d 392e 5abd
000000d0: 5473 4f3d 4d90 24bc d222 793a cb08 8dbb
000000e0: a01a 80bc 174a 7d3d 8fc6 7abd 56f7 2d3d
000000f0: 05b1 223d 6952 dd3b 438d e13c de5f 74bc
00000100: 5682 07bd 2a8f 2bbd c333 7d3d 8677 54bd
00000110: 8cd4 13be 068f 27bd 6275 e63c 6fed 78bb
00000120: ae50 843c 18c3 2d3c 0460 aa3d d7a5 9a3b
00000130: 3d07 34ba ad14 193d a2b1 6fbd d618 b53c
00000140: b5a0 3f3d d05a 293d c8db f9bc 310b 87bb
00000150: dc02 79bd e1b8 c0bb df62 103d 7f49 af3c
00000160: dc5d 15bc 7cac ef3c 1e89 193d a233 edbc
00000170: aed4 de3d ff26 b7bc c185 5bbd de44 7ebc
00000180: 2bab b5bc a703 43bd b371 a63d 1ab0 7e3a
00000190: 009e b03b b112 18bc 051d 233b 7928 46bd
000001a0: 4424 92bd 8be9 fc3b 199a d9bb ee92 013c
000001b0: d3af 4abc 6c17 1e3a 5ba1 8cbc d4d0 4e3d
000001c0: 26ad 4c3c 8724 2f3d 6370 8d3d 3de3 243e
000001d0: 9ffb f1bc e4bd 34bd 2df7 603d 33f9 363d
000001e0: cd7e c93b 06d7 ce3d 2f51 2c3b 53ad 533d
000001f0: c48e 57bd 672a aabc 94f2 0abd 00df bc3c
00000200: cef6 723b cf4a 243d 4795 b3bd 0eae 183d
00000210: b70e 1abd d758 a43c b9d2 d7bc 83d0 abbc
00000220: c109 63bb 42b1 54bd aaa1 633d 34ea 543d
00000230: ea2e dc3d b90b e7bc b83a 7f3b 28aa 9e3d
00000240: 8507 9fbd f360 7ebc cfa7 be3b f4cc b0bb
00000250: 9dd6 03bd 7f8b 8cbd 6efd 953d 4c22 30bb
00000260: 65e7 b1bc 81b2 e0bc 6577 f33c 3bdf 743a
00000270: fd1c 46bd 5c29 6bbd a562 cf3c f99a d63b
00000280: 61d8 a0bd 8b8d d63d ff50 d83c 3987 17bd
00000290: 3154 b43c 6664 bcbd 084f 24bc 3d7d b2bd
000002a0: 6030 90ba 63b8 93bc 4610 413c eb29 a53d
000002b0: 0a64 683d e1db 493c ee85 423b 6e7f 23bc
000002c0: b318 84bb 5913 873b cc99 45bd 3086 cd3c
000002d0: 2db8 9bbb ddee 2c3d a5a5 aebc 0bfc e43c
000002e0: b6f4 38bd 53e1 78bd 88cb bcbd 76e9 3abc
000002f0: 7e4c 973d 28a0 91bb 900c a93c 5822 f8bc
00000300: 55db 8cbd 15d7 efbc e86c a93c 94a9 c53c
00000310: e7e0 9dbc 4ca5 dcbb de0b 8abd 09df 493c
00000320: 4ca2 883c 9e1e e6bc 4fcc 02bd cc68 793d
00000330: 2a4a 7b3c 331c 2b3d fe54 df3b 5cc3 e33b
00000340: 97a6 8fbd efb1 c13d 43ad 84bd 9234 1abd
00000350: a676 17bc b2cd 10bc b713 d33c 62a4 d5bc
00000360: e2f1 663d 2fa5 11bd 63ff f93c b26d 78bd
00000370: 3a43 f4bc 983b d33d cbc8 56bc 6491 cd3b
00000380: 6c40 0bbc eed9 9f3c 82a9 01bd be4e 98bb
00000390: c9b8 163d 1a4e 1c3c 7b71 24bd 529f 4bbc
000003a0: bca4 80bd bf61 42bd c6dd a33c 3532 dbbc
000003b0: f330 45bd 5dc7 14bd 0a4a 26bd bfe0 7abc
000003c0: 8da2 ffbc 3ee3 14bd 376b c6bc 040e 70bb
000003d0: b6b3 133c 4145 57bc 52c1 a53c 3b9f 093c
000003e0: 9195 5ebb 8312 0e3d 26db 0dbd d065 62bc
000003f0: 7735 5fbd 69f5 a8bc be41 08bd 8386 9dbc
0.028815571 -0.058145385 0.047419254 0.036276974 -0.016232548 -0.07993076 0.03444061 0.053286333
-0.029638082 0.012113361 -0.060485665 0.029190129 -0.0022913942 0.07484428 0.028782263 0.015594112
0.022543611 -0.03752811 0.019072795 0.028834209 -0.030274365 0.026137786 0.030704964 -0.08086097
-0.04607329 0.0112631675 -0.024420608 -0.031300254 0.026001997 -0.021769475 -0.08269056 0.034456454
0.013741601 -0.012553431 -0.024078686 -0.00015202412 -0.0011055506 -0.010322829 -0.025326291 0.016874596
-0.05203716 -0.015540063 0.010540698 0.05506234 -0.06387735 -0.018777044 0.0065878998 0.049624845
0.00020322949 -0.042929064 0.061664 -0.053266738 0.050647095 -0.01004417 0.0009503785 -0.0043040267
-0.015637696 0.061838236 -0.061224516 0.042472206 0.0397196 0.006754209 0.02753318 -0.014915435
-0.033083282 -0.04188458 0.061816942 -0.0518718 -0.14436549 -0.040907882 0.028132144 -0.0037983318
0.016151752 0.010605596 0.08319095 0.0047194767 -0.00068675337 0.037373234 -0.058519013 0.02210657
0.04678412 0.04134637 -0.030500308 -0.004121207 -0.060793743 -0.0058814143 0.03525054 0.02139735
-0.009116616 0.029257052 0.03748428 -0.028955285 0.10880409 -0.022357462 -0.053594355 -0.015519349
-0.022176346 -0.047610905 0.08127155 0.0009715572 0.005389929 -0.0092818 0.0024889123 -0.04837844
-0.07135823 0.00771827 -0.0066406843 0.007908566 -0.012371021 0.0006030712 -0.017166784 0.050492123
0.012492454 0.042759445 0.06906202 0.1610231 -0.029538928 -0.044126406 0.054923225 0.04467125
0.006149149 0.10099606 0.0026293506 0.051678967 -0.052626386 -0.020772172 -0.033922747 0.023055553
0.0037073377 0.040110406 -0.08768707 0.037275366 -0.03761169 0.020061893 -0.026345598 -0.02097345
-0.0034643265 -0.05192686 0.055574097 0.051981166 0.10751136 -0.028203832 0.0038944911 0.077472985
-0.07765106 -0.015526044 0.005818344 -0.005395526 -0.032187093 -0.06862544 0.073237285 -0.0026875911
-0.021716783 -0.027428867 0.029720018 0.0009341125 -0.04836749 -0.05741249 0.025315592 0.006549236
-0.07853771 0.10476216 0.02640581 -0.036994193 0.022012802 -0.09198837 -0.010028608 -0.087152936
-0.0011000745 -0.018032258 0.011783665 0.08064636 0.05673603 0.01232049 0.002968188 -0.009979112
-0.0040312647 0.0041221795 -0.048242375 0.0250884 -0.00475218 0.042219985 -0.02131922 0.027952215
-0.04515525 -0.06076176 -0.09218508 -0.0114082005 0.073876366 -0.004444141 0.020635873 -0.030289814
-0.06877772 -0.029277364 0.020681813 0.024128713 -0.01927228 -0.006733572 -0.06740545 0.012321242
0.016678952 -0.028090771 -0.031933125 0.060890958 0.015337506 0.04177494 0.006815552 0.006950779
-0.07014196 0.09457766 -0.064783596 -0.03764779 -0.009244597 -0.008838104 0.025766237 -0.02607936
0.05638302 -0.035557922 0.030517286 -0.06065149 -0.029817212 0.10314101 -0.013109396 0.0062734354
-0.008499246 0.019513097 -0.031655796 -0.0046480587 0.03679732 0.009540105 -0.040147286 -0.012428122
-0.062814206 -0.0474565 0.02000321 -0.026757339 -0.048142385 -0.03632294 -0.040597953 -0.015312373
-0.03120544 -0.036349528 -0.024221046 -0.0036629448 0.009015014 -0.01313907 0.020233784 0.00839978
-0.003396366 0.034685623 -0.034632824 -0.013818219 -0.054494347 -0.020624833 -0.03326582 -0.01922918

bias_ih_l0 f4 [512]
00000000: 867a 073d 12b5 2d3d 9ca7 213d ae56 013c
00000010: c544 8e3c 5be1 753c 393b aa3c d271 f83c
00000020: bacd 93bb 62f4 0d3c b081 57bc dcef 0d3d
00000030: 635b 003d 799b 2abc 93d4 943c a1a2 ad3c
00000040: be58 163d e885 073d 47b0 8bba 14f6 2f3c
00000050: 9fb3 60bc 9431 883c 88ed 143c 383a 423b
00000060: 7ad3 863c 5c11 cd3b d4d6 0a3d b4c6 013d
00000070: 1b59 7c3c 711c aa3c 43e4 073b d47f 293d
00000080: e25d 833c e0a9 713c a0f2 db3c 9bcc 22bc
00000090: 9390 043c c1e8 fabb f749 24bc a313 253d
000000a0: c9a8 e83c 6761 6d3c 007e 69ba 6714 de3b
000000b0: bad6 913c 46c5 173c 898c f73c 3ea6 b6bb
000000c0: 2025 803b f370 df3b af72 ee3c d32c 223d
000000d0: 2590 553c 6057 143d 03dd 163d 8111 7b3b
000000e0: d69b 32bb f734 8b3c 1c11 b03c a36c 0cbd
000000f0: 30bd 053c f0f3 c03c 0d03 113c 0819 103c
00000100: ce80 0a3c c607 10bc c9c9 b13c 4c24 ee3c
00000110: 8789 5b3c b715 b53c c60e 823c 54a3 013d
00000120: 423a 163d 01f5 093d 4eb9 4f3c ae18 b6bc
00000130: 81ab c93b 1628 ea3b d60a 133d 1ac7 ab3c
00000140: 7568 133d b636 8dba cdba 1e3d efa5 dabc
00000150: 9d94 b2bb 040e bb3b 6ff2 183d d002 d6b9
00000160: f3a1 093d 2213 073d 23b5 253b 976a 093d
00000170: ca4f 853c c05a fc3c a756 db3b 894a ef3c
00000180: a8b9 063d 364a 353c 83d2 843c 3c36 ca3b
00000190: b1d1 e93c a4f8 113d 91b7 a13c a4c3 e3bc
000001a0: 913b 233d d4b7 bebc a63e 913b 1524 fe3b
000001b0: 2607 ff3c b900 453a c20c c2bc ebc4 9ebb
000001c0: 9000 2f3d 708d 1d3c 3268 8c3a 4b90 eb3c
000001d0: a379 103c d36a 963c 7478 943c 464a 46ba
000001e0: 6841 37bb d0e9 0e3d cfe5 6c3c bd03 293c
000001f0: efa4 083d c412 693c 649c 0f3d b64d ab3c
00000200: 9156 d13b 1d13 8e3c c433 983c cc5a 06bc
00000210: 79a1 99bb baf0 d0bb 541e 9bbb 0940 123c
00000220: 07c0 78bc 38c8 ebbb 153e e5bc 9a62 603c
00000230: 402f 1f3c 071c 43bc 0235 39bb 5963 6ebb
00000240: 16b1 983c 92d1 db3b 6e70 67bc 2555 07bc
00000250: a824 bcbc 324b 06bb ac2c d0bb 06bb e0bb
00000260: 1ccf 0dbc 1b37 23bc fad1 a93b bf1f d73b
00000270: 3fb8 a3bb b39e 81ba ec1a 62bc 1a29 b53c
00000280: f744 d6bb 99a7 a5bb 8113 373b 8bf6 48bc
00000290: 526e c5bb 48a8 4ebc 3142 d1bc 1778 953c
000002a0: 13ee 433b 75cc f6bb 5130 30bc b6b1 1cbc
000002b0: 1e14 aebb c974 31bc 6623 213b 123e 4ebc
000002c0: 1e11 f3bb d322 37bc 15fe 5e3c ae20 903c
000002d0: 2498 f6bb 2110 683c 0fe2 793c b943 1bbc
000002e0: 6917 4cbc 2d4f 52b8 1d8f e93a 57e5 05bd
000002f0: e610 92bb a7cf bfb9 a34c 48bc f310 37bc
00000300: 5585 1bbc 9ee7 75bc 4e94 83ba f437 053c
00000310: 955d ccbb 8968 a93a 12f9 61bb 73ff 1f3c
00000320: 8bdd 4a3c 827b 063c 9209 0dbc dcac 89bc
00000330: e62f 45bc ac0f d4bb 1ed2 833c 0cfb 87ba
00000340: d717 883c a245 41bc f2b4 9f3c d46d b9bc
00000350: d1d9 54bc 3caf 2fbc f8f0 e13b 9d29 4cbc
00000360: 14e9 673c d67e 3c3c f494 28bc 779a 9d3b
00000370: ef56 a3bb c2f7 e13b 460e 05bc da31 db3b
00000380: e06d 753c eb3e 17bc 1375 6cbb 1c71 03bc
00000390: 1e19 483b c6ae 183c 145b 85bb 1c97 ffbc
000003a0: 83d0 a23c 1d1f 81bc 82a2 5ebc b2b5 34bc
000003b0: 2c30 af3b ef35 24bc c2a7 a7bc 6419 3fbc
000003c0: 11a0 993c 9505 98bb f395 2cbc 8b16 b73b
000003d0: f3ca 13bc 6ff5 89bb 4298 a7bb 362e 3abc
000003e0: 5411 51bc 29c0 643c 70ac daba 845f cebb
000003f0: e6e3 593c 5804 b5bb 5888 8d3c 8b02 24bb
0.03307583 0.04240901 0.039466485 0.007894201 0.017366776 0.015007342 0.020780193 0.030327711
-0.0045106085 0.008664222 -0.0131534785 0.034652576 0.031337153 -0.010413044 0.01816777 0.021195712
0.036705725 0.033086687 -0.0010657393 0.010739822 -0.0137147 0.016625203 0.009089835 0.0029636752
0.016458262 0.006258173 0.033896282 0.03168364 0.015402104 0.020765515 0.002073542 0.041381672
0.016035978 0.014749974 0.026849091 -0.009936477 0.00809111 -0.007657141 -0.0100274 0.04030193
0.028400796 0.014488555 -0.000890702 0.0067773345 0.017802585 0.009263342 0.03021838 -0.005574017
0.0039106756 0.0068188845 0.02910742 0.03959353 0.013034855 0.03621614 0.036831867 0.0038309994
-0.002725353 0.016993029 0.021492533 -0.03428329 0.008162782 0.023553818 0.008850825 0.00879503
0.008453561 -0.008790916 0.021702664 0.029070042 0.013399488 0.022105081 0.015876185 0.031649902
0.036676653 0.03368092 0.012678457 -0.022228565 0.006154478 0.007145892 0.035899006 0.020968962
0.03598829 -0.0010773751 0.038752366 -0.026690451 -0.005449845 0.005708458 0.037340578 -0.00040819356
0.033601712 0.03297723 0.0025284968 0.033548918 0.016273398 0.030804992 0.0066936794 0.029210346
0.0328919 0.011065057 0.016213661 0.006171016 0.028542371 0.035637513 0.019740852 -0.02780325
0.03985173 -0.023281015 0.004432517 0.007755766 0.031131338 0.00075150613 -0.023687724 -0.004845252
0.042725146 0.009616241 0.0010712205 0.028755328 0.008818063 0.018361485 0.018123843 -0.0007564168
-0.002796257 0.03489095 0.0144590875 0.010315833 0.033360418 0.0142256655 0.035061255 0.020911079
0.0063884933 0.017343098 0.018579371 -0.008200359 -0.0046884385 -0.006376353 -0.00473384 0.0089264
-0.015182502 -0.007195499 -0.027983705 0.013695383 0.009715855 -0.011908538 -0.0028260355 -0.0036375134
0.018639129 0.0067083323 -0.014125926 -0.008260046 -0.022966698 -0.0020491597 -0.0063529816 -0.0068582324
-0.008655336 -0.009961869 0.005182502 0.0065650637 -0.004996329 -0.0009889215 -0.013800364 0.022114325
-0.006538983 -0.0050553796 0.002793521 -0.012265812 -0.006025114 -0.012613364 -0.025544258 0.01824574
0.0029896542 -0.0075316974 -0.010753707 -0.009563854 -0.0053124567 -0.010831066 0.002458775 -0.012588041
-0.007417812 -0.011177736 0.013610383 0.017593708 -0.007525461 0.014164002 0.0152516505 -0.009476596
-0.012456753 -5.014164e-05 0.001781914 -0.03268942 -0.004457581 -0.00036585072 -0.012225303 -0.011173475
-0.009492238 -0.015008835 -0.0010038705 0.008131016 -0.006236742 0.0012924831 -0.0034480733 0.009765494
0.0123819215 0.0082081575 -0.008608239 -0.016806059 -0.012035346 -0.006471595 0.016091403 -0.00103745
0.01661293 -0.011796387 0.019495461 -0.022635378 -0.012991385 -0.0107229315 0.006895181 -0.012461093
0.014154691 0.011504849 -0.010289419 0.0048096734 -0.0049847285 0.00689599 -0.008121079 0.0066892924
0.0149798095 -0.009231309 -0.0036080524 -0.008022573 0.003053255 0.009319013 -0.0040696952 -0.031199984
0.019874817 -0.015761906 -0.01358855 -0.011029648 0.0053463187 -0.010022624 -0.020465735 -0.011663768
0.018753083 -0.0046393373 -0.010533798 0.005587404 -0.009020555 -0.004210166 -0.005114586 -0.011363557
-0.012760479 0.01396183 -0.001668347 -0.0062980074 0.013298964 -0.0055241995 0.017276928 -0.002502593

bias_hh_l0 f4 [512]
00000000: 867a 073d 12b5 2d3d 9ca7 213d ae56 013c
00000010: c544 8e3c 5be1 753c 393b aa3c d271 f83c
00000020: bacd 93bb 62f4 0d3c b081 57bc dcef 0d3d
00000030: 635b 003d 799b 2abc 93d4 943c a1a2 ad3c
00000040: be58 163d e885 073d 47b0 8bba 14f6 2f3c
00000050: 9fb3 60bc 9431 883c 88ed 143c 383a 423b
00000060: 7ad3 863c 5c11 cd3b d4d6 0a3d b4c6 013d
00000070: 1b59 7c3c 711c aa3c 43e4 073b d47f 293d
00000080: e25d 833c e0a9 713c a0f2 db3c 9bcc 22bc
00000090: 9390 043c c1e8 fabb f749 24bc a313 253d
000000a0: c9a8 e83c 6761 6d3c 007e 69ba 6714 de3b
000000b0: bad6 913c 46c5 173c 898c f73c 3ea6 b6bb
000000c0: 2025 803b f370 df3b af72 ee3c d32c 223d
000000d0: 2590 553c 6057 143d 03dd 163d 8111 7b3b
000000e0: d69b 32bb f734 8b3c 1c11 b03c a36c 0cbd
000000f0: 30bd 053c f0f3 c03c 0d03 113c 0819 103c
00000100: ce80 0a3c c607 10bc c9c9 b13c 4c24 ee3c
00000110: 8789 5b3c b715 b53c c60e 823c 54a3 013d
00000120: 423a 163d 01f5 093d 4eb9 4f3c ae18 b6bc
00000130: 81ab c93b 1628 ea3b d60a 133d 1ac7 ab3c
00000140: 7568 133d b636 8dba cdba 1e3d efa5 dabc
00000150: 9d94 b2bb 040e bb3b 6ff2 183d d002 d6b9
00000160: f3a1 093d 2213 073d 23b5 253b 976a 093d
00000170: ca4f 853c c05a fc3c a756 db3b 894a ef3c
00000180: a8b9 063d 364a 353c 83d2 843c 3c36 ca3b
00000190: b1d1 e93c a4f8 113d 91b7 a13c a4c3 e3bc
000001a0: 913b 233d d4b7 bebc a63e 913b 1524 fe3b
000001b0: 2607 ff3c b900 453a c20c c2bc ebc4 9ebb
000001c0: 9000 2f3d 708d 1d3c 3268 8c3a 4b90 eb3c
000001d0: a379 103c d36a 963c 7478 943c 464a 46ba
000001e0: 6841 37bb d0e9 0e3d cfe5 6c3c bd03 293c
000001f0: efa4 083d c412 693c 649c 0f3d b64d ab3c
00000200: 9156 d13b 1d13 8e3c c433 983c cc5a 06bc
00000210: 79a1 99bb baf0 d0bb 541e 9bbb 0940 123c
00000220: 07c0 78bc 38c8 ebbb 153e e5bc 9a62 603c
00000230: 402f 1f3c 071c 43bc 0235 39bb 5963 6ebb
00000240: 16b1 983c 92d1 db3b 6e70 67bc 2555 07bc
00000250: a824 bcbc 324b 06bb ac2c d0bb 06bb e0bb
00000260: 1ccf 0dbc 1b37 23bc fad1 a93b bf1f d73b
00000270: 3fb8 a3bb b39e 81ba ec1a 62bc 1a29 b53c
00000280: f744 d6bb 99a7 a5bb 8113 373b 8bf6 48bc
00000290: 526e c5bb 48a8 4ebc 3142 d1bc 1778 953c
000002a0: 13ee 433b 75cc f6bb 5130 30bc b6b1 1cbc
000002b0: 1e14 aebb c974 31bc 6623 213b 123e 4ebc
000002c0: 1e11 f3bb d322 37bc 15fe 5e3c ae20 903c
000002d0: 2498 f6bb 2110 683c 0fe2 793c b943 1bbc
000002e0: 6917 4cbc 2d4f 52b8 1d8f e93a 57e5 05bd
000002f0: e610 92bb a7cf bfb9 a34c 48bc f310 37bc
00000300: 5585 1bbc 9ee7 75bc 4e94 83ba f437 053c
00000310: 955d ccbb 8968 a93a 12f9 61bb 73ff 1f3c
00000320: 8bdd 4a3c 827b 063c 9209 0dbc dcac 89bc
00000330: e62f 45bc ac0f d4bb 1ed2 833c 0cfb 87ba
00000340: d717 883c a245 41bc f2b4 9f3c d46d b9bc
00000350: d1d9 54bc 3caf 2fbc f8f0 e13b 9d29 4cbc
00000360: 14e9 673c d67e 3c3c f494 28bc 779a 9d3b
00000370: ef56 a3bb c2f7 e13b 460e 05bc da31 db3b
00000380: e06d 753c eb3e 17bc 1375 6cbb 1c71 03bc
00000390: 1e19 483b c6ae 183c 145b 85bb 1c97 ffbc
000003a0: 83d0 a23c 1d1f 81bc 82a2 5ebc b2b5 34bc
000003b0: 2c30 af3b ef35 24bc c2a7 a7bc 6419 3fbc
000003c0: 11a0 993c 9505 98bb f395 2cbc 8b16 b73b
000003d0: f3ca 13bc 6ff5 89bb 4298 a7bb 362e 3abc
000003e0: 5411 51bc 29c0 643c 70ac daba 845f cebb
000003f0: e6e3 593c 5804 b5bb 5888 8d3c 8b02 24bb
0.03307583 0.04240901 0.039466485 0.007894201 0.017366776 0.015007342 0.020780193 0.030327711
-0.0045106085 0.008664222 -0.0131534785 0.034652576 0.031337153 -0.010413044 0.01816777 0.021195712
0.036705725 0.033086687 -0.0010657393 0.010739822 -0.0137147 0.016625203 0.009089835 0.0029636752
0.016458262 0.006258173 0.033896282 0.03168364 0.015402104 0.020765515 0.002073542 0.041381672
0.016035978 0.014749974 0.026849091 -0.009936477 0.00809111 -0.007657141 -0.0100274 0.04030193
0.028400796 0.014488555 -0.000890702 0.0067773345 0.017802585 0.009263342 0.03021838 -0.005574017
0.0039106756 0.0068188845 0.02910742 0.03959353 0.013034855 0.03621614 0.036831867 0.0038309994
-0.002725353 0.016993029 0.021492533 -0.03428329 0.008162782 0.023553818 0.008850825 0.00879503
0.008453561 -0.008790916 0.021702664 0.029070042 0.013399488 0.022105081 0.015876185 0.031649902
0.036676653 0.03368092 0.012678457 -0.022228565 0.006154478 0.007145892 0.035899006 0.020968962
0.03598829 -0.0010773751 0.038752366 -0.026690451 -0.005449845 0.005708458 0.037340578 -0.00040819356
0.033601712 0.03297723 0.0025284968 0.033548918 0.016273398 0.030804992 0.0066936794 0.029210346
0.0328919 0.011065057 0.016213661 0.006171016 0.028542371 0.035637513 0.019740852 -0.02780325
0.03985173 -0.023281015 0.004432517 0.007755766 0.031131338 0.00075150613 -0.023687724 -0.004845252
0.042725146 0.009616241 0.0010712205 0.028755328 0.008818063 0.018361485 0.018123843 -0.0007564168
-0.002796257 0.03489095 0.0144590875 0.010315833 0.033360418 0.0142256655 0.035061255 0.020911079
0.0063884933 0.017343098 0.018579371 -0.008200359 -0.0046884385 -0.006376353 -0.00473384 0.0089264
-0.015182502 -0.007195499 -0.027983705 0.013695383 0.009715855 -0.011908538 -0.0028260355 -0.0036375134
0.018639129 0.0067083323 -0.014125926 -0.008260046 -0.022966698 -0.0020491597 -0.0063529816 -0.0068582324
-0.008655336 -0.009961869 0.005182502 0.0065650637 -0.004996329 -0.0009889215 -0.013800364 0.022114325
-0.006538983 -0.0050553796 0.002793521 -0.012265812 -0.006025114 -0.012613364 -0.025544258 0.01824574
0.0029896542 -0.0075316974 -0.010753707 -0.009563854 -0.0053124567 -0.010831066 0.002458775 -0.012588041
-0.007417812 -0.011177736 0.013610383 0.017593708 -0.007525461 0.014164002 0.0152516505 -0.009476596
-0.012456753 -5.014164e-05 0.001781914 -0.03268942 -0.004457581 -0.00036585072 -0.012225303 -0.011173475
-0.009492238 -0.015008835 -0.0010038705 0.008131016 -0.006236742 0.0012924831 -0.0034480733 0.009765494
0.0123819215 0.0082081575 -0.008608239 -0.016806059 -0.012035346 -0.006471595 0.016091403 -0.00103745
0.01661293 -0.011796387 0.019495461 -0.022635378 -0.012991385 -0.0107229315 0.006895181 -0.012461093
0.014154691 0.011504849 -0.010289419 0.0048096734 -0.0049847285 0.00689599 -0.008121079 0.0066892924
0.0149798095 -0.009231309 -0.0036080524 -0.008022573 0.003053255 0.009319013 -0.0040696952 -0.031199984
0.019874817 -0.015761906 -0.01358855 -0.011029648 0.0053463187 -0.010022624 -0.020465735 -0.011663768
0.018753083 -0.0046393373 -0.010533798 0.005587404 -0.009020555 -0.004210166 -0.005114586 -0.011363557
-0.012760479 0.01396183 -0.001668347 -0.0062980074 0.013298964 -0.0055241995 0.017276928 -0.002502593
