pufferlib/environments/ocean/puffer_enduro/resources/trained_models/puffer_enduro-afda4b76-beats_day_1/model_000400.pt (torch, 565307 bytes, 9 tensors)

weight f4 [128, 50]
0.069532916 0.06156979 -0.015753621 -0.113227874 -0.14165866 -0.08053231 -0.08471083 0.111705385
0.067980744 0.049046993 0.1175456 0.06446562 -0.01767441 -0.13231076 0.12806031 -0.08139639
0.051706903 -0.09682615 -0.08314825 -0.024166448 -0.1082686 0.12878796 0.030042399 -0.0656528
0.09727711 -0.13078754 -0.059175443 0.012801521 -0.12106403 0.0086783245 -0.01852029 -0.13495167
-0.006195632 -0.014251114 0.020674028 0.07318258 0.08190546 0.11559503 -0.088909 0.061318625
-0.048431516 0.057998642 -0.07748874 -0.076143384 -0.13505055 -0.095081136 -0.10643152 -0.066662945
-0.039393526 -0.10749707 0.06681118 0.12910017 0.1094371 -0.17817369 -0.1599739 -0.0071159056
0.093685836 0.035359148 0.14350271 -0.4027159 0.072773546 -0.09050913 0.10536764 -0.2000386
0.016288081 0.024212163 -0.09512803 0.1326539 -0.10655604 0.09659454 -0.050190657 -0.018939491
0.021747002 0.05582608 -0.108372495 0.10504208 0.062420193 0.06568095 -0.015932027 0.04203308
-0.10178511 -0.086623274 0.040310904 -0.12532137 -0.07031376 -0.1350902 -0.008128135 0.10874925
0.07197397 0.051869392 -0.018196898 0.102067515 0.13122928 -0.07331544 0.055350497 -0.08922468
-0.027777292 -0.053915035 0.0828638 0.105579056 0.37376976 0.026841192 0.29223576 -0.15363258
-0.0954637 0.12243631 -0.067176655 -0.119775474 -0.035965256 -0.45701426 0.023656476 -0.065458864
0.042144332 0.081770465 -0.054550424 0.11720518 -0.015331605 -0.013107382 0.11202351 0.08583509
-0.005925517 -0.083389185 0.019610647 0.040346835 0.10145639 0.03995303 0.038634118 -0.08229162
0.030314002 -0.041635323 -0.055034257 0.05141649 -0.05050614 0.0016744892 0.05228387 -0.08221967
-0.076918304 0.05079719 0.12015409 -0.11719893 -0.011252441 0.021405507 -0.023083769 -0.03838899
-0.033583235 0.116908856 -0.13996342 -0.0125759905 0.017145157 -0.09778575 0.15238833 -0.11085987
-0.116929516 -0.016015451 -0.08829266 0.049879182 0.14071165 -0.1470619 0.13193044 -0.08674662
-0.014478036 -0.11092862 -0.07150663 -0.025623022 -0.049586184 0.098679125 -0.09641598 0.002898336
0.15979013 -0.01933557 0.13461672 0.051130284 -0.040121607 -0.015486255 0.07373323 0.05241809
-0.12964682 0.044469763 0.12333651 -0.113745525 0.026240982 -0.09260164 0.12926179 0.024835378
-0.10489645 -0.13016616 -0.04069436 0.122923635 0.010043988 -0.056096073 -0.030154541 -0.027328962
-0.11046128 0.1210876 -0.062041413 0.14036176 0.12789814 -0.067202345 -0.10550115 0.08922165
0.06626675 0.067498475 -0.04755161 0.064729474 -0.10912546 0.11313523 -0.113778934 -0.13488896
0.13862766 -0.0760661 -0.04758266 -0.13293146 -0.106003255 0.05656813 -0.017468426 -0.03177767
0.12985265 0.118521534 -0.080949195 -0.12320387 0.005839272 -0.0696378 0.02724931 -0.0052336594
-0.12955023 -0.13253438 -0.075206324 -0.13481162 0.10911622 0.052835837 0.093526654 0.094596006
0.02109393 -0.10465803 -0.024735263 0.073159605 0.01770745 -0.108506024 0.037013624 -0.12067008
-0.106574416 0.08377223 -0.06554121 -0.13991708 0.121343225 -0.009813439 -0.1365515 -0.1261556
0.0708219 0.1046173 0.0043684077 -0.1282256 0.087282225 0.056079835 -0.10427696 0.09227411
00000000: 4667 8e3d 9b30 7c3d bd0d 81bc 04e4 e7bd
00000010: f80e 11be 20ee a4bd df7c adbd cbc5 e43d
00000020: 7d39 8b3d 80e5 483d bfbb f03d 8d06 843d
00000030: edc9 90bc 797c 07be 3e22 033e 27b3 a6bd
00000040: 9eca 533d ca4c c6bd a149 aabd b7f8 c5bc
00000050: eebb ddbd fee0 033e 7a1b f63c fa74 86bd
00000060: 3939 c73d 2bed 05be f361 72bd 79bd 513c
00000070: 6bf0 f7bd 882f 0e3c ddb7 97bc c530 0abe
00000080: ba04 cbbb 817d 69bc 945c a93c c0e0 953d
00000090: 0dbe a73d 16bd ec3d ec15 b6bd 3d29 7b3d
000000a0: 2060 46bd fc8f 6d3d 6bb2 9ebd 10f1 9bbd
000000b0: b14a 0abe e6b9 c2bd c5f8 d9bd 9586 88bd
000000c0: 1b5b 21bd 6d27 dcbd 4dd4 883d d632 043e
000000d0: 8f20 e03d 2a73 36be 33d0 23be 8b2c e9bb
000000e0: 5cde bf3d c1d4 103d 60f2 123e c730 cebe
000000f0: 4c0a 953d da5c b9bd fdca d73d ebd6 4cbe
00000100: 956e 853c 9658 c63c 7cd2 c2bd 6dd6 073e
00000110: 0e3a dabd 5cd3 c53d b894 4dbd fe26 9bbc
00000120: c526 b23c e3a9 643d 66f2 ddbd 4d20 d73d
00000130: 51ac 7f3d bc83 863d e283 82bc e12a 2c3d
00000140: b674 d0bd 8b67 b1bd 0c1d 253d 3f54 00be
00000150: a900 90bd 1655 0abe df2b 05bc edb7 de3d
00000160: 1767 933d 0075 543d a911 95bc c608 d13d
00000170: f860 063e 6826 96bd 34b7 623d 6ebb b6bd
00000180: 348d e3bc 03d6 5cbd 7fb4 a93d d539 d83d
00000190: c05e bf3e 0fe2 db3c ed9f 953e dc51 1dbe
000001a0: 7982 c3bd e3bf fa3d ea93 89bd d84c f5bd
000001b0: 4e50 13bd c6fd e9be 3acb c13c 4c0f 86bd
000001c0: 899f 2c3d 4677 a73d 4470 5fbd 4509 f03d
000001d0: 6a31 7bbc 58c0 56bc 956c e53d 4fca af3d
000001e0: d72a c2bb f3c7 aabd 82a6 a03c b942 253d
000001f0: 5ec8 cf3d caa5 233d cf3e 1e3d 8288 a8bd
00000200: 1255 f83c cd89 2abd 9a6b 61bd 199a 523d
00000210: 87df 4ebd 897a db3a 9c27 563d c962 a8bd
00000220: 5887 9dbd b710 503d 5913 f63d fe05 f0bd
00000230: 295c 38bc 9a5a af3c 2c1a bdbc c63d 1dbd
00000240: 938e 09bd e96d ef3d 9252 0fbe 870b 4ebc
00000250: 0074 8c3c e543 c8bd b00b 1c3e 800a e3bd
00000260: be78 efbd d632 83bc c8d2 b4bd 1d4e 4c3d
00000270: b716 103e 6597 16be c618 073e 36a8 b1bd
00000280: 4935 6dbc 8b2e e3bd 1172 92bd 5fe7 d1bc
00000290: e21a 4bbd 4818 ca3d be75 c5bd 02f2 3d3b
000002a0: 06a0 233e a165 9ebc f7d8 093e fd6d 513d
000002b0: 8e56 24bd 10ba 7dbc 7301 973d 5ab4 563d
000002c0: 23c2 04be ed25 363d da97 fc3d 6af3 e8bd
000002d0: 54f7 d63c eea5 bdbd 345d 043e 9073 cb3c
000002e0: f3d3 d6bd 474a 05be 21af 26bd 63bf fb3d
000002f0: 8a8f 243c ffc4 65bd a806 f7bc fde0 dfbc
00000300: 8639 e2bd c7fc f73d 231f 7ebd feba 0f3e
00000310: bbf7 023e 62a1 89bd fd10 d8bd d7b9 b63d
00000320: ddb6 873d a43c 8a3d 7ac5 42bd e390 843d
00000330: 2b7d dfbd 72b3 e73d ee04 e9bd 5520 0abe
00000340: 69f4 0d3e 8bc8 9bbd 09e6 42bd 2f1f 08be
00000350: 3c18 d9bd fcb3 673d f219 8fbc 4d29 02bd
00000360: 18f8 043e 6bbb f23d b1c8 a5bd 5052 fcbd
00000370: 5d57 bf3b 439e 8ebd f239 df3c 1e7f abbb
00000380: d1a8 04be 18b7 07be c605 9abd 0f0c 0abe
00000390: 5378 df3d 646a 583d e78a bf3d 8dbb c13d
000003a0: 2dcd ac3c f356 d6bd 9ba1 cabc b4d4 953d
000003b0: 370f 913c 6838 debd 999b 173d e021 f7bd
000003c0: b043 dabd c690 ab3d 783a 86bd 6c46 0fbe
000003d0: cc82 f83d 8cc8 20bc 28d4 0bbe ef2e 01be
000003e0: 130b 913d 9841 d63d dc24 8f3b 924d 03be
000003f0: 06c1 b23d f8b3 653d 298f d5bd 35fa bc3d

bias f4 [128]
-0.00020148 0.034106232 -0.007377242 -0.0694295 -0.008954854 -0.108259805 0.1139216 -0.074167885
0.15460232 -0.015085419 0.026982004 0.11132111 0.017589416 -0.12155903 -0.021776615 -0.0039713276
0.024472423 -0.010977714 0.08844675 -0.011135011 0.14706294 -0.04172984 -0.012881339 -0.06944127
0.040074162 0.13584733 -0.11435077 -0.062888004 -0.016725158 0.011713417 -0.100835994 0.09916016
-0.13148358 0.003804172 0.12124504 -0.068475835 0.09620245 -0.133631 -0.11970099 0.12206834
0.1332063 -0.14827186 -0.049902648 -0.035160333 0.07371781 0.12919103 0.14540857 -0.04011052
-0.049893178 0.13623019 0.11804447 -0.04436002 0.053183574 0.17523713 -0.051796563 0.057643298
-0.0375861 -0.13169575 -0.00909906 0.056847908 -0.07386529 0.14290513 -0.118694246 0.13884243
0.14922021 -0.10299444 0.083475016 -0.018485557 0.03635955 -0.02134598 0.044032596 0.07597494
-0.03971745 -0.07055044 -0.017670397 -0.15701337 -0.090851896 0.08474902 0.099950045 -0.058982067
-0.03291599 -0.14457893 0.028265815 0.13740236 -0.072657414 0.05528365 0.022059292 0.016878735
0.09710593 -0.024512623 0.115391634 -0.04870168 0.11982939 0.045718346 0.03886769 0.13502175
0.17416453 0.07410915 -0.091131784 0.12082901 -0.0012615331 0.123463616 -0.05722371 -0.057664167
-0.03409622 -0.060261093 0.03728092 0.10388931 0.16879067 0.052003574 -0.07667812 -0.0732283
-0.12063166 0.15228243 -0.095371455 -0.040900037 0.011559193 0.06137355 -0.026754662 0.10616577
-0.14169635 0.0016339836 0.12908989 -0.039576754 -0.03266187 0.15791316 -0.12226027 -0.035905447
00000000: 6044 53b9 fab2 0b3d cbbc f1bb 0e31 8ebd
00000010: 61b7 12bc 51b7 ddbd ba4f e93d 55e5 97bd
00000020: 1250 1e3e d528 77bc 5d09 dd3c 52fc e33d
00000030: ae17 903c f1f3 f8bd df64 b2bc e921 82bb
00000040: 647a c83c dfdb 33bc 9223 b53d 9f6f 36bc
00000050: ab97 163e e9ec 2abd 400c 53bc 3937 8ebd
00000060: ce24 243d 901b 0b3e bd30 eabd 6dcb 80bd
00000070: 3303 89bc a2e9 3f3c 1a83 cebd 7b14 cb3d
00000080: a2a3 06be 6a4f 793b 524f f83d 0f3d 8cbd
00000090: ca05 c53d 91d6 08be cb25 f5bd f7fe f93d
000000a0: 3b67 083e 94d4 17be b866 4cbd 4804 10bd
000000b0: 5df9 963d a74a 043e fce5 143e ee4a 24bd
000000c0: ca5c 4cbd ed7f 0b3e 4dc1 f13d dab2 35bd
000000d0: 05d7 593d 5d71 333e a228 54bd 611b 6c3d
000000e0: e2f3 19bd 40db 06be 3914 15bc 5ad9 683d
000000f0: af46 97bd b955 123e f815 f3bd b62c 0e3e
00000100: 2fcd 183e c0ee d2bd f3f4 aa3d 066f 97bc
00000110: c0ed 143d c4dd aebc 865b 343d c098 9b3d
00000120: c4ae 22bd c07c 90bd 82c1 90bc 1dc8 20be
00000130: 8f10 babd e590 ad3d 9cb2 cc3d 2e97 71bd
00000140: ebd2 06bd 800c 14be b68d e73c 34b3 0c3e
00000150: 69cd 94bd 1c71 623d b0b5 b43c 4645 8a3c
00000160: 79df c63d b2ce c8bc 7352 ec3d 6a7b 47bd
00000170: 1c69 f53d 2943 3b3d ba33 1f3d 2443 0a3e
00000180: 3058 323e 8ac6 973d 4da3 babd 3375 f73d
00000190: 075a a5ba 7eda fc3d 6963 6abd 4331 6cbd
000001a0: 7aa8 0bbd 56d4 76bd e1b3 183d ebc3 d43d
000001b0: 76d7 2c3e b301 553d 6b09 9dbd b8f8 95bd
000001c0: bb0d f7bd edef 1b3e 1c52 c3bd cc86 27bd
000001d0: c562 3d3c d562 7b3d 982c dbbc 706d d93d
000001e0: d918 11be 642b d63a 2430 043e 3c1b 22bd
000001f0: 74c8 05bd fdb3 213e 9863 fabd 9711 13bd

weight f4 [9, 128]
0.046798497 -0.011687858 0.060993467 0.017724851 -0.008399341 -0.09738352 -0.04540507 -0.097631074
0.09200107 0.009278047 -0.016333817 0.014619752 -0.009954291 -0.07846975 0.11483368 0.046079747
-0.091968454 -0.006658888 -0.02903912 -0.06316799 0.05788164 -0.027685637 0.010967242 -0.05416872
0.05315676 -0.09542737 -0.10486345 -0.10722052 -0.031635985 -0.004981886 -0.24693517 0.0020642662
0.032761335 0.031485524 0.04027996 0.065682985 -0.02893799 0.043990925 0.118339755 -0.099458404
-0.11603427 -0.18322344 -0.102623805 0.14930078 0.04303913 -0.020014076 0.014497084 -0.024761433
0.06290406 0.12625001 -0.021992235 -0.051269237 -0.03406449 0.05178522 -0.030207954 -0.08910873
-0.10090747 -0.008538265 -0.10614051 0.1547748 -0.06634865 -0.047576558 0.037598897 0.010665052
-0.05618087 0.03986693 0.028021723 0.051390212 -0.0061084414 0.033107143 -0.020684179 -0.08165293
0.09074008 -0.009249577 0.007202815 0.0233337 -0.06646556 -0.06927297 0.002530817 0.03568874
0.050099686 -0.035359245 0.15418933 0.050255813 -0.09388442 0.0050305785 0.06903807 0.016365562
-0.030607617 0.047770176 0.019150857 -0.0007900374 0.019130418 -0.0471648 -0.11040166 0.12668388
0.025861897 -0.19417399 0.0977462 -0.17326696 -0.12579273 0.091360964 0.049386375 -0.031837124
0.08838132 -0.01829331 -0.04327274 -0.01473384 -0.08828727 -0.015680956 0.12926023 0.0051379297
0.048785985 -0.019984527 -0.11254178 0.07973103 -0.021219041 0.04194418 0.01000273 0.0220797
0.0053082784 -0.016384548 -0.006101225 -0.13019639 0.08554959 0.050333396 -0.07908602 0.06702186
0.1052389 -0.089735925 0.1344818 0.08964893 -0.08683643 0.054648284 -0.07289431 -0.10086885
-0.08574316 -0.09159466 -0.0805876 0.04022768 -0.02179944 -0.08285208 0.12553611 -0.0883287
-0.09609966 0.091121316 -0.07121086 0.029814836 0.13927291 -0.099640526 -0.09456036 -0.09235416
0.10073484 -0.09757189 0.09558217 -0.09867436 0.009609273 -0.07418755 -0.013477737 0.10704524
0.09895804 -0.07513283 0.09134034 0.09049642 -0.10444973 0.06411193 -0.07824421 0.08081683
0.081199124 0.116243795 0.051532906 0.12068297 0.035181552 0.08215002 0.09971336 -0.0655462
-0.013910981 -0.06951029 0.073429294 0.0075150523 0.0057594758 -0.13124673 0.0758132 -0.11991446
-0.10288783 -0.055192154 0.06452769 0.17336579 0.12319302 -0.0040908456 -0.026931623 0.08901724
-0.09518027 -0.027078765 -0.11713445 -0.14640978 0.08364633 -0.07123592 0.07206598 0.054474417
0.07307903 0.04340943 -0.12972029 0.0845376 -0.093573384 0.051741496 0.083061695 0.07423582
-0.08213537 0.052900195 0.09136993 0.0876073 -0.09403399 -0.09628813 0.041903347 0.002602951
-0.08680336 0.079400696 0.11707826 0.011419092 -0.08103629 0.08065235 0.15569724 0.20238867
-0.06981074 0.07151959 -0.08024732 -0.14211503 -0.028250245 0.068390206 0.08988257 0.071281545
-0.05691636 0.041400068 0.060829237 0.08322015 -0.12303051 -0.06822787 0.09966968 0.08187703
0.07360031 0.086452514 0.070271924 0.083850004 0.08009736 0.06567981 -0.07456123 0.12546496
-0.11007551 -0.08643604 -0.08977375 0.0854334 -0.06655283 -0.0852197 -0.116755694 -0.08141681
00000000: c8af 3f3d 6e7e 3fbc 49d4 793d b533 913c
00000010: 649d 09bc 0371 c7bd abfa 39bd cdf2 c7bd
00000020: 0f6b bc3d f302 183c 7fce 85bc af87 6f3c
00000030: 5317 23bc c0b4 a0bd ec2d eb3d 1ebe 3c3d
00000040: f559 bcbd cd32 dabb 73e3 edbc 385e 81bd
00000050: 4c15 6d3d fdcc e2bc f2af 333c 05e0 5dbd
00000060: e7ba 593d 6d6f c3bd a6c2 d6bd 6f96 dbbd
00000070: bc94 01bd 173f a3bb 93dc 7cbe a448 073b
00000080: c030 063d f7f6 003d 99fc 243d cd84 863d
00000090: 5d0f edbc d42f 343d 1d5c f23d d9b0 cbbd
000000a0: 60a3 edbd ed9e 3bbe 6e2c d2bd 4ee2 183e
000000b0: cc49 303d 8ff4 a3bc 2d85 6d3c 7dd8 cabc
000000c0: d8d3 803d af47 013e 0f29 b4bc b1ff 51bd
000000d0: 3587 0bbd bd1c 543d ac76 f7bc a37e b6bd
000000e0: 93a8 cebd 14e4 0bbc 3260 d9bd 497d 1e3e
000000f0: cde1 87bd a3df 42bd 4d01 1a3d 78bc 2e3c
00000100: e91d 66bd 824b 233d d08d e53c 8b7e 523d
00000110: 5229 c8bb 5b9b 073d de71 a9bc a739 a7bd
00000120: efd5 b93d 8a8b 17bc 9705 ec3b 5126 bf3c
00000130: 181f 88bd fdde 8dbd 10dc 253b 5b2e 123d
00000140: 5435 4d3d dbd4 10bd cfe3 1d3e 0ad9 4d3d
00000150: 7a46 c0bd 8dd7 a43b d563 8d3d 1211 863c
00000160: d3bc fabc a9aa 433d 42e2 9c3c 831a 4fba
00000170: 65b7 9c3c e12f 41bd 441a e2bd 6bb9 013e
00000180: 54dc d33c 8cd5 46be 292f c83d e56c 31be
00000190: cfcf 00be 751b bb3d 5e49 4a3d a567 02bd
000001a0: 4401 b53d dadb 95bc c23e 31bd 3466 71bc
000001b0: f5cf b4bd 5975 80bc cb5c 043e 145c a83b
000001c0: d0d3 473d 97b6 a3bc 4e7c e6bd 064a a33d
000001d0: 8ed3 adbc a9cd 2b3d 7ee2 233c 7de0 b43c
000001e0: 11f1 ad3b e338 86bc c9ec c7bb 3452 05be
000001f0: a034 af3d 642a 4e3d daf7 a1bd c242 893d
00000200: 7e87 d73d 78c7 b7bd 99b5 093e dc99 b73d
00000210: 4cd7 b1bd e1d6 5f3d 9d49 95bd 5494 cebd
00000220: 1c9a afbd fb95 bbbd 1d0b a5bd c8c5 243d
00000230: bd94 b2bc 5aae a9bd 8a8c 003e ade5 b4bd
00000240: e6cf c4bd d09d ba3d 00d7 91bd 3e3e f43c
00000250: 8f9d 0e3e 5510 ccbd dda8 c1bd 2e24 bdbd
00000260: 114e ce3d c5d3 c7bd 96c0 c33d c815 cabd
00000270: 3670 1d3c a4ef 97bd bad1 5cbc 893a db3d
00000280: 83aa ca3d 3edf 99bd a510 bb3d 3056 b93d
00000290: bde9 d5bd 1e4d 833d 803e a0bd 4b83 a53d
000002a0: ba4b a63d 3a11 ee3d 2b14 533d a228 f73d
000002b0: 881a 103d 453e a83d 8536 cc3d 163d 86bd
000002c0: e2ea 63bc 695b 8ebd 1962 963d d440 f63b
000002d0: fcb9 bc3b 8b65 06be f343 9b3d b695 f5bd
000002e0: dbb6 d2bd 2b11 62bd 1827 843d cd86 313e
000002f0: 9f4c fc3d 800c 86bb b59f dcbc ac4e b63d
00000300: e0ed c2bd 49d4 ddbc 30e4 efbd 72ec 15be
00000310: c44e ab3d 23e4 91bd 5497 933d 9120 5f3d
00000320: 75aa 953d 16ce 313d 65d5 04be 0d22 ad3d
00000330: 67a3 bfbd e4ee 533d 401c aa3d f308 983d
00000340: 9736 a8bd e0ad 583d 2820 bb3d 756b b33d
00000350: e494 c0bd b632 c5bd d8a2 2b3d 4596 2a3b
00000360: f6c5 b1bd d59c a23d bac6 ef3d 2517 3b3c
00000370: 5bf6 a5bd 0f2d a53d 196f 1f3e fa3e 4f3e
00000380: eff8 8ebd dd78 923d b558 a4bd 9a86 11be
00000390: 0f6d e7bc 2a10 8c3d 5a14 b83d 0ffc 913d
000003a0: 2121 69bd 1e93 293d 1428 793d 536f aa3d
000003b0: 6cf7 fbbd 0ebb 8bbd 9e1f cc3d 25af a73d
000003c0: c2bb 963d 040e b13d baea 8f3d 8db9 ab3d
000003d0: 160a a43d 2383 863d 8fb3 98bd e379 003e
000003e0: 456f e1bd 6105 b1bd 4ddb b7bd b5f7 ae3d
000003f0: da4c 88bd ab87 aebd 9c1d efbd dbbd a6bd

bias f4 [9]
0.031442527 0.091260284 -0.029024854 -0.09264955 0.023083331 -0.06071779 -0.09784917 0.06445321
0.0035374577
00000000: e1c9 003d ace6 ba3d 88c5 edbc 0cbf bdbd
00000010: 4119 bd3c 38b3 78bd 2565 c8bd 0b00 843d
00000020: b1d4 673b

weight f4 [1, 128]
0.07247141 -0.07116458 0.028282357 0.1343482 -0.05832515 -0.05278911 -0.09808533 -0.007891545
-0.011029131 -0.03819112 -0.040267788 0.09832687 -0.061559416 -0.11009189 0.06637468 0.00403722
-0.16825053 0.04247248 -0.06725894 0.036159284 0.027760392 -0.055963855 -0.018916547 -0.09708084
0.05547436 -0.23343752 -0.027076416 -0.07872924 0.009033337 -0.0633495 0.021067569 0.089010775
0.10280211 0.029464575 0.11749847 0.06782459 -0.098121345 0.046587706 0.1322737 -0.01590314
0.00038553477 -0.033487964 -0.019501474 0.1094028 0.12019688 -0.06589545 -0.01040214 -0.10365807
-0.08538961 0.06183588 0.017923245 -0.02345737 0.045194294 0.04152067 -0.04725364 -0.08194486
-0.05284961 -0.003885551 -0.1288374 0.045860995 -0.046404645 0.02227343 -0.06291924 0.028088652
0.0122074755 0.0509072 -0.043177698 0.015996912 0.036131576 0.084516935 0.04951127 -0.008517278
0.07162363 0.12814836 0.0017717851 0.104278475 -0.11593675 0.051760066 0.0832216 0.0696966
0.0064870943 -0.030004872 0.08280912 0.12712373 0.01648419 -0.031126287 0.10794222 -0.06963443
-0.080463655 0.11634964 0.03621604 -0.03764694 -0.05612724 -0.012214813 -0.036315426 -0.1023538
0.017395835 0.011216284 -0.005547697 -0.00153272 -0.040792838 0.103652395 0.14439893 0.099170506
-0.025096128 0.09671855 -0.01163386 0.05157092 0.01548751 -0.108611 0.033338375 0.031361796
0.10742649 0.04202493 -0.117389 0.19785418 0.04915333 -0.0023376963 -0.061674796 0.015030815
-0.07961431 -0.05107206 -0.05042615 -0.028546534 0.00016227887 0.03177972 -0.03241241 -0.03969937
00000000: e46b 943d bcbe 91bd 67b0 e73c 9392 093e
00000010: 5ae6 6ebd 6539 58bd f6e0 c8bd 8a4b 01bc
00000020: 87b3 34bc 4b6e 1cbd d6ef 24bd 995f c93d
00000030: ba25 7cbd db77 e1bd 73ef 873d a84a 843b
00000040: de49 2cbe a0f7 2d3d 0ebf 89bd c21b 143d
00000050: c369 e33c 5b3a 65bd e0f6 9abc 52d2 c6bd
00000060: 1539 633d 3f0a 6fbe 5ccf ddbc cc3c a1bd
00000070: 9000 143c 62bd 81bd e595 ac3c 484b b63d
00000080: ea89 d23d b15f f13c 0aa3 f03d 9ee7 8a3d
00000090: d8f3 c8bd c0d2 3e3d c272 073e 4d47 82bc
000000a0: 9a21 ca39 ad2a 09bd 8ec1 9fbc 930e e03d
000000b0: c829 f63d 32f4 86bd bd6d 2abc af4a d4bd
000000c0: bfe0 aebd 9f47 7d3d c5d3 923c ac29 c0bc
000000d0: a71d 393d 9411 2a3d 088d 41bd b5d2 a7bd
000000e0: d578 58bd baa4 7ebb f4ed 03be bdd8 3b3d
000000f0: cc12 3ebd c576 b63c cddb 80bd 2c1a e63c
00000100: dd01 483c 1184 503d 19db 30bd f50b 833c
00000110: b4fe 133d 3717 ad3d 54cc 4a3d 0e8c 0bbc
00000120: 69af 923d 5339 033e 3e3b e83a f48f d53d
00000130: 3f70 edbd 5d02 543d 1670 aa3d 17bd 8e3d
00000140: b191 d43b c7cc f5bc d497 a93d b92c 023e
00000150: da09 873c 8efc febc d010 dd3d 7f9c 8ebd
00000160: 21ca a4bd b848 ee3d 4557 143d ae33 1abd
00000170: ade5 65bd a420 48bc 7cbf 14bd de9e d1bd
00000180: b681 8e3c 81c4 373c 75c9 b5bb 8de5 c8ba
00000190: 6416 27bd b547 d43d 50dd 133e e819 cb3d
000001a0: 6596 cdbc 6014 c63d f29b 3ebc 073c 533d
000001b0: 53bf 7d3c 726f debd d28d 083d 3a75 003d
000001c0: 6b02 dc3d 5522 2c3d a569 f0bd 499a 4a3e
000001d0: 0155 493d 0934 19bb b69e 7cbd cf43 763c
000001e0: d40c a3bd f030 51bd a78b 4ebd 6cda e9bc
000001f0: 6729 2a39 742b 023d e0c2 04bd ce9b 22bd

weight_ih_l0 f4 [512, 128]
0.014979213 0.04308445 0.085640125 0.007996968 0.059090704 0.038337808 0.036118772 0.005321486
0.0047837216 -0.03864352 0.040106196 -0.030782502 0.03588692 0.07448978 0.0823872 0.11867936
0.12688302 0.09997291 0.048676487 -0.014008504 0.15030858 0.1306869 0.14422008 -0.023427349
0.10693266 0.06756457 0.14730422 0.04243879 0.109459065 0.040040247 -0.09243893 0.0528465
0.18049118 0.055089973 0.01929777 -0.07111852 0.17721815 0.08715607 -0.0356135 0.079913534
-0.05406053 0.009656434 0.13179101 -0.03689199 0.21047412 0.103781946 0.08416969 0.047360834
0.11750975 0.03418538 0.12263084 0.08477278 0.02613313 0.17033853 0.06084114 0.16449317
0.04781767 0.05817199 0.12818122 0.14971197 -0.026852239 0.04205246 0.007794207 0.01384325
0.14691272 0.04342245 0.016987808 -0.0565308 0.22567213 0.06667487 0.116360694 -0.0098285945
0.10347943 0.1068263 0.098951034 0.046482824 0.024841042 0.047236335 0.135553 0.07334096
0.028367894 -0.04215675 0.01036129 0.00346825 0.10334233 -0.03798561 0.107719265 0.13324296
0.012486012 0.16936319 0.13447875 0.05349386 -0.03392587 0.07922537 0.111062236 0.11453229
-0.025379553 0.20650713 0.029177483 0.12705483 0.061085615 -0.0632473 0.1453057 0.07218568
0.18496715 0.030650577 0.061295692 0.025988461 0.09729219 0.0715538 -0.015691893 0.062700026
0.009286699 0.06674711 -0.008936007 0.0013580768 -0.012086713 0.04662572 0.068053685 0.07974601
0.054447293 0.04034968 0.12170048 0.13922858 0.04661379 0.09272914 0.0711937 0.09310451
-0.016313566 -0.069094315 0.014224939 0.010192969 0.021603625 -0.03688827 0.055283733 -0.013370363
0.09524407 0.005273904 0.026297202 -0.006866748 0.006148232 -0.04416029 0.02979465 -0.008854865
-0.01594673 0.020854365 0.06642464 -0.044040408 -0.029687135 -0.013646592 0.0132562695 -0.02301168
0.023430267 0.020394472 0.010341666 -0.13048245 -0.069102176 -0.04356563 -0.06265684 0.040034976
-0.051566556 -0.03754986 0.010354778 0.011934821 0.018562991 -0.034610353 -0.025061695 -0.013111447
0.033156734 -0.08447483 -0.04715919 0.12474615 -0.10790372 0.15684415 0.057826046 -0.009246809
-0.097259186 0.113678396 -0.02381568 0.019781379 -0.03710935 0.059754785 -0.061482895 -0.075189166
0.10587512 -0.024565596 0.02375654 -0.016873728 -0.040497903 -0.049643077 -0.013240945 0.105324246
-0.05502101 -0.031180505 0.08582427 0.0065191044 0.010589865 -0.045690227 -0.025513051 0.100662336
0.01992149 -0.10907733 -0.036297217 -0.00057169294 0.044951066 0.00414583 -0.033445902 -0.1521812
-0.06698758 0.0018110073 0.009820287 0.06698706 -0.019839648 -0.070560075 0.010127033 0.024066579
-0.10897916 -0.02137049 -0.06810666 -0.008745674 0.026743112 0.019590454 -0.02496158 -0.1471678
-0.04975709 -0.03166183 -0.09030331 0.0031718796 0.04915175 0.07575546 -0.0029072342 -0.069130614
0.07047157 -0.067905426 -0.08797141 0.04695188 -0.024554495 0.010210968 0.024220405 0.07552413
-0.06175222 0.041126296 -0.013826941 -0.059245262 0.008030162 -0.08657358 0.03872228 -0.04757094
0.024706462 0.049887605 -0.064833224 0.012610042 0.061357565 -0.002814519 -0.0047332454 0.020879047
00000000: 5f6b 753c 5279 303d 1764 af3d b705 033c
00000010: 1809 723d 1b08 1d3d 47f1 133d dc5f ae3b
00000020: c4c0 9c3b ab48 1ebd 6546 243d 962b fcbc
00000030: 2afe 123d 198e 983d 9fba a83d 2a0e f33d
00000040: 9fed 013e 99be cc3d ff60 473d ed83 65bc
00000050: 7eea 193e c9d2 053e 6eae 133e b6ea bfbc
00000060: 83ff da3d 4b5f 8a3d ebd6 163e 4cd4 2d3d
00000070: 132c e03d 3e01 243d 9f50 bdbd 9275 583d
00000080: aed2 383e 06a6 613d 5b16 9e3c 96a6 91bd
00000090: ad78 353e e27e b23d 76df 11bd b5a9 a33d
000000a0: 936e 5dbd 0536 1e3c 39f4 063e 0e1c 17bd
000000b0: 8786 573e a18b d43d 2961 ac3d 6ffd 413d
000000c0: f4a8 f03d f805 0c3d e125 fb3d 5a9d ad3d
000000d0: 2515 d63c 396d 2e3e 8f34 793d e670 283e
000000e0: 76dc 433d c145 6e3d f041 033e 184e 193e
000000f0: 3af9 dbbc 333f 2c3d 8c66 ff3b cdce 623c
00000100: 4a70 163e bddb 313d 042a 8b3c d78c 67bd
00000110: 9816 673e d68c 883d 844e ee3d 1d08 21bc
00000120: 06ed d33d bfc7 da3d d7a6 ca3d c664 3e3d
00000130: 717f cb3c e37a 413d 68ce 0a3e c933 963d
00000140: c963 e83c 8eac 2cbd 66c2 293c 944b 633b
00000150: 25a5 d33d cd96 1bbd eb9b dc3d d870 083e
00000160: 2192 4c3c 8b6d 2d3e ccb4 093e 611c 5b3d
00000170: daf5 0abd e940 a23d 9974 e33d e88f ea3d
00000180: c8e8 cfbc 9b76 533e 9e05 ef3c a91a 023e
00000190: e934 7a3d cd87 81bd 04cb 143e 16d6 933d
000001a0: 0768 3d3e eb16 fb3c 3111 7b3d c1e5 d43c
000001b0: 2141 c73d cc8a 923d 498c 80bc df68 803d
000001c0: 3d27 183c b5b2 883d 5468 12bc 7f01 b23a
000001d0: 5907 46bc 9cfa 3e3d bb5f 8b3d e051 a33d
000001e0: 2004 5f3d b545 253d 1a3e f93d f091 0e3e
000001f0: 1aee 3e3d c6e8 bd3d 01ce 913d 94ad be3d
00000200: 07a4 85bc 5281 8dbd b80f 693c 6900 273c
00000210: 16fa b03c 2818 17bd 3271 623d 5e0f 5bbc
00000220: 530f c33d b7d0 ac3b 3b6d d73c 7502 e1bb
00000230: 1c77 c93b 6ce1 34bd e913 f43c ff13 11bc
00000240: b7a2 82bc c6d6 aa3c a409 883d b763 34bd
00000250: 6f32 f3bc f595 5fbc d330 593c fe82 bcbc
00000260: d5f0 bf3c 4f12 a73c 1770 293c 319d 05be
00000270: 7185 8dbd e071 32bd 3b52 80bd b7fb 233d
00000280: 7437 53bd e2cd 19bd 16a7 293c 448a 433c
00000290: 6a11 983c 96c3 0dbd 2f4e cdbc 65d1 56bc
000002a0: 5bcf 073d 2401 adbd ff29 41bd e97a ff3d
000002b0: a0fc dcbd c19b 203e 01db 6c3d ee7f 17bc
000002c0: d32f c7bd 38d0 e83d 1a19 c3bc 8f0c a23c
000002d0: f9ff 17bd 6fc1 743d 7dd5 7bbd c7fc 99bd
000002e0: 0ed5 d83d ca3d c9bc 139d c23c c63a 8abc
000002f0: 21e1 25bd 8a56 4bbd 8cf0 58bc 3db4 d73d
00000300: b65d 61bd 426e ffbc a3c4 af3d 369e d53b
00000310: 1d81 2d3c ad25 3bbd bf00 d1bc 0e28 ce3d
00000320: 6532 a33c ef63 dfbd 64ac 14bd aadd 15ba
00000330: 9c1e 383d bed9 873b 92fe 08bd 63d5 1bbe
00000340: c930 89bd 525f ed3a 45e5 203c 8330 893d
00000350: c286 a2bc cd81 90bd dbeb 253c 4627 c53c
00000360: 7730 dfbd 2a11 afbc 817b 8bbd 044a 0fbc
00000370: 5f14 db3c 297c a03c 3a7c ccbc 28b3 16be
00000380: 17ce 4bbd d6af 01bd f1f0 b8bd 4fdf 4f3b
00000390: 5853 493d ae25 9b3d 4c87 3ebb 5a94 8dbd
000003a0: 6653 903d 0012 8bbd 5b2a b4bd 9d50 403d
000003b0: 8226 c9bc e74b 273c df69 c63c 65ac 9a3d
000003c0: e5ef 7cbd 0c74 283d 658a 62bc 29ab 72bd
000003d0: f190 033c 7d4d b1bd 419b 1e3d bfd9 42bd
000003e0: 3565 ca3c f256 4c3d 48c7 84bd 599a 4e3c
000003f0: 1252 7b3d cb73 38bb 5719 9bbb 890a ab3c

weight_hh_l0 f4 [512, 128]
-0.03447658 0.02095704 0.07825034 -0.038067687 0.0081591485 -0.04788002 -0.10625039 -0.005934819
-0.026987886 -0.088348046 -0.04584914 -0.018644636 -0.07317805 -0.003941184 0.05034733 -0.039567944
0.009966672 0.12133674 -0.04376982 0.04022967 0.03513159 -0.033348847 -0.03304673 -0.088725604
-0.02479816 -0.06369243 -0.0051866565 -0.03658406 -0.05367911 -0.009084979 0.021567378 -0.020623595
0.03427019 0.030551469 0.054361105 -0.036453623 -0.042588346 0.10344494 0.05049408 -0.10479784
-0.019843495 -0.06556245 -0.047568537 -0.039897576 0.07562201 0.08474819 -0.019471593 0.0062745577
-0.0062165945 -0.010962979 0.06174083 -0.05320123 0.04740601 -0.058469746 0.0037083637 -0.10496003
0.03128765 -0.056513816 0.014574369 -0.05057472 -0.056089405 -0.056281935 -0.0924984 0.10265749
0.064535834 0.012897042 -0.0031540503 0.063122384 0.0023512756 -0.044967156 0.14090161 -0.014345452
-0.013090117 0.0510341 -0.13021097 0.17054012 -0.019004125 0.008222775 -0.0052131596 0.018939871
-0.11337882 -0.048931606 -0.0003145768 -0.013690973 -0.0587419 -0.028609741 -0.03379344 -0.05158603
-0.09095921 0.09620801 0.03989598 -0.03527709 -0.08086739 0.105398096 0.02166639 -0.012106559
0.024175819 0.07068968 0.027986342 0.031358756 -0.027228536 0.120715894 0.00055780116 0.013586
0.04623527 -0.020117199 -0.0024658402 -0.030775568 6.419856e-05 -0.14631516 0.026946666 0.007316961
-0.0335966 0.027010992 -0.020968867 0.0051482376 0.1754823 -0.004784998 -0.13313282 0.102821596
0.041801505 -0.07538247 -0.040640444 -0.020895235 -0.11564181 -0.068433814 -0.05034435 -0.06387749
-0.006017137 0.04613245 0.04472092 0.053836614 -0.02575404 0.021775644 -0.024197223 -0.033015117
-0.06009161 -0.09137077 -0.058727745 0.057309344 0.0063883094 0.05662446 0.055536874 0.005286514
0.1346862 0.013980465 -0.02124217 -0.10188007 -0.06930362 0.023373565 0.0029275138 -0.024929976
-0.021020968 0.07745649 0.039116636 -0.059174135 0.015754037 0.032908842 -0.06385898 -0.07489926
-0.06577583 0.007468269 -0.045520306 -0.025864137 -0.0169928 -0.030981394 -0.018039795 0.04342377
0.0066453605 -0.035326134 0.043389805 0.08679934 0.01656737 0.07676818 0.039442345 0.021558976
0.002685808 -0.057082318 0.0037480139 -0.007203868 -0.0015270244 -0.041762676 -0.0071221255 0.06390031
-0.090430744 0.01470421 0.067450136 -0.024575368 0.0955316 0.08101492 -0.0041787606 -0.072192885
-0.01219497 -0.005919075 0.044320837 -0.122807354 -0.026066057 -0.04384596 0.0159868 0.038546957
-0.045614745 -0.0025261329 -0.057324514 -0.07512806 0.05831016 -0.08028428 -0.01330153 -0.07355635
-0.016487215 0.009975218 -0.12711999 -0.042202573 -0.10160748 0.0031706037 -0.038383435 0.042425178
0.04481219 -0.04839927 -0.03690003 -0.0029254637 -0.0057155946 -0.06116821 0.076000296 0.12804933
-0.07551287 0.08042374 -0.03873191 0.042976044 0.0070351283 -0.08977956 -0.09955636 -0.0029092634
0.030078085 0.021935044 -0.08924032 0.027597021 0.005331732 0.05139144 -0.008262475 -0.022562372
-0.04561128 0.01846831 0.042349257 -0.020028206 -0.009233972 0.048450787 0.016739367 0.020350436
-0.0431943 0.007775049 -0.040129 0.10476417 0.050595324 -0.0012921308 0.04671394 -0.079684064
00000000: 5037 0dbd 19ae ab3c b741 a03d ddec 1bbd
00000010: f3ad 053c d71d 44bd ce99 d9bd df78 c2bb
00000020: b315 ddbc d2ef b4bd 4fcc 3bbd a3bc 98bc
00000030: 60de 95bd 0c25 81bb 0039 4e3d ff11 22bd
00000040: 414b 233c 667f f83d fc47 33bd dec7 243d
00000050: 24e6 0f3d cd98 08bd 025c 07bd c5b5 b5bd
00000060: 8325 cbbc 2d71 82bd d4f4 a9bb 2bd9 15bd
00000070: a0de 5bbd 2ad9 14bc 12ae b03c d0f2 a8bc
00000080: e65e 0c3d 1347 fa3c c0a9 5e3d 6550 15bd
00000090: 1e71 2ebd f1da d33d e1d2 4e3d 40a0 d6bd
000000a0: d38e a2bc 9b45 86bd 3ad7 42bd a46b 23bd
000000b0: b6df 9a3d 7690 ad3d e482 9fbc ce9a cd3b
000000c0: 93b4 cbbb 119e 33bc f4e3 7c3d 88e9 59bd
000000d0: ce2c 423d f97d 6fbd 0508 733b 49f5 d6bd
000000e0: 7b27 003d 087b 67bd 56c9 6e3c 7027 4fbd
000000f0: 01be 65bd e387 66bd cd6f bdbd 173e d23d
00000100: 5d2b 843d 1d4e 533c 2fb4 4ebb 4f46 813d
00000110: dc17 1a3b 7b2f 38bd 8348 103e 3009 6bbc
00000120: ee77 56bc 2209 513d 0656 05be 12a2 2e3e
00000130: 8aae 9bbc d1b8 063c 27d3 aabb ca27 9b3c
00000140: 2833 e8bd 826c 48bd c9ed a4b9 1a50 60bc
00000150: 599b 70bd fa5e eabc fd6a 0abd df4b 53bd
00000160: d348 babd b508 c53d f869 233d b67e 10bd
00000170: cd9d a5bd f5da d73d b77d b13c 975a 46bc
00000180: 5e0c c63c c0c5 903d 9d43 e53c 0a72 003d
00000190: 610e dfbc e539 f73d 6739 123a d097 5e3c
000001a0: 3261 3d3d d3cc a4bc ef99 21bb 0b1d fcbc
000001b0: 57a2 8638 a4d3 15be 41bf dc3c 1ec3 ef3b
000001c0: 979c 09bd 2846 dd3c e7c6 abbc 8cb2 a83b
000001d0: a2b1 333e 79cb 9cbb f853 08be 2194 d23d
000001e0: 0e38 2b3d 2062 9abd 9876 26bd 7c2c abbc
000001f0: 9dd5 ecbd 0727 8cbd e135 4ebd 34d2 82bd
00000200: 672b c5bb 61f5 3c3d 492d 373d c883 5c3d
00000210: 23fa d2bc d662 b23c 4139 c6bc dc3a 07bd
00000220: 9f22 76bd 9920 bbbd 818c 70bd 34bd 6a3d
00000230: 0655 d13b 0def 673d a27a 633d 7e3a ad3b
00000240: 2eeb 093e 520e 653c 0f04 aebc 80a6 d0bd
00000250: 0eef 8dbd eb79 bf3c 88db 3f3b f339 ccbc
00000260: 2a34 acbc 82a1 9e3d c438 203d 9460 72bd
00000270: 9c0e 813c 6ccb 063d 7fc8 82bd c964 99bd
00000280: 7ab5 86bd 62b8 f43b 8073 3abd 07e1 d3bc
00000290: 7c34 8bbc b1cc fdbc 31c8 93bc 20dd 313d
000002a0: 53c1 d93b 23b2 10bd 82b9 313d dac3 b13d
000002b0: 4bb8 873c a338 9d3d 4c8e 213d 739c b03c
000002c0: 6204 303b 26cf 69bd 3da1 753b 6d0e ecbb
000002d0: 7026 c8ba 570f 2bbd b860 e9bb 2ade 823d
000002e0: c133 b9bd ede9 703c 4c23 8a3d 4852 c9bc
000002f0: 12a6 c33d 26eb a53d fced 88bb ddd9 93bd
00000300: 69cd 47bc cdf4 c1bb c489 353d 6c82 fbbd
00000310: 7c88 d5bc d297 33bd c0f6 823c 6ae3 1d3d
00000320: 87d6 3abd 7a8d 25bb 1ccd 6abd bedc 99bd
00000330: a2d6 6e3d 166c a4bd a9ee 59bc b6a4 96bd
00000340: 3210 87bc 196f 233c be2b 02be 9bdc 2cbd
00000350: 9517 d0bd e7c9 4f3b f337 1dbd 06c6 2d3d
00000360: fd8c 373d 503e 46bd 7c24 17bd 23b9 3fbb
00000370: e249 bbbb 848b 7abd 0ba6 9b3d 5d1f 033e
00000380: 7ea6 9abd 34b5 a43d 5aa5 1ebd a607 303d
00000390: ef86 e63b 59de b7bd 34e4 cbbd 57a9 3ebb
000003a0: 5166 f63c 1fb1 b33c a1c3 b6bd 2613 e23c
000003b0: cfb5 ae3b d57f 523d 555f 07bc b9d4 b8bc
000003c0: e5d2 3abd da4a 973c 6a76 2d3d 3112 a4bc
000003d0: 164a 17bc 5574 463d ff20 893c f5b5 a63c
000003e0: 82ec 30bd d7c5 fe3b 4e5e 24bd 998e d63d
000003f0: 0b3d 4f3d b75c a9ba 1e57 3f3d 6631 a3bd

bias_ih_l0 f4 [512]
0.16388443 0.012488106 0.10758362 0.0035285433 0.03657125 0.0033290405 0.0644515 0.19122042
0.17125104 0.031354032 0.017576635 0.031385265 0.061733592 0.052793194 0.0832881 0.062103216
0.096754864 0.046370342 0.016258072 0.16518602 0.079056405 0.031514734 0.12421617 0.06313064
0.09214907 0.091384254 0.033887856 0.11478683 0.07610325 0.04980899 0.14097227 0.036507193
0.06775783 -0.019387096 0.05717822 0.041206118 0.06715895 0.114188336 0.0632894 0.06216625
0.063408546 0.068048224 0.04224444 0.07804848 0.031394396 -0.001638007 0.082391776 0.07175409
0.018945012 0.034409437 0.0066497 0.096627064 0.059713475 0.10878476 0.02189897 0.124836616
0.10747017 0.12600304 0.012221117 0.040537003 0.116530016 0.14163546 0.029619744 0.035815757
0.029775389 0.0919821 0.0935077 0.12097749 0.0021397695 -0.017692717 0.0017674903 0.05302998
0.05387911 0.18147998 0.071602896 0.058507748 0.069855 0.11093654 0.00043676235 0.01960281
0.02022573 0.085300654 0.058939837 0.011749187 0.16360655 0.0149558615 0.06463987 0.12613381
0.07326422 0.049927168 0.07283972 0.064226225 0.026639935 -0.02625704 0.06974464 0.13943376
0.020025337 0.15960592 0.058268823 0.08619611 0.21159458 0.05195576 0.056877792 0.119957924
0.12998793 0.063385285 0.15930599 0.0059237983 0.0584958 -0.003864655 0.082322866 -0.0010410635
0.13113756 0.033290137 0.03767008 0.028524892 0.022282664 0.14888477 0.015297676 0.13147573
0.04381008 0.08971927 0.06221217 0.072892986 0.010752219 0.00807218 0.06419771 0.03581389
-0.015171873 -0.0046143443 -0.036369447 0.01926162 0.024988273 -0.06177297 -0.00699493 -0.06169749
-0.07336272 0.010180627 -0.028153935 0.03523984 -0.0031557365 -0.0069924123 -0.041892506 -0.048399862
-0.0055591813 0.011306648 -0.02401142 -0.057482116 -0.055192806 -0.024968738 -0.026733952 -0.037907522
4.817642e-05 -0.008490541 -0.064077206 -0.059013344 -0.06615563 -0.007703612 -0.083195806 -0.046407644
-0.008512294 -0.032926206 -0.005086354 -0.06077983 -0.010224441 -0.051644493 -0.03491472 -0.04796109
-0.07435443 -0.06975449 -0.01181359 -0.05326077 -0.0041305837 -0.04390526 -0.023240326 -0.0012131771
-0.030304333 -0.048331715 -0.029226057 0.028588144 -0.031957697 -0.060853772 -0.03511174 -0.0007706269
-0.039414324 -0.039520755 -0.05781127 -0.057113625 -0.046276428 -0.061800577 -0.053691432 -0.017906437
-0.05970847 0.022427151 -0.014096758 -0.031855203 -0.028104791 -0.038278807 -0.019105984 -0.052130025
-0.040566716 -0.026166093 -0.08025467 -0.0020538706 0.0023910364 -0.068142116 -0.0002709332 -0.035284452
-0.026898457 0.041733053 -0.05154019 -0.037391722 -0.06692756 -0.021885421 0.0022221701 -0.031259883
-0.009629385 -0.0100499075 -0.045999005 0.03342319 0.011488483 -0.03113362 -0.077832624 -0.09550071
0.0045113573 -0.061895832 -0.051142633 -0.07564897 -0.052783377 -0.020042388 -0.025405636 -0.026931161
-0.01335565 0.016166018 -6.1820165e-06 -0.0076266266 -0.0475628 0.078863695 -0.053972825 -0.02622402
-0.027761562 -0.023623912 -0.07038062 -0.013919704 -0.009385048 -0.026892759 -0.0011047105 -0.039097115
-0.016696949 4.0290408e-05 0.015995601 -0.0725284 0.003807418 0.035868283 -0.05696778 -0.037094336
00000000: 52d1 273e ea9a 4c3c cd54 dc3d 223f 673b
00000010: bccb 153d 082c 5a3b 26ff 833d 49cf 433e
00000020: 6f5c 2f3e 166d 003d e0fc 8f3c d68d 003d
00000030: 5ddc 7c3d ad3d 583d f492 aa3d f15f 7e3d
00000040: 6a27 c63d d4ee 3d3d a62f 853c 8626 293e
00000050: 53e8 a13d 9815 013d 0c65 fe3d a34a 813d
00000060: a7b8 bc3d ab27 bb3d fecd 0a3d 5c15 eb3d
00000070: 05dc 9b3d 8304 4c3d 095b 103e 9188 153d
00000080: 9ec4 8a3d b0d1 9ebc b633 6a3d bfc7 283d
00000090: a28a 893d 93db e93d df9d 813d 0aa2 7e3d
000000a0: 57dc 813d de5c 8b3d 8208 2d3d e2d7 9f3d
000000b0: 6997 003d 65b2 d6ba 05bd a83d cff3 923d
000000c0: 9232 9b3c e9f0 0c3d bae5 d93b 69e4 c53d
000000d0: 1e96 743d 8bca de3d 7865 b33c 57aa ff3d
000000e0: 5219 dc3d f106 013e 143b 483c 210a 263d
000000f0: 4aa7 ee3d e308 113e 1ba5 f23c 8bb3 123d
00000100: 84eb f33c 1c61 bc3d f780 bf3d 0cc3 f73d
00000110: 603b 0c3b 51f0 90bc 22ab e73a f735 593d
00000120: 57b0 5c3d e3d5 393e 8aa4 923d d2a5 6f3d
00000130: 2310 8f3d b232 e33d 40fd e439 1296 a03c
00000140: 6eb0 a53c 1cb2 ae3d e66a 713d a97f 403c
00000150: 7a88 273e 6e09 753c e861 843d 3929 013e
00000160: 8d0b 963d 6e80 4c3d fe2c 953d 0a89 833d
00000170: fe3b da3c 0119 d7bc 47d6 8e3d b9c7 0e3e
00000180: 2d0c a43c bc6f 233e 4aab 6e3d 9687 b03d
00000190: 40ac 583e 90cf 543d b0f8 683d 80ac f53d
000001a0: 8e1b 053e 25d0 813d 1c21 233e 6c1c c23b
000001b0: 4b99 6f3d 2746 7dbb e498 a83d 4b74 88ba
000001c0: ed48 063e 3d5b 083d f14b 1a3d 09ad e93c
000001d0: 228a b63c 4075 183e 1ba3 7a3c 93a1 063e
000001e0: 3372 333d bdbe b73d 30d2 7e3d eb48 953d
000001f0: 132a 303c 2d41 043c 177a 833d 96b1 123d
00000200: 7393 78bc ed33 97bb 21f8 14bd 8bca 9d3c
00000210: 35b4 cc3c a705 7dbd ba35 e5bb 82b6 7cbd
00000220: 323f 96bd a5cc 263c 15a3 e6bc a757 103d
00000230: 79d0 4ebb 9b20 e5bb 7a97 2bbd ef3e 46bd
00000240: cb29 b6bb 853f 393c 99b3 c4bc 5e72 6bbd
00000250: da11 62bd 3d8b ccbc 2901 dbbc eb44 1bbd
00000260: 0911 4a38 e91b 0bbc e93a 83bd fab7 71bd
00000270: 9a7c 87bd 956e fcbb 9062 aabd f115 3ebd
00000280: 2677 0bbc a1dd 06bd 6eab a6bb 45f4 78bd
00000290: 6a84 27bc 2d89 53bd bd02 0fbd d972 44bd
000002a0: 2347 98bd 71db 8ebd ca8d 41bc f727 5abd
000002b0: d959 87bb 00d6 33bd 7f62 bebc 7803 9fba
000002c0: cb40 f8bc 7af7 45bd 7c6b efbc af31 ea3c
000002d0: 13e6 02bd ce41 79bd 54d1 0fbd e503 4aba
000002e0: ea70 21bd 84e0 21bd 83cb 6cbd faef 69bd
000002f0: 5a8c 3dbd 9a22 7dbd 8ceb 5bbd 85b0 92bc
00000300: de90 74bd 25b9 b73c 17f6 66bc 9a7a 02bd
00000310: 053c e6bc 3dca 1cbd 2784 9cbc 4b86 55bd
00000320: 4929 26bd 465a d6bc 8f5c a4bd 3b9a 06bb
00000330: efb2 1c3b 188e 8bbd 0a0c 8eb9 6e86 10bd
00000340: 275a dcbc 47f0 2a3d ce1b 53bd 1028 19bd
00000350: 5111 89bd 0e49 b3bc d4a1 113b 5d0a 00bd
00000360: 91c4 1dbc 5ea8 24bc 7469 3cbd c1e6 083d
00000370: 313a 3c3c ef0b ffbc b666 9fbd e095 c3bd
00000380: 02d4 933b 7c86 7dbd f07a 51bd d9ed 9abd
00000390: 6233 58bd ef2f a4bc 7b1f d0bc bd9e dcbc
000003a0: a8d1 5abc 996e 843c 1e6f cfb6 c8e8 f9bb
000003b0: 36d1 42bd 4a83 a13d 9c12 5dbd c2d3 d6bc
000003c0: 376c e3bc ef86 c1bc b723 90bd 780f 64bc
000003d0: bfc3 19bc 344e dcbc efcb 90ba 4c24 20bd
000003e0: 0ac8 88bc 7ffd 2838 3509 833c c589 94bd
000003f0: e085 793b 9fea 123d 0c57 69bd 3bf0 17bd

bias_hh_l0 f4 [512]
0.16388443 0.012488106 0.10758362 0.0035285433 0.03657125 0.0033290405 0.0644515 0.19122042
0.17125104 0.031354032 0.017576635 0.031385265 0.061733592 0.052793194 0.0832881 0.062103216
0.096754864 0.046370342 0.016258072 0.16518602 0.079056405 0.031514734 0.12421617 0.06313064
0.09214907 0.091384254 0.033887856 0.11478683 0.07610325 0.04980899 0.14097227 0.036507193
0.06775783 -0.019387096 0.05717822 0.041206118 0.06715895 0.114188336 0.0632894 0.06216625
0.063408546 0.068048224 0.04224444 0.07804848 0.031394396 -0.001638007 0.082391776 0.07175409
0.018945012 0.034409437 0.0066497 0.096627064 0.059713475 0.10878476 0.02189897 0.124836616
0.10747017 0.12600304 0.012221117 0.040537003 0.116530016 0.14163546 0.029619744 0.035815757
0.029775389 0.0919821 0.0935077 0.12097749 0.0021397695 -0.017692717 0.0017674903 0.05302998
0.05387911 0.18147998 0.071602896 0.058507748 0.069855 0.11093654 0.00043676235 0.01960281
0.02022573 0.085300654 0.058939837 0.011749187 0.16360655 0.0149558615 0.06463987 0.12613381
0.07326422 0.049927168 0.07283972 0.064226225 0.026639935 -0.02625704 0.06974464 0.13943376
0.020025337 0.15960592 0.058268823 0.08619611 0.21159458 0.05195576 0.056877792 0.119957924
0.12998793 0.063385285 0.15930599 0.0059237983 0.0584958 -0.003864655 0.082322866 -0.0010410635
0.13113756 0.033290137 0.03767008 0.028524892 0.022282664 0.14888477 0.015297676 0.13147573
0.04381008 0.08971927 0.06221217 0.072892986 0.010752219 0.00807218 0.06419771 0.03581389
-0.015171873 -0.0046143443 -0.036369447 0.01926162 0.024988273 -0.06177297 -0.00699493 -0.06169749
-0.07336272 0.010180627 -0.028153935 0.03523984 -0.0031557365 -0.0069924123 -0.041892506 -0.048399862
-0.0055591813 0.011306648 -0.02401142 -0.057482116 -0.055192806 -0.024968738 -0.026733952 -0.037907522
4.817642e-05 -0.008490541 -0.064077206 -0.059013344 -0.06615563 -0.007703612 -0.083195806 -0.046407644
-0.008512294 -0.032926206 -0.005086354 -0.06077983 -0.010224441 -0.051644493 -0.03491472 -0.04796109
-0.07435443 -0.06975449 -0.01181359 -0.05326077 -0.0041305837 -0.04390526 -0.023240326 -0.0012131771
-0.030304333 -0.048331715 -0.029226057 0.028588144 -0.031957697 -0.060853772 -0.03511174 -0.0007706269
-0.039414324 -0.039520755 -0.05781127 -0.057113625 -0.046276428 -0.061800577 -0.053691432 -0.017906437
-0.05970847 0.022427151 -0.014096758 -0.031855203 -0.028104791 -0.038278807 -0.019105984 -0.052130025
-0.040566716 -0.026166093 -0.08025467 -0.0020538706 0.0023910364 -0.068142116 -0.0002709332 -0.035284452
-0.026898457 0.041733053 -0.05154019 -0.037391722 -0.06692756 -0.021885421 0.0022221701 -0.031259883
-0.009629385 -0.0100499075 -0.045999005 0.03342319 0.011488483 -0.03113362 -0.077832624 -0.09550071
0.0045113573 -0.061895832 -0.051142633 -0.07564897 -0.052783377 -0.020042388 -0.025405636 -0.026931161
-0.01335565 0.016166018 -6.1820165e-06 -0.0076266266 -0.0475628 0.078863695 -0.053972825 -0.02622402
-0.027761562 -0.023623912 -0.07038062 -0.013919704 -0.009385048 -0.026892759 -0.0011047105 -0.039097115
-0.016696949 4.0290408e-05 0.015995601 -0.0725284 0.003807418 0.035868283 -0.05696778 -0.037094336
00000000: 52d1 273e ea9a 4c3c cd54 dc3d 223f 673b
00000010: bccb 153d 082c 5a3b 26ff 833d 49cf 433e
00000020: 6f5c 2f3e 166d 003d e0fc 8f3c d68d 003d
00000030: 5ddc 7c3d ad3d 583d f492 aa3d f15f 7e3d
00000040: 6a27 c63d d4ee 3d3d a62f 853c 8626 293e
00000050: 53e8 a13d 9815 013d 0c65 fe3d a34a 813d
00000060: a7b8 bc3d ab27 bb3d fecd 0a3d 5c15 eb3d
00000070: 05dc 9b3d 8304 4c3d 095b 103e 9188 153d
00000080: 9ec4 8a3d b0d1 9ebc b633 6a3d bfc7 283d
00000090: a28a 893d 93db e93d df9d 813d 0aa2 7e3d
000000a0: 57dc 813d de5c 8b3d 8208 2d3d e2d7 9f3d
000000b0: 6997 003d 65b2 d6ba 05bd a83d cff3 923d
000000c0: 9232 9b3c e9f0 0c3d bae5 d93b 69e4 c53d
000000d0: 1e96 743d 8bca de3d 7865 b33c 57aa ff3d
000000e0: 5219 dc3d f106 013e 143b 483c 210a 263d
000000f0: 4aa7 ee3d e308 113e 1ba5 f23c 8bb3 123d
00000100: 84eb f33c 1c61 bc3d f780 bf3d 0cc3 f73d
00000110: 603b 0c3b 51f0 90bc 22ab e73a f735 593d
00000120: 57b0 5c3d e3d5 393e 8aa4 923d d2a5 6f3d
00000130: 2310 8f3d b232 e33d 40fd e439 1296 a03c
00000140: 6eb0 a53c 1cb2 ae3d e66a 713d a97f 403c
00000150: 7a88 273e 6e09 753c e861 843d 3929 013e
00000160: 8d0b 963d 6e80 4c3d fe2c 953d 0a89 833d
00000170: fe3b da3c 0119 d7bc 47d6 8e3d b9c7 0e3e
00000180: 2d0c a43c bc6f 233e 4aab 6e3d 9687 b03d
00000190: 40ac 583e 90cf 543d b0f8 683d 80ac f53d
000001a0: 8e1b 053e 25d0 813d 1c21 233e 6c1c c23b
000001b0: 4b99 6f3d 2746 7dbb e498 a83d 4b74 88ba
000001c0: ed48 063e 3d5b 083d f14b 1a3d 09ad e93c
000001d0: 228a b63c 4075 183e 1ba3 7a3c 93a1 063e
000001e0: 3372 333d bdbe b73d 30d2 7e3d eb48 953d
000001f0: 132a 303c 2d41 043c 177a 833d 96b1 123d
00000200: 7393 78bc ed33 97bb 21f8 14bd 8bca 9d3c
00000210: 35b4 cc3c a705 7dbd ba35 e5bb 82b6 7cbd
00000220: 323f 96bd a5cc 263c 15a3 e6bc a757 103d
00000230: 79d0 4ebb 9b20 e5bb 7a97 2bbd ef3e 46bd
00000240: cb29 b6bb 853f 393c 99b3 c4bc 5e72 6bbd
00000250: da11 62bd 3d8b ccbc 2901 dbbc eb44 1bbd
00000260: 0911 4a38 e91b 0bbc e93a 83bd fab7 71bd
00000270: 9a7c 87bd 956e fcbb 9062 aabd f115 3ebd
00000280: 2677 0bbc a1dd 06bd 6eab a6bb 45f4 78bd
00000290: 6a84 27bc 2d89 53bd bd02 0fbd d972 44bd
000002a0: 2347 98bd 71db 8ebd ca8d 41bc f727 5abd
000002b0: d959 87bb 00d6 33bd 7f62 bebc 7803 9fba
000002c0: cb40 f8bc 7af7 45bd 7c6b efbc af31 ea3c
000002d0: 13e6 02bd ce41 79bd 54d1 0fbd e503 4aba
000002e0: ea70 21bd 84e0 21bd 83cb 6cbd faef 69bd
000002f0: 5a8c 3dbd 9a22 7dbd 8ceb 5bbd 85b0 92bc
00000300: de90 74bd 25b9 b73c 17f6 66bc 9a7a 02bd
00000310: 053c e6bc 3dca 1cbd 2784 9cbc 4b86 55bd
00000320: 4929 26bd 465a d6bc 8f5c a4bd 3b9a 06bb
00000330: efb2 1c3b 188e 8bbd 0a0c 8eb9 6e86 10bd
00000340: 275a dcbc 47f0 2a3d ce1b 53bd 1028 19bd
00000350: 5111 89bd 0e49 b3bc d4a1 113b 5d0a 00bd
00000360: 91c4 1dbc 5ea8 24bc 7469 3cbd c1e6 083d
00000370: 313a 3c3c ef0b ffbc b666 9fbd e095 c3bd
00000380: 02d4 933b 7c86 7dbd f07a 51bd d9ed 9abd
00000390: 6233 58bd ef2f a4bc 7b1f d0bc bd9e dcbc
000003a0: a8d1 5abc 996e 843c 1e6f cfb6 c8e8 f9bb
000003b0: 36d1 42bd 4a83 a13d 9c12 5dbd c2d3 d6bc
000003c0: 376c e3bc ef86 c1bc b723 90bd 780f 64bc
000003d0: bfc3 19bc 344e dcbc efcb 90ba 4c24 20bd
000003e0: 0ac8 88bc 7ffd 2838 3509 833c c589 94bd
000003f0: e085 793b 9fea 123d 0c57 69bd 3bf0 17bd
