pufferlib/environments/ocean/puffer_enduro/resources/trained_models/puffer_enduro-afda4b76-beats_day_1/model_000200.pt (torch, 565307 bytes, 9 tensors)

weight f4 [128, 50]
00000000: 196c 8e3d 4ac3 7b3d f2e6 81bc 9082 e7bd
00000010: 90a8 10be ac92 a5bd 074c abbd 5e5d e53d
00000020: 7d39 8b3d 3190 493d 2257 f43d 6ee8 843d
00000030: 35c8 90bc 797c 07be a188 043e c243 a6bd
00000040: d6cc 533d ca4c c6bd 6fe9 a6bd fdb6 c6bc
00000050: e713 dfbd c46c 043e b914 023d 5dca 83bd
00000060: 4437 c73d 2bed 05be 1e8e 6fbd 71cf 503c
00000070: 11c4 f7bd 7d90 ec3b 72ff 95bc c2f2 09be
00000080: 1308 cbbb 4223 68bc bd10 ab3c cd60 963d
00000090: ffbd a73d 5de8 ec3d 6ea6 b5bd 4d08 7c3d
000000a0: 2060 46bd fc8f 6d3d ec42 9ebd 9181 9bbd
000000b0: b14a 0abe e6b9 c2bd e372 d7bd 2bcf 87bd
000000c0: db54 20bd 6d27 dcbd d6d0 403c 205b ca3d
000000d0: 32d4 a13d b70d 13be 03de 13be ff3a 803a
000000e0: d574 b53d b22a af3c 42e4 093e ffbc aebe
000000f0: 270c 9a3d d042 a9bd 2038 d23d ef21 03be
00000100: 9d9e b03b 27a5 c83c cf89 fbbd 300c db3d
00000110: ae17 d2bd 4d7c c73d a7ae 56bd 9177 90bc
00000120: 7bc1 a13c 0027 873d 8e9b c9bd 437d de3d
00000130: 6f01 9f3d 4faf 893d 52ec 9cbc e1a1 9e3d
00000140: fef1 c5bd 898e a9bd 29b5 243d d1ad eebd
00000150: c438 85bd ca2d 05be 32bb 64bc b11d f13d
00000160: c87c 9b3d 0caf 643d 9625 95bc b14d ca3d
00000170: 525b 0a3e c331 8ebd 34b7 623d 6ebb b6bd
00000180: 5e41 69bc 6fc8 22bd 5ac7 c63d d539 d83d
00000190: 4f57 913e c220 64ba e45a 873e df73 bbbd
000001a0: eee5 89bd 32db 033e 1a22 42bd 3d13 d1bd
000001b0: a7fd 30bd 37f9 f8be 10a6 343d 021a 7dbd
000001c0: 14cb 3a3a 82bf 463d af62 80bd 325c de3d
000001d0: b6cb 86bd 59ce b2bc 2335 e73d c23e ad3d
000001e0: 0784 cfbc 34d1 acbd c027 b93c 5191 513d
000001f0: eae4 c43d 85a2 6b3d 31fa 593d 9c13 9abd
00000200: 7278 543d d489 28bd 6432 48bd f50f 783d
00000210: 02ab 87bd 9117 2ebb d5f6 7e3d 6473 94bd
00000220: bd2c b2bd 6632 543d bb7c 043e 7b3e ddbd
00000230: db3e 38bc ce5e 983c dbc1 63bc 4242 efbc
00000240: 938e 09bd e96d ef3d 9120 e9bd 2ef9 64b9
00000250: 401d 063d e543 c8bd a10e 0e3e 6b64 d1bd
00000260: 063d d9bd 6170 29bc 0df4 b7bd 1924 3e3d
00000270: 3429 013e 8c17 13be 3830 053e 2386 82bd
00000280: f7d8 58bc fcf8 c7bd 0b18 e2bc 6723 cd3c
00000290: ce6f 5abd 22cc ca3d 8b42 c2bd a3cc 5c3c
000002a0: 781b 213e 4ba5 c1bc aeaf 0f3e a2d8 123d
000002b0: c707 f2bc 1cfa 27bc 9a2f 8d3d cb49 a33d
000002c0: f9e7 efbd f2b7 4a3d c95b fd3d a0d4 c5bd
000002d0: 5f06 c03c 4519 c4bd 7487 043e 594c e93c
000002e0: bcc0 ddbd 08cc 08be cec0 26bd 63bf fb3d
000002f0: fff5 d83b 53cc 73bd a806 f7bc fde0 dfbc
00000300: c43c e9bd 7cf9 f03d 231f 7ebd feba 0f3e
00000310: ae75 003e 4124 7bbd bbc6 eabd d7b9 b63d
00000320: e5f3 8d3d 5066 903d 66f4 34bd c049 863d
00000330: d31c d9bd d68f ee3d 75cf eabd f5bf 09be
00000340: 5400 0e3e bd50 9cbd 900a 45bd 3ab8 05be
00000350: d442 d9bd 28d9 7a3d 940f 93bc 1399 e9bc
00000360: 8cf8 043e ed23 fb3d b768 a4bd 44c3 f5bd
00000370: 4284 b93b e089 8dbd f45e e13c 43f1 14bb
00000380: 236e 05be 9395 07be 9280 96bd 377e 07be
00000390: 5f77 df3d 020f 5a3d 200d c43d c73d c63d
000003a0: 2dcd ac3c f356 d6bd b998 b8bc e956 9a3d
000003b0: 370f 913c 6838 debd 10a0 203d a79f f2bd
000003c0: b043 dabd c690 ab3d 3bb8 81bd 4f05 0dbe
000003d0: cc82 f83d 8cc8 20bc 28d4 0bbe 5f1d 00be
000003e0: e70c 983d 9841 d63d f6bf 8e3b d94d 03be
000003f0: 79c0 b23d f8b2 653d 0b92 d5bd faf4 bc3d
0.06954212 0.06146554 -0.015857194 -0.113042 -0.14126801 -0.08084616 -0.083641104 0.11199449
0.067980744 0.049209777 0.11930682 0.06489645 -0.017673591 -0.13231076 0.12942745 -0.081183925
0.05170902 -0.09682615 -0.08149993 -0.024257177 -0.10892468 0.12932116 0.031758044 -0.06435082
0.09727338 -0.13078754 -0.058485143 0.01274477 -0.120979436 0.007219373 -0.018310282 -0.13471511
-0.006196031 -0.014168562 0.020882005 0.07342682 0.08190536 0.11567757 -0.088696346 0.061531354
-0.048431516 0.057998642 -0.07727608 -0.07593072 -0.13505055 -0.095081136 -0.1051996 -0.06631311
-0.039143424 -0.10749707 0.01176854 0.09880662 0.07901801 -0.143607 -0.1444016 0.0009783207
0.088601746 0.021382663 0.1346598 -0.34128568 0.07521849 -0.082646966 0.10264611 -0.12805913
0.005390002 0.024492813 -0.12282144 0.10695684 -0.10258423 0.09740505 -0.052412655 -0.017635139
0.019745579 0.065992355 -0.09844123 0.108637355 0.07763945 0.067228906 -0.019155655 0.0774572
-0.09665297 -0.082791395 0.04021183 -0.116542466 -0.06504968 -0.13005748 -0.013960646 0.11773241
0.075921595 0.055831 -0.018206399 0.098781 0.13511398 -0.06943085 0.055350497 -0.08922468
-0.014236776 -0.03974193 0.09705992 0.105579056 0.28386924 -0.0008702391 0.26436532 -0.0915296
-0.06733309 0.12876585 -0.047395803 -0.102087475 -0.04321065 -0.48627636 0.044103682 -0.06179238
0.0007125598 0.04852248 -0.062688224 0.108574286 -0.065818235 -0.02182691 0.11289432 0.08459236
-0.02533151 -0.0843834 0.022601962 0.051163975 0.096139744 0.057528038 0.053217117 -0.075232714
0.051872678 -0.04114707 -0.04887618 0.060562093 -0.06624414 -0.002656434 0.062247116 -0.072485715
-0.086999394 0.051805876 0.12938206 -0.10802933 -0.011245455 0.018599894 -0.013901199 -0.029206399
-0.033583235 0.116908856 -0.11383165 -0.00021836601 0.03274274 -0.09778575 0.13872768 -0.10224231
-0.106073424 -0.010341735 -0.08982096 0.046421144 0.12613374 -0.14364451 0.13006675 -0.06373241
-0.013235322 -0.09764287 -0.027599355 0.025041295 -0.05332928 0.099022165 -0.09485348 0.013476524
0.15733135 -0.023638388 0.1403186 0.03585113 -0.029544724 -0.010252502 0.06893845 0.07973059
-0.11714167 0.04949183 0.12371022 -0.096596956 0.023440538 -0.09575132 0.12942296 0.028478788
-0.10827777 -0.13359082 -0.040711217 0.122923635 0.006621122 -0.05952103 -0.030154541 -0.027328962
-0.11388543 0.11766335 -0.062041413 0.14036176 0.12544891 -0.06131387 -0.11463686 0.08922165
0.06931285 0.070507646 -0.04417839 0.065570354 -0.10601201 0.11648528 -0.114653505 -0.13452132
0.13867313 -0.07632587 -0.048105776 -0.13058558 -0.106084496 0.061242253 -0.017951764 -0.028515374
0.12985438 0.12262712 -0.08027785 -0.120001346 0.0056615183 -0.06911063 0.027511097 -0.002272681
-0.13030295 -0.13240652 -0.073487416 -0.13231741 0.1091144 0.05323697 0.09572816 0.09679752
0.02109393 -0.10465803 -0.022533761 0.07536108 0.01770745 -0.108506024 0.039215147 -0.118468575
-0.106574416 0.08377223 -0.06333967 -0.13771556 0.121343225 -0.009813439 -0.1365515 -0.12511204
0.07424336 0.1046173 0.0043563796 -0.12822665 0.087281175 0.05607888 -0.10428246 0.09226413

bias f4 [128]
00000000: e901 6639 76ca 1b3d 75bf f03a 6b30 97bd
00000010: 0c06 9dbb 89bc ddbd de66 033e d08d 8fbd
00000020: b40f 113e c57e 8dbc 9c56 263d 7ef4 e93d
00000030: fbc9 463c 1571 debd a0f6 b7bc b2bd cbbb
00000040: 0aba e93c 2d85 d5ba 76cd a93d 701a 84bc
00000050: 90e3 1b3e 8692 e9bc c215 acbc b4ab 97bd
00000060: d919 243d 11fd 083e d5b2 f6bd df6a 46bd
00000070: c5b7 6cbc 4df6 c73c 4d40 c7bd 268f cb3d
00000080: c231 01be 71d8 263a 88c3 003e 0f3d 8cbd
00000090: 3be1 cf3d 02f8 f9bd a751 eabd bf16 103e
000000a0: 6dce 093e 3173 0dbe be72 28bd ed5f 2dbd
000000b0: b667 a63d a73f da3d 28e8 163e 215d 0bbd
000000c0: 3b1d 17bd 0f78 fa3d fbfb e13d 6f00 52bd
000000d0: b14a 693d 145d 273e 8499 46bd 7a94 8d3d
000000e0: 10ff 09bd f026 06be ddc9 3cbc e42d 533d
000000f0: 0868 93bd 0edf 0d3e 9b8e d7bd 9466 013e
00000100: 03f4 0c3e 5836 e5bd 381c a53d 1da5 cebc
00000110: 679b 483d 4de3 b0bc 9f92 1e3d c01a 9d3d
00000120: e235 efbc a29c 99bd 8532 c7bc b4ba 15be
00000130: 9d1f bfbd 54ac b63d 686a d83d a351 81bd
00000140: 4a8c febc cddf 0ebe a242 da3c a66c fe3d
00000150: 987c 8dbd 6773 533d e392 983c e021 e03c
00000160: 8a86 ba3d a70f cfbc daea f13d 9ad1 9dbd
00000170: bdcd ef3d b985 0f3d f1fe 0f3d 7d9a 083e
00000180: 8379 ff3d 6d28 a83d 3374 a9bd a75e 023e
00000190: be4a 253b e840 003e af2b 74bd 14b1 89bd
000001a0: 7af2 0bbd 01b7 61bd 4fe5 1c3d 65d7 a03d
000001b0: 1f4f 383e b9e4 853d e214 87bd e688 90bd
000001c0: 59b0 e2bd c63c 0c3e 1966 ccbd 5fba bbbd
000001d0: 3859 403c db9e 673d 773b cbbc c13d eb3d
000001e0: 28a1 f8bd 83e4 193b 6685 fd3d c7ab f6bc
000001f0: dd41 82bc 9748 2a3e 29ab dfbd 7858 71bd
0.00021935221 0.03803488 0.0018367606 -0.07382282 -0.0047919806 -0.10826976 0.1283221 -0.070094705
0.14166147 -0.017272362 0.04060994 0.11423586 0.012133117 -0.108614124 -0.022456467 -0.006217682
0.028531093 -0.00162903 0.08291142 -0.016125888 0.15223527 -0.02851225 -0.021006469 -0.07405797
0.040063713 0.13377787 -0.12045828 -0.048441764 -0.014448111 0.024409438 -0.09729061 0.09939413
-0.12616637 0.000636465 0.12574589 -0.068475835 0.10150381 -0.12205507 -0.11441355 0.14071177
0.13457651 -0.13813473 -0.04112505 -0.04232781 0.0812525 0.10656672 0.14736998 -0.03402436
-0.03689311 0.122299306 0.110343896 -0.051269945 0.056955997 0.163441 -0.048486248 0.06913085
-0.033690512 -0.13100791 -0.011522737 0.051557437 -0.07197577 0.1385462 -0.10525247 0.12636787
0.13764958 -0.11192006 0.08062023 -0.025225217 0.04897633 -0.02159276 0.038714048 0.07671118
-0.029200498 -0.075005785 -0.024316082 -0.14622003 -0.09332202 0.08919588 0.105671704 -0.06314399
-0.031072754 -0.1395256 0.026643101 0.12423067 -0.0690853 0.051623728 0.018624729 0.027359903
0.091076925 -0.025276018 0.118123725 -0.07705994 0.11709163 0.035039637 0.03515524 0.13340183
0.124743484 0.082108356 -0.08274116 0.1273142 0.0025221552 0.1252476 -0.059611972 -0.06723228
-0.03416679 -0.055106167 0.038304623 0.07853583 0.17998932 0.06537766 -0.0659578 -0.07057361
-0.11068792 0.13695058 -0.09980411 -0.09166407 0.011740021 0.05654798 -0.024808628 0.11486388
-0.12140113 0.002348215 0.12378959 -0.030111207 -0.015900547 0.16629253 -0.10921318 -0.05892226

weight f4 [9, 128]
00000000: a548 51ba 17dd 68bb 9c3a b73c 2a77 88ba
00000010: 56ca 85b9 1985 a8bd 0f35 4abc 7b91 57bd
00000020: 9247 803d 1797 cb3c 7e95 f83b bdd2 f83b
00000030: adc8 10bc c38a 0ebd a73f 8a3d d449 1f3d
00000040: 4e31 96bc e3b4 92bc ce51 d33b d7fe 7abd
00000050: 2898 93bc 7bda 533b e6ee d83c 52f6 3d3b
00000060: f148 273d ce35 04bd 8c07 9cbd 37f8 aabd
00000070: d323 19bd b71b 263c ef49 1cbe 2607 b4bc
00000080: 17da 143c 70d8 333d ca22 9cbc 17bd d13c
00000090: 7815 42bc d4f1 213d 6582 9e3d 86dc 1bbd
000000a0: 6591 92bd cd3e bbbd e10a 42bd 4941 7a3d
000000b0: a511 163d d16c 70bd 1d1c 023d 26eb 77bc
000000c0: 0089 3a3d 874b 9a3d 2489 e6bc f217 c4bc
000000d0: 7841 24bb fc5b 933d 1951 0abd 4fc6 20bd
000000e0: 3555 8ebd 009a bfbc 0954 adbd 270e d03d
000000f0: 69b0 f1bc e423 52bd 338d be3c d653 adbb
00000100: 4f6b 2fbd d0c3 983d 3884 d53c 4c2a 4f3d
00000110: 18e3 60bc e226 243d 778d ebbc 9a07 1ebd
00000120: 574c 673d d456 cdbc 6934 343d fe7e 173b
00000130: 3995 8cbb 6706 30bc a9f5 44bc d57a 8b3c
00000140: 4929 d53c 4f51 a3bd d8bc ec3d f88a 2b3b
00000150: de51 92bd c201 db3c 2160 2c3d 92f3 babb
00000160: caef 6a3c aa6d a23c 12c6 9fbc fb25 1cbd
00000170: 1dd9 973c cda9 03bd a9c1 acbd abfe 963d
00000180: 1009 2b3d c9dd 04be c086 373d c254 cabd
00000190: 0488 cabd 6b4a 6b3d a507 143c 893e 2bbb
000001a0: f44b 8d3d d152 83b9 d1f6 1abd c1ac 99bc
000001b0: b3e7 13bd 5c14 913c 2ca2 553d 2d11 3cbc
000001c0: cdf4 99bb b2f5 90bc 975c aabd be0d ef3c
000001d0: e8c2 4dbc 383f 033d 2a94 7e3c 9803 d43b
000001e0: 7957 b23c e04f b5bc 7c5e a53c 1c6e bcbd
000001f0: e260 4b3d a279 573d c8dd edbc 7b09 543d
00000200: cf77 c83d 370d 98bd 7391 913d f302 5d3d
00000210: e5cb aebd 4802 b83d 152d 67bd 6c22 4abd
00000220: 792f 8cbd c2ee b5bd bb38 94bd c189 763d
00000230: 32a3 42bd dd18 8bbd d129 6b3d 6f75 afbd
00000240: 6d87 61bd ae4a b53d f624 80bd 78e6 693d
00000250: b05f 513d 7a2b c4bd 50be 06be 2b2c 4bbd
00000260: e18e da3d 14a0 4abd 3ea4 9d3d 6c32 9ebc
00000270: 1a62 3cbd 7c53 98bd f348 173d b0d3 d63d
00000280: 0138 d13d 9944 a8bd ef44 863d 70f5 8e3d
00000290: 64db 98bd 5dcc 503d db65 debd c1ba ca3d
000002a0: 1723 d93d 21e0 dc3d 4852 af3d 64b0 a63d
000002b0: bc5f f63c 9a72 973d cf0c b33d 6788 2dbd
000002c0: 060e 54bc cdc5 dabd 805e a23d eac5 1dbb
000002d0: e218 c93c 74f9 ebbd 1e6f 873d d888 c5bd
000002e0: 111b 85bd bc7e 8dbd b4df ca3d fc2a 103e
000002f0: ff97 333d 2e06 83bc ce57 99bd 6214 a43d
00000300: 24cf 8bbd 1929 96bd f8ed c5bd b82d dbbd
00000310: 5837 ae3d eaf5 b5bd d486 883d 83d5 b73d
00000320: faae 0f3d a15f cd3c 6478 cabd 15c5 8f3d
00000330: af0e 9abd da2c 953d cec4 ab3d a0e2 8a3d
00000340: 0b18 bdbd 2c18 9f3d 86c9 a53d 27a4 9d3d
00000350: 6b5c 7e3c 1867 b7bd dff7 a43d e374 763d
00000360: b2b3 99bd 63ef 8c3d d1af 9b3d 7cc4 163d
00000370: 0bd9 9dbd e603 bc3d e6a1 113e e1cb c83d
00000380: 52d2 97bd afe4 c23d 0400 cebd 8056 97bd
00000390: 46dd f4bc c1a2 b93c 46cf 2f3d ab34 c13d
000003a0: 4984 debd e749 153d 53ec 943d 1f7d 9d3d
000003b0: e7ab d7bd 1c52 79bd d4f4 9b3d c548 9e3d
000003c0: 4881 973c 8f6a ac3d 769a ef3d 407a c03c
000003d0: 228e 9d3d b911 863d b991 a0bd 7d7f e93d
000003e0: 036f fdbd 6053 a6bd 4d90 aabd 46f8 013e
000003f0: f4c9 98bd 75f6 a5bd 0821 d4bd b472 aabd
-0.0007983542 -0.003553217 0.022366814 -0.001041149 -0.0002551849 -0.08228511 -0.012341752 -0.052628975
0.06263651 0.024852319 0.00758618 0.0075934813 -0.008836907 -0.034800302 0.06750422 0.038888767
-0.018334057 -0.01790852 0.006448961 -0.06127819 -0.01801689 0.003232627 0.026481103 0.002898593
0.040841047 -0.032277875 -0.07618627 -0.083481245 -0.03738768 0.010138444 -0.15262578 -0.021976065
0.0090852 0.043907583 -0.019059557 0.02560286 -0.011845939 0.039537266 0.077397145 -0.038052104
-0.07156638 -0.09142838 -0.047373656 0.061097417 0.03663792 -0.058697525 0.031765092 -0.015131747
0.04554081 0.07533937 -0.028141566 -0.0239372 -0.0025063436 0.07195279 -0.033768747 -0.03925162
-0.06949846 -0.023388863 -0.08463294 0.10158949 -0.029503064 -0.05130376 0.023260688 -0.005289535
-0.042826947 0.07459223 0.026064023 0.050577447 -0.013726018 0.040076144 -0.02875398 -0.03858147
0.056469288 -0.025065817 0.043995295 0.0023116465 -0.0042902497 -0.010743714 -0.012021461 0.017026344
0.026020663 -0.07974493 0.115594566 0.002617536 -0.07144521 0.026734237 0.042083863 -0.0057053054
0.014339397 0.019827683 -0.019503627 -0.03812216 0.018536145 -0.032144357 -0.08435375 0.07372793
0.04175669 -0.1297523 0.044806242 -0.098794475 -0.09889224 0.057444017 0.009035026 -0.0026129803
0.068992525 -0.0002504797 -0.03783304 -0.018759133 -0.036109637 0.017709903 0.052156612 -0.011478704
-0.004698372 -0.017695282 -0.08318441 0.029181357 -0.012558676 0.032042712 0.015538255 0.006470155
0.021770226 -0.022132814 0.020186655 -0.09200689 0.04965294 0.052606232 -0.029036418 0.051766854
0.09788477 -0.074243955 0.0710782 0.05395789 -0.085349835 0.0898481 -0.056439478 -0.049349234
-0.06844992 -0.0888343 -0.07237383 0.060189966 -0.047518916 -0.06791852 0.057412926 -0.085673206
-0.055060793 0.08852135 -0.0625705 0.057104558 0.051116645 -0.09578605 -0.13158536 -0.04960267
0.10671783 -0.04946907 0.07697342 -0.019311152 -0.045991994 -0.074377984 0.036934804 0.10489595
0.1021576 -0.08216209 0.06556117 0.06980407 -0.074637204 0.050976146 -0.10859271 0.09898902
0.10602396 0.10784937 0.08560616 0.081391126 0.030074947 0.073949054 0.087426774 -0.04236641
-0.012942797 -0.10682259 0.07928181 -0.0024074265 0.024547998 -0.11522189 0.06612991 -0.096452415
-0.06499303 -0.06908938 0.09905949 0.14078897 0.043846127 -0.015994158 -0.074874505 0.080117
-0.06826618 -0.073320575 -0.096645296 -0.107020795 0.0850665 -0.08884795 0.066663414 0.08976271
0.03507898 0.025070013 -0.09886244 0.07020012 -0.07522332 0.072839454 0.08387147 0.067815065
-0.092331015 0.07768282 0.08095078 0.07697325 0.015524964 -0.089552104 0.0805509 0.060170066
-0.07504977 0.06881597 0.07601894 0.036808476 -0.07707413 0.09180431 0.14221916 0.09804512
-0.07413162 0.09516274 -0.10058597 -0.073895454 -0.029890668 0.022660615 0.04292228 0.09433874
-0.10865075 0.036447432 0.07271638 0.076898806 -0.10530835 -0.06086932 0.07615057 0.077287234
0.018494263 0.08418762 0.11699383 0.023495793 0.07693125 0.06546349 -0.078402944 0.114012696
-0.123746894 -0.08121371 -0.083283044 0.12692365 -0.074603945 -0.081036486 -0.10357863 -0.08322659

bias f4 [9]
00000000: 8183 0ebc 7ab5 a83d a181 87bd a3e7 b4bd
00000010: dfbd 86bc 83d8 2dbd 3e09 57bd 699b 9b3d
00000020: caf9 a73c
-0.008698345 0.08237739 -0.066165216 -0.08833244 -0.01644796 -0.04244281 -0.05249905 0.075980015
0.02050485

weight f4 [1, 128]
00000000: d17f f63c 29fe 5dbd a559 363d 86ae fe3d
00000010: 1e35 14bd 516c 0abd ef2d a2bd e9dd 43bd
00000020: 7ed2 5ebc 4cbb b1bc 93f2 ddbc ed1f b13d
00000030: 4ce4 95bd f246 bcbd f491 693d 7784 a5bb
00000040: dd38 05be abe7 c73c 12ef 5fbd 33ab 0dbc
00000050: 74ea 453d 8204 64bd 52c0 35bd 92bc a9bd
00000060: a876 793d 7d48 26be a238 90bc 8272 a6bd
00000070: 3ea5 103d a9c8 2dbd 9ad9 f5bc f826 c63d
00000080: e01e b73d 2139 e43c 1aaa b43d 1dd7 903d
00000090: 1218 9dbd 7cb3 fd3c 8e8b b53d 4a27 47bc
000000a0: a934 46bc 15e3 3abd 640c 12bc d5f3 b33d
000000b0: 29e4 d13d 1a07 10bd f0f3 45bc 49e3 91bd
000000c0: 16d7 2dbd 6d2a 453d 6321 923c 5fff b6bc
000000d0: 15a7 043d 821c b83c 9eb5 46bd d116 4abd
000000e0: f52b fdbc efa1 283c 745a acbd 4203 643d
000000f0: f0bd 6dbc e216 dd3c 8f81 93bc b87a 283c
00000100: ba03 953c 7702 cc3c c69b 0fbd 33c8 ebbc
00000110: e55e 1e3d 8e56 683d 191f 243d 3a4d 69bc
00000120: 541b 8b3d f580 013e 4a2e 4ebc b118 983d
00000130: 1284 b6bd 6158 103c 30ff 8d3d c46d 853d
00000140: e7dc 813c d256 79bc 95e0 7a3d 092f c83d
00000150: 446c bdbc 53a5 afbc 3016 d53d 7d44 69bd
00000160: 73ab 7ebd f84e b33d 760d 2e3d 1536 77bd
00000170: 0bbf eabc 776a cbbc 5053 8cbc ea28 ddbc
00000180: 4a39 0dbb 4664 fbbb ed83 79b9 3f9b 26bd
00000190: c342 24bd 1afb ae3d c204 be3d 1987 c83d
000001a0: ef6d 05bc fe2a eb3d 08d7 e4bc 38c5 1c3d
000001b0: 9bda b23c 3add aebd 879a 6f3c 39d9 f43c
000001c0: b7ae d13d c54b e43c 26c3 bdbd 43ce 083e
000001d0: c7a7 e33c 3b94 38bc 3650 30bd d048 813c
000001e0: de45 c5bd d53c 01bd 7296 e0bc 0019 dabc
000001f0: 4e08 a23c 5746 4b3c 1925 b5bc a302 1fbd
0.030090244 -0.054197464 0.044519085 0.124356315 -0.03618347 -0.033794705 -0.079189174 -0.047819052
-0.01359999 -0.021695755 -0.027093207 0.086486675 -0.07318935 -0.09193219 0.057023957 -0.0050511914
-0.13009973 0.02440246 -0.054671355 -0.008646774 0.048319295 -0.05566836 -0.044372864 -0.0828792
0.060904175 -0.1623859 -0.01760513 -0.081273094 0.035313837 -0.042427693 -0.030010987 0.096754014
0.08941436 0.027859272 0.08821507 0.070722796 -0.07670607 0.030969374 0.088645086 -0.012155363
-0.012097516 -0.04562672 -0.008914087 0.08786742 0.10248596 -0.035163023 -0.012082085 -0.07123429
-0.04244145 0.048136164 0.017838186 -0.022338567 0.032385904 0.022474531 -0.048513047 -0.049338166
-0.03090475 0.010292514 -0.0841569 0.05566717 -0.014510617 0.02698845 -0.018006114 0.010283165
0.018190254 0.02490352 -0.035060667 -0.028781986 0.038664717 0.05672317 0.04006872 -0.014239604
0.06792322 0.1264685 -0.012584278 0.074265845 -0.08911909 0.008810134 0.06933439 0.06515077
0.015852405 -0.0152184535 0.061249334 0.09774596 -0.023122914 -0.021441137 0.104046226 -0.05695008
-0.062175225 0.087552965 0.042493306 -0.06035431 -0.02865555 -0.02483104 -0.01712957 -0.026997048
-0.002154904 -0.0076718656 -0.00023795637 -0.040675398 -0.04010273 0.085439876 0.09278251 0.09791393
-0.008143886 0.114828095 -0.027934566 0.03827402 0.021832755 -0.08538289 0.0146242445 0.029888736
0.10238402 0.027868161 -0.09265737 0.13359933 0.027789963 -0.01126581 -0.043045245 0.01578179
-0.09632467 -0.031552155 -0.027415488 -0.026623249 0.01977935 0.012406907 -0.022112416 -0.038820874

weight_ih_l0 f4 [512, 128]
00000000: bb68 753c 01ed ee3c 83d1 743d 4a19 033c
00000010: e40a 723d ee07 1d3d 1db8 603c ec8f ae3b
00000020: 6965 b5bc 2147 1ebd a42e a93c 6c37 fcbc
00000030: d5c0 8a3c 4649 293d 34ba a83d 1e0f b23d
00000040: a6da 993d 8f52 9b3d 6de8 043d 38a7 abbc
00000050: 9690 023e 4624 b03d e3e0 e63d 1848 14bd
00000060: 4966 a83d 5ea0 2b3d 02d3 d63d 1e64 5c3c
00000070: 61bc 9f3d 950d fd3c 574e bdbd 9c2c 583d
00000080: 8b75 d03d f98b d63c 4376 d1bb 96a6 91bd
00000090: b918 ff3d 7d7b 1c3d a2d4 11bd 6e28 5a3d
000000a0: 3b89 5dbd 50b0 e03a 19a5 b73d e55c 7cbd
000000b0: b771 243e 577c 9c3d 766d 4a3d 68b6 e73c
000000c0: 22d3 c53d 9715 bd3c 52b6 cf3d 444f 013d
000000d0: d1a3 d53c 1ffa 003e 31cc fc3c 2dfe d63d
000000e0: 5bc0 433d 9910 f73c cf02 b53d c953 f13d
000000f0: 34f9 dbbc 645b be3c bd4f c7ba a49e 5e3b
00000100: 567e e23d cc4c ca3c 88ac a9bb cfa8 b5bd
00000110: e281 343e 4569 c73c ec18 b63d 4222 00bd
00000120: 15d1 343d 7a8d 9a3d 6a01 a03d f093 2d3c
00000130: 458b 73bc 1c81 c93c 4351 c83d 095a 1d3d
00000140: a9f5 753c 3ffe 2cbd 57bc 76bc f087 b7bc
00000150: 21f1 a53d 85e4 95bd 47c8 a13d 24c9 ab3d
00000160: e451 d0bb 5555 163e f3f9 ce3d 8fab 4a3c
00000170: 8277 41bd 1b6d 623d 08b9 c03d 56e6 ab3d
00000180: 1827 69bd 473a 133e 612e ef3c cd2f bf3d
00000190: 18f8 d63c 8987 81bd fe11 b13d 6775 d33c
000001a0: 1247 253e ecc8 893b 70b8 1f3d c3a1 35bc
000001b0: 521c 533d 91b8 eb3c d4fe 81bc 47b8 bc3c
000001c0: b686 9dbb af03 2c3d 38c1 a9bc 7e0e 4fbc
000001d0: a30d 46bc 9f41 103d a33f 383d fb4f 103d
000001e0: abf3 f43c d93c b93c 0f00 b03d 0049 d33d
000001f0: 9931 d93b 0222 383d cb24 2d3d 379b 7a3d
00000200: 66a8 85bc 48c4 ebbc e6d1 7b3d 29d5 6f3c
00000210: 1714 b13c 7b19 17bd b98d b53d 79b4 5bbc
00000220: 48a3 b13d dd05 ad3b 0533 913d 2a64 e0bb
00000230: bfe6 86bb b790 c2bc d915 f43c e359 35bd
00000240: 9602 83bb c9cd 093d d88b a63d 2094 dfbb
00000250: 68a6 563c 9879 6c3c cf2b ce3c 5227 8eba
00000260: ce6c 5f3d 1958 223d 5a8e 823b 0a35 95bd
00000270: 8483 58bd 84b6 c53b da4a 80bd 3403 243d
00000280: 8d27 8ebc fa9c d9bc 6bf6 1e3d 448a 433c
00000290: 9385 3e3d ce2a ff3b a3cf cdbc 2483 193b
000002a0: 26d2 073d 84ca 1dbc 75c7 0abd 63e9 023e
000002b0: 26fc adbd 7944 673d e6d6 1c3d b8ed b73c
000002c0: 76c5 b0bd 00bb 8b3d 675c 27bc 69ee 203c
000002d0: 9923 18bd 4048 783d 35b9 94bc 2e85 08bd
000002e0: 8fd3 d83d 628e cdbb 2ec4 ae3b fa94 283c
000002f0: 97d9 25bd d624 6cbc a034 79bb bf77 c23b
00000300: a8c2 6abd 8a53 b7b9 80a1 f13d 6bc2 5fbc
00000310: 3378 cd3c 2fa7 36bd ab3f 513c 4371 da3d
00000320: 62f6 563c 4ae3 19bd 9bef 373b 46b9 e13c
00000330: ed87 843c 6abc 1d3d 98f9 0a3c fdef 92bd
00000340: 2e89 19bd f259 f63a cc0e 183c 75ab 6d3d
00000350: ae1d e73c bf63 cebd 3c86 ac3c 1f11 103d
00000360: 641a 99bd 0b47 d93c 1e86 2dbd 0497 5ebc
00000370: 8ef3 743d 3a95 8a3c 56ae d23a 6715 bbbd
00000380: 12c9 21bd 392e 363a b6e5 b8bd ba6d 9b3c
00000390: 7edd 763d 4b2a 9b3d e843 993c 4a5a 50bd
000003a0: 6b2b 7e3d 7866 c5bc a398 72bd ef32 c33c
000003b0: e3ff 65bc 815a 153d cbe7 c93c 57a7 ed3d
000003c0: 80d1 0ebc 7c0d 6b3d 456b 26bd bad3 c1bc
000003d0: d993 033c 8479 12bd ee0e 873c 6641 b9bb
000003e0: 4604 4e3d e372 633d 987f 47bd c155 a63c
000003f0: 2e8a 973d 94e1 2c3c eec7 a43c 2389 653c
0.014978583 0.029165747 0.05977012 0.008001635 0.059092417 0.03833764 0.013715771 0.0053272154
-0.022143083 -0.038642053 0.020652123 -0.030788146 0.016937653 0.041329645 0.082386404 0.086942896
0.07512407 0.07584106 0.03244822 -0.02095376 0.12750468 0.086006686 0.112733625 -0.036201566
0.08222634 0.041900985 0.10489465 0.013451604 0.07799602 0.030890265 -0.09243458 0.052776918
0.101786695 0.026189791 -0.0063922717 -0.07111852 0.12455887 0.038203705 -0.035603173 0.053261213
-0.05408595 0.0017142389 0.08967037 -0.06161203 0.16059004 0.076409034 0.049420796 0.02828522
0.09659411 0.023081584 0.10142197 0.031569734 0.02607909 0.12595414 0.030859085 0.10497699
0.047790866 0.030159282 0.08838426 0.11783559 -0.026852228 0.023236938 -0.0015206259 0.003396907
0.11059253 0.024694823 -0.005178038 -0.08870088 0.17627671 0.024342189 0.08891472 -0.03128267
0.04414471 0.07546516 0.0781277 0.010594353 -0.014864747 0.024597697 0.097811244 0.038415942
0.015012183 -0.042234655 -0.015059552 -0.022403687 0.08102632 -0.07318977 0.07899528 0.08387974
-0.0063574184 0.14680989 0.10106268 0.012370004 -0.047233112 0.055279832 0.09410292 0.083935425
-0.05692205 0.143777 0.02919692 0.09335289 0.026241347 -0.063246794 0.0864601 0.025812818
0.16140392 0.00420486 0.038994253 -0.01108593 0.05154068 0.028774532 -0.015868582 0.023037089
-0.0048073186 0.0419957 -0.020722017 -0.012637733 -0.012088212 0.03521883 0.044982564 0.035232525
0.029901346 0.022612022 0.08593761 0.10316658 0.006628227 0.044954307 0.042271417 0.06118318
-0.01631565 -0.028780118 0.06147947 0.014638224 0.021616025 -0.036889534 0.08864922 -0.013409727
0.086737216 0.00528024 0.07089809 -0.006847878 -0.0041168625 -0.023750646 0.029795574 -0.044275176
-0.003998111 0.033643518 0.08132142 -0.006823078 0.013101198 0.014433287 0.025167374 -0.0010845459
0.054547124 0.039634798 0.003984255 -0.07285507 -0.052859798 0.0060337204 -0.06264277 0.040042117
-0.017352844 -0.02656411 0.03880922 0.011934821 0.046514105 0.007787085 -0.025123423 0.0023424113
0.033159398 -0.009630803 -0.033881623 0.12784342 -0.08495359 0.056461785 0.03829088 0.02245222
-0.08631413 0.06822777 -0.0102149015 0.009822466 -0.037143324 0.060615778 -0.01815472 -0.033330135
0.105872266 -0.006273077 0.005333445 0.010289425 -0.040490713 -0.014413079 -0.0038025752 0.005934685
-0.057314545 -0.0003496672 0.11798382 -0.013657193 0.02508173 -0.044593032 0.012771527 0.10666134
0.013120266 -0.037570275 0.00280664 0.027554166 0.016178096 0.038509764 0.008482359 -0.071746804
-0.03748434 0.0018795116 0.009280872 0.058024842 0.028212395 -0.10077619 0.021060102 0.035172578
-0.07475737 0.026523134 -0.042364232 -0.01358581 0.059802584 0.01691686 0.0016073685 -0.091349415
-0.039498396 0.0006949637 -0.09028189 0.01897322 0.060269825 0.07576426 0.018709138 -0.050867356
0.062053125 -0.024096712 -0.059227597 0.023827998 -0.014038059 0.036463264 0.02464666 0.11604183
-0.008716941 0.057385907 -0.040629644 -0.02366053 0.008030855 -0.035760418 0.016486611 -0.005653548
0.050297044 0.055529486 -0.048705667 0.020304563 0.073994026 0.010551829 0.020114865 0.014009747

weight_hh_l0 f4 [512, 128]
00000000: 639a 6bbd 7fc3 e93c 2059 7d3d 40b6 44bd
00000010: 7d15 dd3c 8f92 edbc 9dda 59bd ae9e 173c
00000020: 1421 c4bc acf6 94bd c076 14bd d305 ccbb
00000030: 9f91 a6bd 0246 e43c 01ea 003c a2d8 21bd
00000040: 341f ec3c b88c d43d e77f 02bd f064 483d
00000050: 0bf0 b33c fde1 1ebd 7c25 f7bc 1665 61bd
00000060: f85c aabc 87d8 0bbd e09f 4bbb 891b 81bc
00000070: 9997 4cbd a861 573c 39b1 d93c c286 58bc
00000080: d64e d53c 5683 fe3c 6964 fc3c 1004 f6bc
00000090: 5005 21bd e0cc ca3d b4b0 803c 4b48 a0bd
000000a0: 4a80 efbb 4bd9 02bd 6b74 77bc 02eb 62bd
000000b0: 7eac 723d 6657 b43d e727 88bc c6e9 093d
000000c0: 85e7 ac3b 614f 4abd 70cc 703d 5482 52bc
000000d0: fbb6 043d 294f 84bd 6efc 72bc 6c49 abbd
000000e0: 9107 4a3d 583c 60bd bd4b 6e3c ff67 58bd
000000f0: 6caa 2dbd aec2 82bd 7878 c8bd 2ea3 b83d
00000100: 72ee 893d a97f b0bc 7918 b13c 96f0 463d
00000110: f7b3 0e3b cfb1 53bd b0ec 093e 61f5 023b
00000120: 45d3 09bd fe62 393d e122 0abe 5e11 103e
00000130: bcd6 d43b 5895 9b3c f23b 85bc f245 ef3c
00000140: 612c e1bd ca1a f3bc 2b9d b4bb 785b 403a
00000150: 4a04 23bd 334b abbc 8098 a5bc 1caa 94bd
00000160: 13ee 8fbd 69a0 663d cf69 a83c 4d0b 4ebd
00000170: f0b8 8bbd a877 cb3d 1740 e53c f187 e8bc
00000180: e90c 643c a06a 983d f94f 003c 70fe 163d
00000190: 7d7f e4bc f0c4 a83d 69ec bebc a4c2 513d
000001a0: c6fe 933c c395 d13b 0301 bcbb e680 11bd
000001b0: eef4 70bb 685b bbbd 5d99 43bb 53f0 fc3b
000001c0: bb05 08bd 7b0d b63c 5bc8 d83a 5930 babc
000001d0: 4ac4 283e eb22 53bc 2d49 f9bd 08e0 da3d
000001e0: b95e bd3c 6fbb 89bd e110 95bc 0565 17bc
000001f0: 18b7 e3bd 792a d5bd 24fe 2bbd 38f3 88bd
00000200: 1629 9f3c 6924 ab3c 4d94 763d cd8b 363d
00000210: 089b f4bc 2ee9 48bc 4651 4fbd 37f0 cdbc
00000220: 06fa f6bc e0f6 a6bd fd90 6bbd ea83 083d
00000230: 8499 133d 5af8 d83c faed 9a3d e3cd 783c
00000240: d209 263d ae05 7f3c eae1 04bd e9b4 7cbd
00000250: 35ed 3fbd dff8 033d 2d4e 0bbb 919c 23bd
00000260: f1ab 16bd 595f 6e3d 99e0 f83b 4bae 60bd
00000270: 3837 b3bc aba7 c43c 9a1e 8abd c934 2ebd
00000280: 400c d4bd 212a 293c 4273 5cbc c912 0a3c
00000290: c399 20bd 719f ba3b 3dee 613b 1ac6 293d
000002a0: 8ed5 00bd 0c93 63bd b636 563d ffdf 7f3d
000002b0: 2b12 993d 4ccf 953d eed8 633d f602 a6bc
000002c0: 7abc b9bc 42a5 16bd fe86 01bc e5b5 2bbd
000002d0: 1961 823c 5ca0 63bc 1151 493c 920b 913c
000002e0: d4b0 e6bd 5b90 87bc e3f9 4b3d 5ac8 473b
000002f0: 5a8b ad3d b679 1b3d 2eae b9bc 0b4d a3bd
00000300: cc92 9bbc 9344 55bd ad59 1e3d a726 a5bd
00000310: 8e08 00bd 4cbd 2abd 60cb e13c d08a 063c
00000320: 7582 83bc c208 ccbc 25de 34bd a8b6 e8bc
00000330: b54b e13c 2202 1bbd d27e 8dbc 6622 a5bd
00000340: 4928 c3ba efed 293b 1566 cdbd 9d61 323c
00000350: a659 8dbd e9ec 643c dff8 6abd 4e23 993c
00000360: f32c c63c a2aa c7bc 3e71 42bd f026 c33c
00000370: 0333 e4bb 7695 81bd fb09 f73c 614d dc3d
00000380: c380 a2bd 5014 493d 0ced 07bd e01e d43c
00000390: a8ef d6bc 9a71 47bd e2c2 9bbd d0d3 9bbc
000003a0: 8839 3f3d 68c7 c1bb a68f a4bd 91a5 d73c
000003b0: 53fd b9bb c70f fd3c 50d5 4eba ca52 83bc
000003c0: 1b65 46ba 80bb ce3c 915b bd3c 9b82 c93c
000003d0: 94b7 5dbc ab39 a93d 6c00 393c d539 96bb
000003e0: caca ebbc 9d77 85bc 240c 1bbd d72c 803d
000003f0: 421d a13d 8938 4abc 0a6f 6d3c 8724 9dbd
-0.05752028 0.028535603 0.061852574 -0.04802537 0.026987785 -0.029000549 -0.053187 0.009254141
-0.023941554 -0.072736114 -0.03624606 -0.0062262802 -0.08133244 0.027865414 0.007868291 -0.039513238
0.028823473 0.103784025 -0.03186026 0.048924387 0.021965047 -0.038789738 -0.030169241 -0.055028044
-0.020796284 -0.034142043 -0.0031070635 -0.0157602 -0.049949262 0.013145842 0.026573764 -0.0132157225
0.026038568 0.031068485 0.030809598 -0.030031234 -0.039311707 0.09902358 0.015709259 -0.07826289
-0.0073089944 -0.031945508 -0.01510344 -0.055399902 0.059246533 0.088057324 -0.01662059 0.03367021
0.0052766227 -0.049392108 0.058788717 -0.012848455 0.032401066 -0.06460411 -0.014830692 -0.083636135
0.049323622 -0.05474505 0.014544425 -0.052833553 -0.042398855 -0.063847885 -0.097886026 0.09015499
0.06734933 -0.021545248 0.021618115 0.048569284 0.0021774748 -0.051683243 0.13469195 0.0019982683
-0.033648748 0.045260422 -0.13489868 0.14069125 0.006495325 0.018992111 -0.016263936 0.029208157
-0.10994793 -0.02967586 -0.0055119 0.00073378487 -0.039799012 -0.020909881 -0.02021432 -0.07259008
-0.07027831 0.056305323 0.020558266 -0.050303746 -0.068223834 0.09934932 0.027984662 -0.028385134
0.013919094 0.07442212 0.007831567 0.036863744 -0.027892822 0.08240688 -0.023306089 0.051211014
0.018065821 0.006396027 -0.0057374253 -0.035523318 -0.0036767083 -0.09148294 -0.002984605 0.0077190786
-0.03320859 0.022223225 0.0016539203 -0.022728132 0.16481128 -0.012886743 -0.1217216 0.10687262
0.023116456 -0.06725203 -0.018196525 -0.0092403935 -0.11118907 -0.10408492 -0.041990414 -0.06687015
0.019428771 0.020891385 0.060200024 0.04456692 -0.02985908 -0.012262626 -0.050614618 -0.025138957
-0.030148517 -0.081525564 -0.05751132 0.033328928 0.036035076 0.02648561 0.07564922 0.015185806
0.04053671 0.015565319 -0.03244201 -0.061695967 -0.046857078 0.032219764 -0.0021256313 -0.039944235
-0.03678507 0.0581964 0.0075951335 -0.05485372 -0.021876916 0.024005732 -0.06744118 -0.04253081
-0.10353899 0.010324986 -0.013455214 0.00842733 -0.03920914 0.0056952764 0.0034474276 0.04144869
-0.03145366 -0.055560157 0.05229827 0.06246948 0.074741684 0.07314929 0.055626802 -0.020265084
-0.02267288 -0.036778696 -0.00790572 -0.041921515 0.01591544 -0.013893213 0.012287394 0.017705712
-0.11264196 -0.016548326 0.049798857 0.003048441 0.08473845 0.03795787 -0.022666063 -0.07973679
-0.018990897 -0.05206735 0.03865974 -0.08064013 -0.03125816 -0.041684434 0.027562797 0.008211806
-0.016053418 -0.02490652 -0.044157166 -0.02840741 0.02750192 -0.03784383 -0.017272387 -0.080632016
-0.0014889325 0.0025929173 -0.10029236 0.010887531 -0.06901865 0.013972499 -0.05736625 0.018693592
0.024191355 -0.024373356 -0.047471277 0.023822278 -0.006964089 -0.063273355 0.030156126 0.10756946
-0.079347156 0.049091637 -0.03318505 0.025893629 -0.026237324 -0.048692323 -0.0760553 -0.019021899
0.046685725 -0.0059136637 -0.08035211 0.026324065 -0.0056759506 0.030891312 -0.00078900624 -0.016030688
-0.00075681665 0.025235891 0.023114951 0.02459841 -0.013532538 0.082629524 0.0112916045 -0.004584531
-0.02878322 -0.016292388 -0.037853375 0.062585525 0.078669086 -0.012342581 0.014491806 -0.07672983

bias_ih_l0 f4 [512]
00000000: f36e c93d 580f d23c 2a60 753d c7b4 9b3c
00000010: e169 ec3c dee3 473c 44bf 143d cfe6 0a3e
00000020: 695c 013e 21bc 2f3d ee8a 8b3c 273c 333d
00000030: e96c b53d 6b53 423d 4953 9a3d 778c 633d
00000040: 8b09 0d3d d5f7 503d e557 693c 3726 e53d
00000050: a29b 2e3d 4e28 823c ce9d d53d efc2 263d
00000060: dac1 853d 2b43 4d3d d078 283d c378 cb3d
00000070: b203 d23d 94fa 1d3d 66ec ae3d fb07 903c
00000080: 70a2 a13d a021 c3b8 38eb c33c 743c ca3c
00000090: 9e5c 463d 349f b93d c786 a23c eb6f f03c
000000a0: 61f3 653d 3065 283d c4e8 5f3c da5f 973d
000000b0: 3935 693d dbb9 e63b 0abd 353d 8b1d 8d3d
000000c0: e982 973b e3fa 723c d3dc c43c 9a99 0a3e
000000d0: 4876 663d 9d8b 8d3d 5cec ba3b 1d6f 9e3d
000000e0: 3a98 a23d 4e0f f03d a8f9 423c 8030 833d
000000f0: b30c 8e3d add1 f03d f58d 1b3c 74e1 323d
00000100: 588b 623d 3285 273c 99cf 853d bc77 373d
00000110: 5ff0 013c 1d68 92bb eed7 8c3c 38c7 f33c
00000120: 5a62 c83c 540e 073e c5a8 ba3c 8dbb 1e3d
00000130: 9551 123d 478c 553d 9701 603b 124d 883c
00000140: f0c0 f63c a386 3d3d 5781 a13d 9cbe 3b3c
00000150: 6e7b e63d 4009 ca3c b962 7e3d a121 f53d
00000160: af10 263d d4a6 053d 8f5c 343d fb8b 073d
00000170: db11 b43c 6d8d 7e3a 0052 933d 54b3 9b3d
00000180: 0811 7e3c a5e4 ce3d e713 cd3c 6a8a b33d
00000190: cbf8 2e3e e2a9 873d 5193 8e3c ac8d b43d
000001a0: 62c4 d03d aec8 a43c 3c4b 003e 5082 c73b
000001b0: fc06 973d 74f7 223d 2ef6 813d b8db 353c
000001c0: 2cc9 ee3d 66ed fa3c 15e7 e93c bda5 4f3c
000001d0: b27e 853c f714 0e3e 77c8 4d3c 2d1d c13d
000001e0: 3df6 073d 3aff 9a3d 15dd 433d 4d22 8c3d
000001f0: c8ff c13c a94f f63c 8153 813d 8142 273d
00000200: 5b02 5bbc 8981 763b de82 47bc 0d80 ab3b
00000210: 8e25 c23b 8e59 05bd 1052 46bc 11ef f5bc
00000220: d0ad d0bc 5a24 283c b547 64bc e828 073d
00000230: 3ac3 e9bb 45aa 0dbc 46cb acbc 4122 84bc
00000240: bd5a 9bbb 7f72 723c dc22 62bc a247 b3bc
00000250: a7f6 73bc ded6 70bc 21ea 1dbc 4baa a1bc
00000260: 71d3 3f3c ed12 1bbc 8996 cebc 7421 fdbc
00000270: 4d49 4fbd b6cf 0bbb ca68 2cbd 04d4 dcbc
00000280: 7f05 03bc d6ee 9abc 20c6 8dbb 6d57 1abd
00000290: 8a0a cebb b5fe bcbc dd08 fcbc b5f7 bebc
000002a0: 49bf fabc c3e7 a5bc ce6f 71bc 8476 f3bc
000002b0: a987 5d3c 2cfd e9bc 21f5 c8bc 04e2 2a3c
000002c0: 513d 823b 9b95 9bbc d9e4 4ebc 3343 4c3d
000002d0: 84c4 92bb df97 2bbc d526 83bc 3ab0 ed39
000002e0: 9b77 f7bc af0b 41bc ef62 27bd 3b62 4cbd
000002f0: 20fb c2bc 0e93 a2bc 2ab0 b3bc 4f2e b4bb
00000300: 7850 fcbc e18b f83b 9702 b23b 35a2 c9bc
00000310: 8173 abbc 3f6d e2bc 74a9 00bb 7df5 90bc
00000320: 18c4 86bc f98a 48bc 8798 dabc 0b44 8b3c
00000330: 9a84 b83b acbb 14bd 181c 8a3b d94d c1bb
00000340: 1705 d0bb 6147 733c 6562 5bbd 9e63 2bbc
00000350: ea0a 10bd c4f5 adbb 1273 01bb 5ee4 3ebd
00000360: 341b a839 df52 7e3a b47a 97bc 47f9 343c
00000370: e8e2 acbb 620f 9abc e3b7 b8bc 62b6 30bd
00000380: 5138 6bbc 6153 fdbc 2ead aabc 8549 3dbd
00000390: cf7f adbc 4b0b 76bc 45f9 7abc 6c84 c0bb
000003a0: c443 46bc dc30 173b 99b8 8a3c 153c 45bc
000003b0: 8ee6 90bc abab 2d3d 4abc 17bd 5588 82bc
000003c0: de31 8dbc 9dc0 10bc dd39 3fbd 636d 6bbc
000003d0: b9e5 d5bb 2eac 0bbb e8f0 34bc 2b10 41bb
000003e0: 465c 89bc 1a2e c6bb 981d 303c 47e3 dabc
000003f0: 8349 acbc 5f16 6b3c b679 14bd 95be 63bc
0.09835615 0.025642082 0.059906162 0.0190071 0.02885908 0.012200324 0.036315218 0.13564609
0.12632908 0.042904023 0.01703402 0.043758538 0.088586636 0.047442835 0.07535417 0.05555388
0.03443293 0.0510176 0.014242147 0.111889295 0.04262889 0.01588836 0.104304895 0.040713247
0.06531115 0.050112884 0.04113084 0.09935143 0.10254611 0.038569048 0.08541183 0.01758193
0.078923106 -9.304588e-05 0.023915872 0.02468703 0.04842817 0.09063569 0.019839657 0.029350242
0.056140307 0.041112125 0.0136663355 0.07391329 0.056935523 0.0070411987 0.044369735 0.068904005
0.00462376 0.014830324 0.024031078 0.13535157 0.056265146 0.06911395 0.0057044458 0.07736037
0.07939191 0.11721669 0.011900343 0.06405735 0.06936016 0.117587425 0.009494294 0.04367204
0.05530867 0.010224627 0.06533737 0.044791922 0.007930844 -0.0044679777 0.017192807 0.02975808
0.02446096 0.1318906 0.022785554 0.03875308 0.035722334 0.052135732 0.0034180635 0.016638312
0.030121297 0.046270978 0.07885998 0.011459019 0.11254011 0.024662614 0.062105868 0.11969305
0.040543254 0.032629803 0.044033583 0.03309248 0.02198117 0.0009710405 0.07193375 0.076025635
0.01550699 0.10102204 0.025033904 0.08766635 0.17087094 0.066241995 0.01740423 0.08816084
0.10193707 0.020115223 0.125287 0.0060885325 0.07374379 0.03978677 0.06345783 0.011099748
0.11659464 0.030630779 0.028552571 0.012673792 0.016295765 0.13875185 0.012560002 0.09429393
0.033193815 0.07568212 0.047818262 0.0684248 0.023681536 0.030067282 0.06314755 0.040834907
-0.013367261 0.003761383 -0.012177197 0.0052337707 0.005924887 -0.03255611 -0.012104526 -0.030021222
-0.025473505 0.010262573 -0.013933112 0.032997996 -0.0071338685 -0.008646552 -0.021093022 -0.016129615
-0.0047410415 0.014797806 -0.013802256 -0.021884743 -0.0148903495 -0.014699666 -0.00963834 -0.019734522
0.011708126 -0.0094649615 -0.025218265 -0.03089974 -0.050607014 -0.0021333522 -0.042092122 -0.026956566
-0.007996916 -0.018912714 -0.004326597 -0.037681032 -0.0062878774 -0.023070673 -0.030765945 -0.023311475
-0.03060879 -0.020252114 -0.014736129 -0.029719599 0.013521113 -0.028563105 -0.02453095 0.010429863
0.0039745946 -0.018992236 -0.012627804 0.049868774 -0.004478993 -0.010473221 -0.016009727 0.00045335462
-0.0302084 -0.011782571 -0.040865835 -0.049898367 -0.023801386 -0.019845512 -0.021934588 -0.0054986845
-0.03080009 0.0075850342 0.0054324376 -0.02461348 -0.0209291 -0.027639983 -0.0019632252 -0.017695183
-0.016450927 -0.012240165 -0.026684059 0.017000219 0.0056310417 -0.03631179 0.004214775 -0.0058991727
-0.006348263 0.014848561 -0.053560633 -0.010460762 -0.03516666 -0.0053088386 -0.0019752425 -0.046604507
0.00032063725 0.000970168 -0.018491127 0.0110457605 -0.005276073 -0.018806163 -0.022548622 -0.043142684
-0.014356689 -0.030923547 -0.020834532 -0.04621269 -0.021179108 -0.015017341 -0.01531822 -0.005875161
-0.0121011175 0.0023069894 0.016933726 -0.01203825 -0.017688062 0.042400043 -0.0370448 -0.015934149
-0.017235693 -0.008834985 -0.046686042 -0.014369342 -0.006527629 -0.0021312344 -0.011043765 -0.00294591
-0.016767632 -0.006047976 0.010749243 -0.026719702 -0.021031147 0.014348595 -0.036248885 -0.013900419

bias_hh_l0 f4 [512]
00000000: f36e c93d 580f d23c 2a60 753d c7b4 9b3c
00000010: e169 ec3c dee3 473c 44bf 143d cfe6 0a3e
00000020: 695c 013e 21bc 2f3d ee8a 8b3c 273c 333d
00000030: e96c b53d 6b53 423d 4953 9a3d 778c 633d
00000040: 8b09 0d3d d5f7 503d e557 693c 3726 e53d
00000050: a29b 2e3d 4e28 823c ce9d d53d efc2 263d
00000060: dac1 853d 2b43 4d3d d078 283d c378 cb3d
00000070: b203 d23d 94fa 1d3d 66ec ae3d fb07 903c
00000080: 70a2 a13d a021 c3b8 38eb c33c 743c ca3c
00000090: 9e5c 463d 349f b93d c786 a23c eb6f f03c
000000a0: 61f3 653d 3065 283d c4e8 5f3c da5f 973d
000000b0: 3935 693d dbb9 e63b 0abd 353d 8b1d 8d3d
000000c0: e982 973b e3fa 723c d3dc c43c 9a99 0a3e
000000d0: 4876 663d 9d8b 8d3d 5cec ba3b 1d6f 9e3d
000000e0: 3a98 a23d 4e0f f03d a8f9 423c 8030 833d
000000f0: b30c 8e3d add1 f03d f58d 1b3c 74e1 323d
00000100: 588b 623d 3285 273c 99cf 853d bc77 373d
00000110: 5ff0 013c 1d68 92bb eed7 8c3c 38c7 f33c
00000120: 5a62 c83c 540e 073e c5a8 ba3c 8dbb 1e3d
00000130: 9551 123d 478c 553d 9701 603b 124d 883c
00000140: f0c0 f63c a386 3d3d 5781 a13d 9cbe 3b3c
00000150: 6e7b e63d 4009 ca3c b962 7e3d a121 f53d
00000160: af10 263d d4a6 053d 8f5c 343d fb8b 073d
00000170: db11 b43c 6d8d 7e3a 0052 933d 54b3 9b3d
00000180: 0811 7e3c a5e4 ce3d e713 cd3c 6a8a b33d
00000190: cbf8 2e3e e2a9 873d 5193 8e3c ac8d b43d
000001a0: 62c4 d03d aec8 a43c 3c4b 003e 5082 c73b
000001b0: fc06 973d 74f7 223d 2ef6 813d b8db 353c
000001c0: 2cc9 ee3d 66ed fa3c 15e7 e93c bda5 4f3c
000001d0: b27e 853c f714 0e3e 77c8 4d3c 2d1d c13d
000001e0: 3df6 073d 3aff 9a3d 15dd 433d 4d22 8c3d
000001f0: c8ff c13c a94f f63c 8153 813d 8142 273d
00000200: 5b02 5bbc 8981 763b de82 47bc 0d80 ab3b
00000210: 8e25 c23b 8e59 05bd 1052 46bc 11ef f5bc
00000220: d0ad d0bc 5a24 283c b547 64bc e828 073d
00000230: 3ac3 e9bb 45aa 0dbc 46cb acbc 4122 84bc
00000240: bd5a 9bbb 7f72 723c dc22 62bc a247 b3bc
00000250: a7f6 73bc ded6 70bc 21ea 1dbc 4baa a1bc
00000260: 71d3 3f3c ed12 1bbc 8996 cebc 7421 fdbc
00000270: 4d49 4fbd b6cf 0bbb ca68 2cbd 04d4 dcbc
00000280: 7f05 03bc d6ee 9abc 20c6 8dbb 6d57 1abd
00000290: 8a0a cebb b5fe bcbc dd08 fcbc b5f7 bebc
000002a0: 49bf fabc c3e7 a5bc ce6f 71bc 8476 f3bc
000002b0: a987 5d3c 2cfd e9bc 21f5 c8bc 04e2 2a3c
000002c0: 513d 823b 9b95 9bbc d9e4 4ebc 3343 4c3d
000002d0: 84c4 92bb df97 2bbc d526 83bc 3ab0 ed39
000002e0: 9b77 f7bc af0b 41bc ef62 27bd 3b62 4cbd
000002f0: 20fb c2bc 0e93 a2bc 2ab0 b3bc 4f2e b4bb
00000300: 7850 fcbc e18b f83b 9702 b23b 35a2 c9bc
00000310: 8173 abbc 3f6d e2bc 74a9 00bb 7df5 90bc
00000320: 18c4 86bc f98a 48bc 8798 dabc 0b44 8b3c
00000330: 9a84 b83b acbb 14bd 181c 8a3b d94d c1bb
00000340: 1705 d0bb 6147 733c 6562 5bbd 9e63 2bbc
00000350: ea0a 10bd c4f5 adbb 1273 01bb 5ee4 3ebd
00000360: 341b a839 df52 7e3a b47a 97bc 47f9 343c
00000370: e8e2 acbb 620f 9abc e3b7 b8bc 62b6 30bd
00000380: 5138 6bbc 6153 fdbc 2ead aabc 8549 3dbd
00000390: cf7f adbc 4b0b 76bc 45f9 7abc 6c84 c0bb
000003a0: c443 46bc dc30 173b 99b8 8a3c 153c 45bc
000003b0: 8ee6 90bc abab 2d3d 4abc 17bd 5588 82bc
000003c0: de31 8dbc 9dc0 10bc dd39 3fbd 636d 6bbc
000003d0: b9e5 d5bb 2eac 0bbb e8f0 34bc 2b10 41bb
000003e0: 465c 89bc 1a2e c6bb 981d 303c 47e3 dabc
000003f0: 8349 acbc 5f16 6b3c b679 14bd 95be 63bc
0.09835615 0.025642082 0.059906162 0.0190071 0.02885908 0.012200324 0.036315218 0.13564609
0.12632908 0.042904023 0.01703402 0.043758538 0.088586636 0.047442835 0.07535417 0.05555388
0.03443293 0.0510176 0.014242147 0.111889295 0.04262889 0.01588836 0.104304895 0.040713247
0.06531115 0.050112884 0.04113084 0.09935143 0.10254611 0.038569048 0.08541183 0.01758193
0.078923106 -9.304588e-05 0.023915872 0.02468703 0.04842817 0.09063569 0.019839657 0.029350242
0.056140307 0.041112125 0.0136663355 0.07391329 0.056935523 0.0070411987 0.044369735 0.068904005
0.00462376 0.014830324 0.024031078 0.13535157 0.056265146 0.06911395 0.0057044458 0.07736037
0.07939191 0.11721669 0.011900343 0.06405735 0.06936016 0.117587425 0.009494294 0.04367204
0.05530867 0.010224627 0.06533737 0.044791922 0.007930844 -0.0044679777 0.017192807 0.02975808
0.02446096 0.1318906 0.022785554 0.03875308 0.035722334 0.052135732 0.0034180635 0.016638312
0.030121297 0.046270978 0.07885998 0.011459019 0.11254011 0.024662614 0.062105868 0.11969305
0.040543254 0.032629803 0.044033583 0.03309248 0.02198117 0.0009710405 0.07193375 0.076025635
0.01550699 0.10102204 0.025033904 0.08766635 0.17087094 0.066241995 0.01740423 0.08816084
0.10193707 0.020115223 0.125287 0.0060885325 0.07374379 0.03978677 0.06345783 0.011099748
0.11659464 0.030630779 0.028552571 0.012673792 0.016295765 0.13875185 0.012560002 0.09429393
0.033193815 0.07568212 0.047818262 0.0684248 0.023681536 0.030067282 0.06314755 0.040834907
-0.013367261 0.003761383 -0.012177197 0.0052337707 0.005924887 -0.03255611 -0.012104526 -0.030021222
-0.025473505 0.010262573 -0.013933112 0.032997996 -0.0071338685 -0.008646552 -0.021093022 -0.016129615
-0.0047410415 0.014797806 -0.013802256 -0.021884743 -0.0148903495 -0.014699666 -0.00963834 -0.019734522
0.011708126 -0.0094649615 -0.025218265 -0.03089974 -0.050607014 -0.0021333522 -0.042092122 -0.026956566
-0.007996916 -0.018912714 -0.004326597 -0.037681032 -0.0062878774 -0.023070673 -0.030765945 -0.023311475
-0.03060879 -0.020252114 -0.014736129 -0.029719599 0.013521113 -0.028563105 -0.02453095 0.010429863
0.0039745946 -0.018992236 -0.012627804 0.049868774 -0.004478993 -0.010473221 -0.016009727 0.00045335462
-0.0302084 -0.011782571 -0.040865835 -0.049898367 -0.023801386 -0.019845512 -0.021934588 -0.0054986845
-0.03080009 0.0075850342 0.0054324376 -0.02461348 -0.0209291 -0.027639983 -0.0019632252 -0.017695183
-0.016450927 -0.012240165 -0.026684059 0.017000219 0.0056310417 -0.03631179 0.004214775 -0.0058991727
-0.006348263 0.014848561 -0.053560633 -0.010460762 -0.03516666 -0.0053088386 -0.0019752425 -0.046604507
0.00032063725 0.000970168 -0.018491127 0.0110457605 -0.005276073 -0.018806163 -0.022548622 -0.043142684
-0.014356689 -0.030923547 -0.020834532 -0.04621269 -0.021179108 -0.015017341 -0.01531822 -0.005875161
-0.0121011175 0.0023069894 0.016933726 -0.01203825 -0.017688062 0.042400043 -0.0370448 -0.015934149
-0.017235693 -0.008834985 -0.046686042 -0.014369342 -0.006527629 -0.0021312344 -0.011043765 -0.00294591
-0.016767632 -0.006047976 0.010749243 -0.026719702 -0.021031147 0.014348595 -0.036248885 -0.013900419
