examples/trash_pickup_saves/trash_pickup_model_iter_13338.pt (torch, 489822 bytes, 15 tensors)

weight f4 [32, 4, 3, 3]
0	0xbe2a6b8a	-0.16642585
1	0x3d179292	0.037005015
2	0xbe86e93f	-0.26349828
3	0x3e98bfe3	0.29833898
4	0x3e7eb7cb	0.24874799
5	0xbd445a7b	-0.04793785
6	0xbecc859a	-0.3994568
7	0xbe25cea5	-0.1619211
8	0x3d8f933e	0.07010506
9	0xbce7f35a	-0.028314281
10	0xbe8e5cf8	-0.27805305
11	0xbe5ef11a	-0.2177166
12	0xbe91eae8	-0.28499532
13	0xbabcba54	-0.0014398792
14	0x3e8200d3	0.25391254
15	0xbf05aad2	-0.52213776
16	0x3e0d1c83	0.13780408
17	0x3f05e3e1	0.5230084
18	0x3f26b6fc	0.6512296
19	0xbee2db12	-0.44307762
20	0x3e60181c	0.21884197
21	0xbee58f80	-0.44836044
22	0xbd052701	-0.0325079
23	0xbd353339	-0.044238303
24	0x3f32f7d1	0.6990939
25	0x3e9dd9b8	0.3083017
26	0xbf215280	-0.6301651
27	0xbe75964f	-0.2398312
28	0x3e66cb1a	0.22538415
29	0x3d0b8b9a	0.03406868
30	0xbca3df90	-0.020004064
31	0xbdaf5ac7	-0.08562236
32	0x3e4d0aa2	0.20023587
33	0xbdbe640e	-0.09296428
34	0x3dc2ca1e	0.09511207
35	0x3d8548f9	0.06508059
36	0xbe775a62	-0.24155572
37	0xbe5245aa	-0.20534387
38	0x3d6e8e32	0.058241077
39	0x3ce54b43	0.02798999
40	0xbf332e95	-0.69992954
41	0x3d5d7563	0.054067027
42	0x3e19d740	0.15023518
43	0x3a621e49	0.00086257287
44	0x3daca888	0.08430582
45	0xbd6c3b15	-0.057673533
46	0xbeb30963	-0.349681
47	0xbe28ed57	-0.16496788
48	0xbec94796	-0.39312428
49	0xbe19426a	-0.14966741
50	0xbe1b8310	-0.15186715
51	0x3df3681b	0.11885091
52	0xbe61a092	-0.22033909
53	0x3cc6694b	0.02422013
54	0x3edc20a4	0.42993653
55	0xbd6046d4	-0.054755047
56	0xbe3dda65	-0.18540342
57	0x3e1a6a91	0.15079714
58	0xbf05ddae	-0.5229138
59	0x3d51c15a	0.051209785
60	0x3ed497f0	0.4152217
61	0xbb00a367	-0.0019628645
62	0xbeaf4ff2	-0.3424068
63	0xbe517254	-0.20453769
64	0x3dd1cbfd	0.10243986
65	0xbefde065	-0.49585262
66	0x3eab9e92	0.33519417
67	0xbe656daf	-0.22405122
68	0xbe01fe97	-0.12694775
69	0xbe34ee31	-0.17668988
70	0xbe1d3e10	-0.15355706
71	0x3e7db910	0.24777627
72	0xbd41fe22	-0.0473615
73	0xbcb5806e	-0.022155967
74	0xbf03196b	-0.5121066
75	0xbe3f593e	-0.18686387
76	0xbde1ff5e	-0.110350356
77	0xbd2b287a	-0.04178665
78	0x3e655c45	0.2239848
79	0x3e89acf7	0.26889774
80	0x3e802d2e	0.2503447
81	0xbdd33cf1	-0.10314358
82	0xbe003e4e	-0.12523767
83	0x3dbe8960	0.09303546
84	0xbe5f1e6a	-0.21788946
85	0x3d8d318f	0.06894218
86	0x3e0256a6	0.12728366
87	0xbd6c205b	-0.057648044
88	0xbeaf718d	-0.3426632
89	0xbe141b1a	-0.14463463
90	0x3f95be63	1.1698726
91	0x3f3078a8	0.68934107
92	0x3e119e67	0.14220582
93	0x3ef83dfc	0.4848479
94	0xbe1db1da	-0.15399876
95	0x3d036357	0.03207716
96	0xbf090a0b	-0.5353095
97	0xbefbc472	-0.49173313
98	0xbe23b067	-0.15985261
99	0xbf5eb1ee	-0.8699025
100	0x3e87061b	0.26371846
101	0xbe048f5f	-0.12945317
102	0xbee30579	-0.44340113
103	0x3e0b234d	0.13587685
104	0x3e0aa249	0.1353847
105	0xbe8a3cca	-0.26999503
106	0xbd45757e	-0.048207752
107	0x3ea99a31	0.3312545
108	0xbe86e7da	-0.26348764
109	0x3e04a9f2	0.12955454
110	0x3ddc5b19	0.10759563
111	0xbdb0b52e	-0.08628307
112	0xbde05fe5	-0.109557904
113	0xbbc52c8a	-0.0060172724
114	0x3c413e10	0.011794582
115	0x3c0130da	0.007885182
116	0xbd88eeae	-0.066861495
117	0x3c066396	0.008202454
118	0xbe42cbd1	-0.19023062
119	0x3ec75481	0.3893166
120	0xbe9396e8	-0.2882607
121	0xbee18220	-0.4404459
122	0x3ef6cc85	0.4820291
123	0xbeae5142	-0.3404637
124	0xbc5b81e3	-0.013397667
125	0xbebbc3f6	-0.36672944
126	0x3ee3392b	0.44379553
127	0x3f0e6b14	0.5563214
128	0x3e97c531	0.29642633
129	0xbe9b31d7	-0.30311462
130	0xbf0e7212	-0.5564281
131	0x3f02ea5d	0.5113886
132	0xbea07e0c	-0.31346166
133	0x3f249d1e	0.6430224
134	0x3eebdc98	0.46066737
135	0x3dd29d34	0.1028389
136	0xbd560341	-0.052249197
137	0xbe698dab	-0.22807948
138	0x3ecbdadd	0.39815417
139	0x3e02a73d	0.12759109
140	0x3e830644	0.25590718
141	0xb8aa5e7b	-8.12383e-05
142	0x3e853da7	0.260236
143	0xbdb829ba	-0.08992334
144	0xbe2e5ac0	-0.17026806
145	0xbe5a88eb	-0.21341293
146	0x3e50019e	0.20313117
147	0xbe825952	-0.2545877
148	0xbdedbb5b	-0.11608001
149	0x3eda0629	0.42582825
150	0x3e4165d2	0.18886498
151	0xbed2b260	-0.41151714
152	0xbe6c6a93	-0.2308753
153	0x3d797693	0.060904097
154	0x3dd1c25c	0.10242149
155	0xbe6d8472	-0.23195055
156	0xbe6a7cf8	-0.22899234
157	0xbe25b585	-0.16182525
158	0x3e36b73c	0.17843336
159	0x3e72d4e4	0.23714024
160	0xbd9b3627	-0.07578688
161	0xbcbbf81d	-0.022945458
162	0x3e2c4745	0.16824062
163	0xbf13b44c	-0.57696986
164	0xbcf5a574	-0.02998612
165	0x3f442eab	0.7663371
166	0xbea1b5ae	-0.31583923
167	0xbe6389d4	-0.22220546
168	0x3ed72cee	0.42026466
169	0x3f0a2cbc	0.5397451
170	0xbecf65c9	-0.40507343
171	0x3e82eab5	0.25569692
172	0x3e89db06	0.26924914
173	0xbdcb9191	-0.09939874
174	0xbf1ada68	-0.6048951
175	0x3e9c916f	0.30579707
176	0x3eeb5f66	0.4597122
177	0xbe8da0f4	-0.2766186
178	0xbe97f8f8	-0.29682136
179	0xbe277e01	-0.1635666
180	0x3d119d3e	0.03555035
181	0xbed36dfe	-0.41294855
182	0x3aa7186b	0.0012748366
183	0x3da07ea4	0.07836655
184	0xbd8f027c	-0.06982896
185	0x3d9b96b4	0.07597104
186	0xbe15c192	-0.14624622
187	0x3e812e18	0.2523048
188	0x3ea312a0	0.31850147
189	0x3e591306	0.21198663
190	0x3b7954bc	0.003804489
191	0x3e51c022	0.20483449
192	0xbeb2cceb	-0.34921965
193	0x3da2e3d7	0.07953613
194	0x3e39a202	0.18128207
195	0x3e3811d1	0.17975546
196	0x3e95d79f	0.29266068
197	0x3d94a33d	0.07257698
198	0xbd8eb8b6	-0.069688246
199	0xbd3e4bd5	-0.046459038
200	0x3ea0f7fd	0.314392
201	0x3ec12c9a	0.3772934
202	0x3ebefe14	0.3730322
203	0xbdd49533	-0.1038002
204	0x3c7efec6	0.015563672
205	0x3ef48a38	0.47761703
206	0x3e5b4d9e	0.21416327
207	0x3d8905f4	0.066905886
208	0xbeb62437	-0.35574505
209	0xbe8da9d6	-0.27668637
210	0xbe8f3950	-0.27973413
211	0xbe9369d4	-0.28791678
212	0xbe5f3b9d	-0.21800084
213	0xbf059d26	-0.52192914
214	0xbe8a26a0	-0.26982594
215	0xbee6615c	-0.44996154
216	0xbd68f40c	-0.056873366
217	0x3eeac151	0.45850614
218	0x3d170048	0.036865503
219	0x3ec39d73	0.38206062
220	0x3d049c41	0.032375578
221	0x3e4f93ae	0.20271179
222	0xbe0079ae	-0.12546417
223	0x3e0c8251	0.13721587
224	0xbe4751e8	-0.19464839
225	0x3e769ef5	0.24084075
226	0x3eb82b90	0.35970736
227	0x3ecfa1f0	0.40553236
228	0x3d3b9ea3	0.045805585
229	0x3e505b11	0.20347239
230	0x3e83c453	0.2573572
231	0x3d89b290	0.06723511
232	0x3e60a522	0.21937993
233	0xbe5d55f0	-0.21614814
234	0xbea90738	-0.3301332
235	0x3e2eb0f6	0.17059693
236	0x3dcf7e60	0.10131526
237	0x3d8f91ad	0.07010207
238	0xbe8227d9	-0.25421026
239	0xbe656438	-0.22401512
240	0xbd706be1	-0.05869663
241	0xbefc853b	-0.49320397
242	0xbe036a9b	-0.12833636
243	0xbf73df5c	-0.95262694
244	0x3e77a0f0	0.24182487
245	0xbd7bdb41	-0.061488394
246	0xbed86a9f	-0.42268845
247	0xbe2404b5	-0.1601742
248	0xbec13712	-0.37737328
249	0xbee47176	-0.44617814
250	0xbe52a95a	-0.20572415
251	0xbe0c41bb	-0.13696949
252	0xbdfab95f	-0.12242388
253	0x3e8efac9	0.2792571
254	0xbe84b021	-0.25915626
255	0x3b96fe27	0.004607934

bias f4 [32]
0	0x3d0ac0e7	0.033875372
1	0xbe198239	-0.14991082
2	0xbc8fde46	-0.017562043
3	0x3d69db60	0.057093978
4	0xbc983311	-0.018579038
5	0xbe5916db	-0.21200125
6	0xbd8a2471	-0.06745232
7	0xbded8986	-0.11598496
8	0xbdc8550e	-0.09781848
9	0xbdcc234f	-0.09967672
10	0xbc1a501b	-0.009418513
11	0x3d06ddeb	0.03292648
12	0x3c6d450a	0.014481792
13	0xbd35caef	-0.044382986
14	0xbd01f224	-0.031725064
15	0xbd9cdfcc	-0.07659873
16	0xbcce61db	-0.025193145
17	0xbe0f61c7	-0.14002143
18	0xbd0e6079	-0.034759972
19	0xbdf24192	-0.11828913
20	0xbe20b2a5	-0.15693147
21	0xbddfbb3f	-0.10924386
22	0xbb39f27c	-0.0028373292
23	0x3bee4d2b	0.0072723827
24	0xbe1197b1	-0.14218022
25	0x3a137bbb	0.0005626042
26	0x3d782b56	0.060588203
27	0xbdc8ce9d	-0.09805033
28	0xbe0b4d1c	-0.13603634
29	0xbc85d9be	-0.01633918
30	0xbdc277fa	-0.0949554
31	0xbd9c1064	-0.07620314

weight f4 [64, 32, 3, 3]
0	0xbe27a3ee	-0.16371128
1	0x3d8b8f85	0.068144836
2	0xbe0383e7	-0.12843286
3	0x3cbda64c	0.023150586
4	0xbd72081a	-0.059089758
5	0xbd8af8e5	-0.06785754
6	0x3d41c0c0	0.04730296
7	0x3dbcde38	0.09222072
8	0x3d2d7844	0.042351022
9	0xbdb491cd	-0.08816872
10	0xbba8b70b	-0.0051487735
11	0x3d61bc7d	0.055111397
12	0x3d0dfb78	0.034663647
13	0x3e0770f2	0.13226679
14	0xbe8e700c	-0.2781986
15	0xbd4c855f	-0.04993188
16	0xbc995eec	-0.01872202
17	0x3c821c87	0.015882744
18	0xbddac60e	-0.10682307
19	0x3c6d3980	0.014479041
20	0xbe5110d8	-0.20416582
21	0x3de108c6	0.109880015
22	0x3e02337a	0.12714949
23	0xbe662ab6	-0.2247723
24	0xbd894cb9	-0.06704087
25	0x3d545476	0.05183836
26	0xbe1c399e	-0.15256354
27	0x3d47761e	0.04869663
28	0xbd994035	-0.0748295
29	0x3d32dbad	0.04366653
30	0x3d82b090	0.06381333
31	0x3bf59dd0	0.0074956194
32	0x3d89f82c	0.06736788
33	0xbe57a3fc	-0.21058649
34	0xbeb48bec	-0.35263002
35	0x3c9383a1	0.018007101
36	0x3c8c7a9e	0.017148312
37	0x3e7d1750	0.24715924
38	0xbe19f173	-0.15033512
39	0x3cea3ad0	0.028592497
40	0xbdcff549	-0.10154206
41	0x3c234b1d	0.009966639
42	0x3dd1a533	0.102365874
43	0x3dc67d33	0.096918486
44	0xbe20dbe7	-0.15708886
45	0xbc869117	-0.016426606
46	0x3a3c829c	0.0007191093
47	0xbe0a453d	-0.13502975
48	0xbcfb600b	-0.030685445
49	0xbce05a98	-0.027386948
50	0xbcd6435d	-0.026155168
51	0xbd463aad	-0.0483958
52	0x3e02f7bf	0.1278982
53	0xbe48ee25	-0.19622095
54	0x3c6a21d1	0.014290289
55	0xbdbb4337	-0.091436796
56	0xbe162edc	-0.14666313
57	0xbe591fe8	-0.21203578
58	0x3c305c8e	0.010764254
59	0xbdcc4ff6	-0.09976189
60	0xbe1ee0af	-0.15515397
61	0x3e0081b5	0.1254948
62	0xbe03a0dd	-0.12854333
63	0x3d051880	0.03249407
64	0x3cd14d46	0.025549542
65	0x3d71a75f	0.05899751
66	0x3d8c362d	0.06846271
67	0xbda00cbd	-0.0781493
68	0x3cb775e3	0.02239508
69	0xbce54306	-0.02798606
70	0xbcdf2a3d	-0.02724182
71	0x3dbe61ae	0.09295975
72	0xbdbb6fa5	-0.09152154
73	0xbe22662c	-0.15859288
74	0xbdd86208	-0.10565573
75	0xbdae2a04	-0.085041076
76	0x3ca830d2	0.020531092
77	0xbd9c5991	-0.07634271
78	0xbe9a7798	-0.30169368
79	0xbda629c2	-0.081134334
80	0x3d159339	0.036517356
81	0xbd4e541b	-0.050373178
82	0x3cc1a5c8	0.023638621
83	0x3b0e6e1b	0.0021733108
84	0x3e229e03	0.15880589
85	0xbdc47b99	-0.09593887
86	0xbc420dd4	-0.011844117
87	0xbe4276f0	-0.18990684
88	0x3c88a0d8	0.016678259
89	0xbe014c91	-0.12626864
90	0x3c70dc34	0.014700938
91	0xbde68cc1	-0.112573154
92	0xbd2f22d7	-0.042757835
93	0xbd94549c	-0.072427005
94	0xbd830375	-0.06397144
95	0x3d9f77b4	0.077865034
96	0xbd9108b5	-0.07081739
97	0xbda0f69b	-0.07859536
98	0x3dd1532e	0.102209434
99	0xbdde114d	-0.108431436
100	0xbd690d8b	-0.05689768
101	0xbc3fce04	-0.011706833
102	0x3da64087	0.08117776
103	0xbe20484e	-0.15652582
104	0x3d6cf09b	0.057846647
105	0x3deb1daa	0.11480267
106	0xbd1d8e29	-0.038465653
107	0x3dd2dfee	0.102966174
108	0x3e156e3b	0.14592831
109	0x3e73109c	0.23736805
110	0x3dc06247	0.09393745
111	0x3e4c757f	0.19966696
112	0xbd12ce75	-0.035841424
113	0x3e6fb320	0.23408175
114	0xbdc76190	-0.097354054
115	0xbdac6c64	-0.08419111
116	0xbcd70867	-0.026249124
117	0xbe2b0c3c	-0.16703886
118	0xbccdac47	-0.025106562
119	0x3c70c10a	0.014694462
120	0xbe430207	-0.19043742
121	0x3ca507f3	0.020145392
122	0x3d3ddc2f	0.04635256
123	0xbdbcd6a1	-0.09220625
124	0xbc8fc529	-0.017550068
125	0xbe2431f0	-0.16034675
126	0xbddd2596	-0.107981846
127	0xbe04a209	-0.12952437
128	0xbe503df1	-0.20336129
129	0xbb170cec	-0.0023048474
130	0x3d379ed4	0.044829205
131	0xbd987fdf	-0.074462645
132	0xbe2b1e8b	-0.1671087
133	0xbe134908	-0.14383328
134	0xbe788931	-0.24271084
135	0xbe0f8767	-0.14016496
136	0x3d429d57	0.047513332
137	0xbe51a078	-0.2047137
138	0x3d499483	0.049213897
139	0x3d3c601f	0.045990106
140	0xbd83de55	-0.06438891
141	0xbe0278d2	-0.12741402
142	0xbd8c095c	-0.06837723
143	0x3cbe5e73	0.023238396
144	0x3db3e490	0.08783829
145	0xbd9c767d	-0.07639787
146	0x3d72c4ae	0.0592696
147	0xbd27538a	-0.040851153
148	0xbe63f3c4	-0.22260958
149	0xbbb9523b	-0.0056555546
150	0x3e65c4d2	0.22438362
151	0x3c9340c2	0.017975215
152	0x3db07789	0.086165495
153	0xbe16fe38	-0.14745414
154	0xbd1095d8	-0.035299152
155	0xbe391a9c	-0.18076557
156	0xbe4102e9	-0.18848766
157	0xbcce395b	-0.025173834
158	0xbe1e95c5	-0.1548682
159	0xbc0dcd96	-0.008654973
160	0x3d926c8e	0.071496114
161	0x3dc594e6	0.09647541
162	0xbcddd76f	-0.027080266
163	0xbd75fcac	-0.06005542
164	0xbe2047fb	-0.15652458
165	0x3d011974	0.031518415
166	0xbccdd7f7	-0.025127394
167	0xbe57f6f1	-0.21090294
168	0xbd786169	-0.060639773
169	0xbd23fc79	-0.0400357
170	0x3a008c0b	0.00049036805
171	0xbdafd4e2	-0.08585526
172	0x3da93035	0.08261148
173	0xbdcabadd	-0.098989226
174	0x3d8b6bf0	0.06807697
175	0x3da6345d	0.08115456
176	0x3d5a4410	0.053287566
177	0x3e67cffb	0.22637932
178	0x3d754eb2	0.059889503
179	0x3d3e4ef8	0.04646203
180	0x3da107b0	0.078627944
181	0xbc8c2425	-0.017107079
182	0xbe551226	-0.20807704
183	0x3db29a1e	0.08720802
184	0xbd44f62b	-0.048086327
185	0xbddffad9	-0.10936517
186	0xbd8d3f47	-0.06896835
187	0xbcc6a50a	-0.024248619
188	0xbcdc8ddf	-0.026923118
189	0x3d91cde6	0.0711935
190	0xbe0f245a	-0.13978711
191	0x3c8d6aaa	0.017262775
192	0x3e388ce2	0.18022493
193	0x3d5fad56	0.054608665
194	0xbb2b0583	-0.0026095815
195	0x3d40cac0	0.047068357
196	0xbd01d6ce	-0.031698994
197	0xbe3c7197	-0.18402706
198	0x3d35489e	0.044258706
199	0x3e28af5a	0.16473141
200	0x3daf9475	0.08573238
201	0xbbdf6616	-0.0068175895
202	0x3b2198a8	0.002465764
203	0xbdbdd738	-0.09269565
204	0x3e00478e	0.12527296
205	0xbeb3b31a	-0.3509758
206	0x3e18c009	0.14917006
207	0x3d52bb6d	0.051448274
208	0xbdbcadb5	-0.092128195
209	0xbd85f2fc	-0.06540486
210	0xbe271ace	-0.16318819
211	0x3d9aeffe	0.07565306
212	0xbd2b142c	-0.041767284
213	0x3de6b15d	0.11264298
214	0xbe62c7e6	-0.22146568
215	0x3d2cf8ea	0.04222957
216	0xbd7fe375	-0.06247278
217	0xbdc23d95	-0.09484402
218	0xbe49a80f	-0.19693016
219	0x3a050591	0.0005074377
220	0xbda2f860	-0.0795753
221	0xbd77151b	-0.060322862
222	0xbe4bc903	-0.19900899
223	0xbdf676a5	-0.120343484
224	0xbd87225f	-0.06598353
225	0x3dde100e	0.10842906
226	0xbd88aae9	-0.066732235
227	0xbca347ad	-0.019931639
228	0x3d319f85	0.04336502
229	0xbd0bfa03	-0.034173977
230	0xbc55d0fb	-0.013050313
231	0xbda16b97	-0.07881849
232	0x3da1df7d	0.07903955
233	0x3e6594bd	0.2242002
234	0x3ce1c7f2	0.027561162
235	0xbd5c7a20	-0.053827405
236	0xbd9cfc1a	-0.07665272
237	0x3daf3d23	0.08556583
238	0x3ca46a05	0.020070085
239	0x38fdfde3	0.0001211127
240	0xbde4a61e	-0.11164497
241	0x3e02294f	0.1271107
242	0xbbe08ba2	-0.006852583
243	0xbbe81422	-0.007082478
244	0xbdc4909c	-0.095978945
245	0xbe1ec0db	-0.15503256
246	0x3c2440f6	0.0100252535
247	0xbcc7219c	-0.024308018
248	0xbd4f877c	-0.050666317
249	0xbd3d3bfc	-0.046199784
250	0xbe23e99c	-0.16007084
251	0xbbecf8f3	-0.0072318255
252	0x3d8cf464	0.06882551
253	0x3dee58a9	0.11638004
254	0xbcfdf24b	-0.030999323
255	0xbdec992e	-0.11552654

bias f4 [64]
0	0xbd7520da	-0.059845783
1	0xbd038895	-0.032112677
2	0xbdf20858	-0.11817998
3	0xbc74e0d5	-0.014946182
4	0xbd65390a	-0.0559626
5	0xbcab88ee	-0.020939317
6	0xbd8fca79	-0.070210405
7	0xbd45394f	-0.048150357
8	0xbcc8b0b4	-0.024498321
9	0xbd97d1fb	-0.074130975
10	0x3c261b46	0.010138338
11	0xbc9253c9	-0.017862218
12	0xbdd242d8	-0.10266656
13	0xbdb7634e	-0.08954488
14	0xbd034bc9	-0.032054696
15	0xbdbe71ef	-0.09299075
16	0xbd954795	-0.07289044
17	0xbc50b416	-0.012738248
18	0xbda36a9b	-0.07979318
19	0xbd823807	-0.063583426
20	0xbd85952c	-0.06522593
21	0xbc976449	-0.018480437
22	0xbc937ffc	-0.018005364
23	0xbc0fecc7	-0.008784479
24	0xbda39b2b	-0.0798858
25	0xbda5ab79	-0.080893464
26	0xbdf742fe	-0.120733246
27	0xbcdb1822	-0.026744906
28	0xbd1b297c	-0.03788136
29	0xbce59572	-0.028025363
30	0xbd153587	-0.036428
31	0xbd4be8d7	-0.0497826
32	0xbcdd4ad8	-0.027013227
33	0xbd5be6da	-0.053686954
34	0xbdcc75a1	-0.099833734
35	0xbd4bbb8a	-0.049739398
36	0xbcf7f097	-0.03026609
37	0xbbd1a5b5	-0.0063979276
38	0xbd94cb7b	-0.07265373
39	0x3b1694de	0.0022976915
40	0xbd2ab175	-0.041673142
41	0xbd261359	-0.040545795
42	0xbd18b6ff	-0.037283894
43	0xbcc620ec	-0.02418562
44	0xbcaa61ac	-0.020798527
45	0xbc46a769	-0.012124875
46	0xbc86bcee	-0.01644751
47	0xbcd3f7ef	-0.02587506
48	0xbda24edf	-0.079252
49	0xbd0f65d1	-0.03500921
50	0xbb2383cf	-0.002495039
51	0x3b201a38	0.002442969
52	0xbd2cd10b	-0.042191546
53	0xbe32739c	-0.17426914
54	0xbd20b9d4	-0.03923972
55	0xbd9a86ca	-0.0754524
56	0xbdb9d46f	-0.090737216
57	0xbd595cd3	-0.05306704
58	0xbd368cc0	-0.044567823
59	0xbc6fc0ed	-0.014633399
60	0xbd6a68a6	-0.057228707
61	0xbd98777e	-0.07444666
62	0xbd99aff0	-0.075042605
63	0xbd416373	-0.047213983

weight f4 [32, 2304]
0	0xbd4afbd3	-0.049556565
1	0xbd9fe935	-0.078081526
2	0x3d4a1ac1	0.04934192
3	0x3d1c1fde	0.03811633
4	0x3df8b9b1	0.12144793
5	0x3dec0b31	0.11525572
6	0xbc21bece	-0.009872152
7	0x3cb99e20	0.022658408
8	0xbd6c32ae	-0.05766552
9	0x3d88d7be	0.066817746
10	0x39fa4144	0.00047732343
11	0xbd27e723	-0.040991914
12	0x3dda8f08	0.10671812
13	0xbdd263f4	-0.10272971
14	0x3ccad159	0.024758028
15	0x3d12175f	0.03566682
16	0xbc3ca84a	-0.011514733
17	0x3d1a29a8	0.037637383
18	0xbdb7c3e7	-0.08972912
19	0xbd2e0ba6	-0.042491578
20	0xbd90150f	-0.070352666
21	0xbc706301	-0.014672042
22	0x3beac9a6	0.0071651516
23	0x3d0b5d05	0.034024257
24	0xbdcd747f	-0.100319855
25	0x3dd01327	0.10159903
26	0x3bf8a317	0.007587801
27	0xbd476c4c	-0.048687264
28	0x3b81ed53	0.003965059
29	0x3de1d850	0.110275865
30	0xbd49e445	-0.04928996
31	0xbe1ea19a	-0.15491334
32	0x3cd2d7a5	0.025737593
33	0x3da085a0	0.07837987
34	0xbe19a72f	-0.15005182
35	0x3d4876a2	0.048941262
36	0xbe09131c	-0.13386196
37	0xbdf1f589	-0.1181441
38	0x3e14f7ed	0.14547701
39	0xbd75aa18	-0.059976667
40	0x3d21b430	0.03947848
41	0xbe12695c	-0.14298004
42	0xbdde2fce	-0.10848962
43	0x3bb8726d	0.005628875
44	0xbd51e352	-0.05124218
45	0xbe07179a	-0.13192597
46	0x3dbf43e7	0.09339123
47	0xbe4aaebc	-0.19793218
48	0xbe059e61	-0.13048698
49	0x3d4920ff	0.049103733
50	0x3daec8ce	0.08534394
51	0x3e082288	0.13294423
52	0x3e6cb298	0.23115003
53	0xbe525c6d	-0.2054307
54	0xbd5b00ee	-0.053467683
55	0x3dac15e0	0.0840261
56	0x3da1ab9b	0.07894059
57	0xba9f4cf7	-0.0012153675
58	0x3c8bcedb	0.01706641
59	0xbe6d3a05	-0.23166664
60	0x3d12df01	0.035857204
61	0x3d187b86	0.037227176
62	0x3e74bbb3	0.23899727
63	0x3d42c419	0.047550295
64	0x3c49878a	0.012300381
65	0xbd9a7a63	-0.07542875
66	0x3e186147	0.14880858
67	0x3d141266	0.03615036
68	0x3c519eb2	0.012794184
69	0xbcb5253c	-0.022112481
70	0x3cf0a296	0.029374402
71	0xbdbb018c	-0.091311544
72	0xbcf629e2	-0.030049268
73	0x3dd7fe27	0.105465226
74	0xbe6554ef	-0.22395681
75	0xbdd135f5	-0.102153696
76	0x3e1414ab	0.14461009
77	0x3d938631	0.07203329
78	0xbda5461a	-0.080700114
79	0xbda19efd	-0.07891653
80	0xbafec056	-0.0019435983
81	0x3e0f0ce1	0.13969757
82	0x3e35632a	0.1771361
83	0x3d0996d6	0.033591114
84	0xbd033b50	-0.032038987
85	0xbe2fee6e	-0.17180797
86	0xbdf9b242	-0.12192203
87	0x3e1547ed	0.14578219
88	0xbdcd0cc7	-0.10012203
89	0x3d579c8a	0.05263952
90	0x3d8e2a83	0.06941702
91	0x3d8f4032	0.06994666
92	0xbd81c068	-0.06335527
93	0x3d000a2b	0.031259697
94	0x3d7b0ef2	0.06129355
95	0xbda954b2	-0.082681075
96	0x3d79b08b	0.06095938
97	0x3e3c8fc3	0.18414216
98	0xbde14998	-0.11000365
99	0xbd8448c8	-0.064591944
100	0x3d37554a	0.044759072
101	0xbab2ea8b	-0.0013650222
102	0x3e3506ea	0.17678419
103	0xbc9ae63c	-0.018908612
104	0xbd047c9a	-0.03234539
105	0xbc292f79	-0.01032626
106	0xbe1041bd	-0.14087577
107	0xbd864fc5	-0.065581836
108	0xbdbd1d80	-0.09234142
109	0x3c6f6d43	0.014613452
110	0xbe29dc0a	-0.16587844
111	0xbe062209	-0.13098921
112	0xbda0e852	-0.078568116
113	0xbb941907	-0.004519585
114	0x3d93eb8a	0.0722266
115	0x3c0041c4	0.00782818
116	0x3b533012	0.0032224697
117	0xbd69bd75	-0.057065446
118	0x3e522ca4	0.20524842
119	0xbd415bbb	-0.04720662
120	0x3cf5bce9	0.029997306
121	0xb7c953fb	-2.4000174e-05
122	0xbe0d2441	-0.13783361
123	0x3d2c968d	0.042135764
124	0xbd2d2556	-0.042271934
125	0x3d6e8c89	0.058239494
126	0xbdf400d0	-0.119142175
127	0x3bfd7984	0.007735433
128	0xbafdf48a	-0.0019375246
129	0x3cad5774	0.021159865
130	0x3d3b7831	0.04576892
131	0xbd15cbb1	-0.03657121
132	0xbaef2452	-0.0018245077
133	0xbd81913c	-0.063265294
134	0xbd3c0b94	-0.04590948
135	0xbda6f51a	-0.08152218
136	0x3d6595e5	0.056051154
137	0xbd196c75	-0.03745695
138	0xbd97dad5	-0.07414786
139	0xbd35863a	-0.04431746
140	0xbddef087	-0.10885721
141	0xbd870bb2	-0.065940276
142	0xbe77ed45	-0.24211605
143	0x3dc8b32f	0.097998016
144	0xbe3c1ee1	-0.18371154
145	0x3cb25b61	0.021772088
146	0xbd870f2c	-0.06594691
147	0x3d8d311c	0.068941325
148	0x3e98b868	0.2982819
149	0x3d187258	0.03721842
150	0x3e05a5a9	0.13051476
151	0x3d98e046	0.07464652
152	0x3e0cb58f	0.13741134
153	0xbb93c6d6	-0.004509787
154	0x3dfeafa2	0.12435843
155	0x3bd13221	0.0063841497
156	0x3dae2789	0.085036345
157	0x3dc5cbfd	0.09658048
158	0xbd25be19	-0.040464494
159	0x3dcff8d0	0.10154879
160	0x3d53dd08	0.051724464
161	0x3e57758d	0.21040936
162	0xbd886a43	-0.06660893
163	0xbd84041e	-0.06446098
164	0xbe147e6b	-0.1450135
165	0x3d5a6957	0.053323116
166	0x3da33a84	0.07970145
167	0x3d473984	0.048638836
168	0xbe0e0f0c	-0.13872927
169	0xbd9abf2b	-0.07555994
170	0xbd2645ac	-0.040593788
171	0x3e32406c	0.17407387
172	0x3da9a13a	0.08282705
173	0x3e290f00	0.16509628
174	0xbd511529	-0.05104557
175	0xbde66d4c	-0.112513155
176	0x3d8161b8	0.063174665
177	0xbda9a041	-0.08282519
178	0x3d3f7644	0.046743646
179	0x3e3dffe3	0.18554644
180	0xbe7893d1	-0.24275137
181	0xbe164b16	-0.1467708
182	0x3d9d356a	0.076762035
183	0x3d295a40	0.041345835
184	0xbddd2add	-0.10799191
185	0xbd903304	-0.070409805
186	0x3d4f619c	0.050630197
187	0x3e133ae6	0.14377937
188	0xbc396b30	-0.011317059
189	0xbe1d071f	-0.15334748
190	0x3d28fb6b	0.041255396
191	0xbcf4d20b	-0.029885313
192	0xbe5864db	-0.21132223
193	0xbd170f08	-0.03687957
194	0xbd465630	-0.04842204
195	0xbd8b1105	-0.067903556
196	0x3d0e518f	0.03474575
197	0x3d3f8e58	0.04676661
198	0xbde2d52e	-0.11075817
199	0xbe1419a9	-0.14462914
200	0xbdb9dc1d	-0.090751864
201	0xbd241d7e	-0.04006719
202	0x3d47eed4	0.04881175
203	0xbe12d50d	-0.14339085
204	0xbe1f3ea9	-0.15551247
205	0xbb811307	-0.003939036
206	0xbd9f34bb	-0.077737294
207	0xbc601f38	-0.013679318
208	0xbd6a506d	-0.057205606
209	0x3dd668a0	0.104691744
210	0xbe4ead43	-0.20183282
211	0xbe2ded6a	-0.16985098
212	0xbe038109	-0.12842192
213	0x3d07fe51	0.03320152
214	0xbb647417	-0.0034859234
215	0x3d995c05	0.074882545
216	0x3e0bc03b	0.13647549
217	0x3b2d13fe	0.0026409621
218	0xbe98a502	-0.2981339
219	0xbd6c7837	-0.057731833
220	0x3d08f949	0.03344086
221	0x3d930479	0.071785875
222	0xbd395e6e	-0.04525607
223	0x3cfb85d7	0.030703468
224	0x3df65157	0.12027233
225	0x3d0aadae	0.03385704
226	0xbc932893	-0.017963683
227	0xbcf217b3	-0.029552316
228	0x3db7ee45	0.08980993
229	0xbd12c117	-0.035828676
230	0x3d773d93	0.060361456
231	0xbe2bb7d6	-0.16769347
232	0x3dd886b8	0.105725706
233	0x3d9c592a	0.07634194
234	0x3dd643bb	0.10462137
235	0xbd33ed81	-0.043927673
236	0x3ddb00fd	0.10693548
237	0xbd03b217	-0.03215226
238	0x3de2147b	0.110390626
239	0x3e3cbd6f	0.18431638
240	0xbb60461b	-0.0034221474
241	0x3e09b082	0.13446239
242	0xba548cd9	-0.0008108146
243	0x3dd3c3a7	0.10340052
244	0xbb0f0807	-0.0021824853
245	0xbe763ac3	-0.24045853
246	0x3e9b6e9c	0.30357826
247	0x3ec7cef7	0.3902509
248	0xbce85a6a	-0.028363425
249	0x3edfd2ab	0.43715414
250	0xbe905054	-0.28186285
251	0x3dd41d7e	0.10357188
252	0xbe51e5ed	-0.20497866
253	0xbe3234dc	-0.17402977
254	0x3d915089	0.07095439
255	0xbe582346	-0.21107206

bias f4 [32]
0	0xbd517785	-0.051139373
1	0x3d83ef76	0.06442158
2	0xbd876043	-0.06610157
3	0x3db2c3b4	0.08728734
4	0xbcf9d631	-0.030497642
5	0x3dd70a86	0.10500054
6	0xbd457e42	-0.048216112
7	0x3e1093df	0.14118908
8	0x3d6cb06a	0.05778543
9	0x3e170840	0.14749241
10	0xbe43cef4	-0.19121915
11	0x3c5cb020	0.013469726
12	0x3d279249	0.040910993
13	0xbcf356e5	-0.02970452
14	0xbe280d41	-0.16411306
15	0x3dd71281	0.10501576
16	0x3d8969cb	0.067096315
17	0x3df55513	0.11979117
18	0x3cf2ac4a	0.02962317
19	0xbdd0c8f6	-0.1019458
20	0xbdb46454	-0.088081986
21	0xbe5dbbff	-0.21653746
22	0xbd120f33	-0.035659026
23	0x3e14594f	0.14487194
24	0xbc8d0903	-0.017216211
25	0xbca02e0d	-0.019553209
26	0xbda219ae	-0.07915054
27	0x3ac0fdac	0.0014724038
28	0x3c80b252	0.01571003
29	0x3da83bd2	0.08214535
30	0x3dced142	0.100985065
31	0x3da61846	0.081100985

weight f4 [32, 2]
0	0x3e9a8ecc	0.3018707
1	0xbe61c64f	-0.22048305
2	0x3f3fb72a	0.7488886
3	0x3e01261b	0.12612192
4	0xbea1b76a	-0.31585246
5	0xbf2c208f	-0.6723718
6	0x3ec3eddf	0.3826742
7	0x3e3a2bd9	0.18180789
8	0x3ee309f0	0.4434352
9	0x3d413ad4	0.047175243
10	0xbe7e2e5a	-0.24822369
11	0x3ed5b6d2	0.41741043
12	0xbe083f8a	-0.13305488
13	0x3efa3efa	0.48876172
14	0xbe4ce88b	-0.20010583
15	0xbf0b8b73	-0.5450966
16	0xbedaffcf	-0.4277329
17	0x3e9fa637	0.311815
18	0x3e55edf1	0.20891549
19	0xbed9526c	-0.42445695
20	0xbe1681ae	-0.14697906
21	0xbe70eca0	-0.23527765
22	0x3e791683	0.24324994
23	0x3e3c951b	0.18416254
24	0x3e97ff0a	0.29686767
25	0x3f09c8c7	0.53821987
26	0x3e889de3	0.26682958
27	0xbedbaaf2	-0.42903858
28	0xbe6f8f07	-0.23394404
29	0x3f4de31e	0.8042468
30	0xbe89467e	-0.26811594
31	0xbcac7960	-0.02105397
32	0x3f00de98	0.5033965
33	0xbf1899fa	-0.5960995
34	0x3f07895b	0.5294396
35	0x3e3c024e	0.18360254
36	0x3ebaacb8	0.364599
37	0x3eb9e8bb	0.36310372
38	0xbdac7be8	-0.08422071
39	0xbe0b393f	-0.13596056
40	0x3e9e95a5	0.30973545
41	0x3e5866c3	0.2113295
42	0xbed60e6c	-0.41807878
43	0xbc8860fa	-0.016647805
44	0xbd8862cc	-0.06659469
45	0xbe6f49fe	-0.2336807
46	0xbe42f239	-0.19037713
47	0x3ec68f29	0.38781098
48	0x3e1f444f	0.15553401
49	0x3e924837	0.2857072
50	0xbeac82ac	-0.33693445
51	0x3e325f77	0.1741923
52	0x3e0acecf	0.13555454
53	0xbeb1787a	-0.3466223
54	0xbf41c62e	-0.75693023
55	0x3ec89ec8	0.3918364
56	0xbe0897a5	-0.13339098
57	0xbddf8108	-0.10913283
58	0x3ee2b04d	0.44275132
59	0x3ebc5d8f	0.3679013
60	0xbe6f818f	-0.23389266
61	0x3ee8ed42	0.45493513
62	0x3d13b93d	0.03606533
63	0x3f0fccbe	0.56171787

bias f4 [32]
0	0x3d9974d7	0.074929886
1	0xbd524217	-0.05133256
2	0x00000000	0.0
3	0xbde0ac82	-0.10970403
4	0xbcaf856f	-0.02142593
5	0x3df1994c	0.11796817
6	0x3cc273af	0.023736803
7	0x00000000	0.0
8	0x3e980364	0.29690087
9	0x3e721090	0.2363913
10	0x00000000	0.0
11	0xbe05e701	-0.13076402
12	0xbe2626b5	-0.16225703
13	0x3e61c735	0.22048648
14	0x3d8ceb4a	0.06880815
15	0x00000000	0.0
16	0x3e750946	0.23929319
17	0xbdc6906e	-0.096955165
18	0xbe4b693f	-0.19864367
19	0x00000000	0.0
20	0xbe1e71ea	-0.15473142
21	0x00000000	0.0
22	0x00000000	0.0
23	0xbc217f1c	-0.009856965
24	0xbe024912	-0.12723187
25	0x3e972a3f	0.2952442
26	0x3e7632ee	0.24042866
27	0x3e6a200b	0.22863786
28	0x00000000	0.0
29	0xbe37afd6	-0.1793817
30	0x3dbbbad4	0.09166494
31	0xbb64aa14	-0.0034891414

weight f4 [32, 1]
0	0xbe97583c	-0.29559505
1	0xbb34f05d	-0.0027609088
2	0x3d621fc8	0.05520609
3	0x3e82705f	0.25476357
4	0x3f0fc772	0.56163704
5	0x3caf25ca	0.021380324
6	0x3c8b345e	0.016992744
7	0xbe8d46f8	-0.27593207
8	0xbc546aeb	-0.012964944
9	0xbcdbbeb4	-0.026824333
10	0xbe453242	-0.19257453
11	0xbe39a475	-0.18129142
12	0xbe583842	-0.2111521
13	0xbec1fc53	-0.3788782
14	0xbecebc10	-0.40377855
15	0x3ef38ee0	0.47569942
16	0xbeb89f3d	-0.3605899
17	0xbef882e5	-0.48537365
18	0x3c91a615	0.01777939
19	0x3e9b5835	0.30340734
20	0xbdfadbcd	-0.12248955
21	0xbdde38c2	-0.108506694
22	0x3e8cb54c	0.2748207
23	0xbd98836d	-0.074469425
24	0x3e9c0f1b	0.30480275
25	0x3eef4a56	0.467364
26	0xbe7fc8b9	-0.24978913
27	0x3e67a0db	0.22619955
28	0x3eb181af	0.34669253
29	0xbe151c80	-0.14561653
30	0x3ea10b8f	0.3145413
31	0x3eb96ddf	0.36216637

bias f4 [32]
0	0x00000000	0.0
1	0xbb417ce7	-0.002952391
2	0xbd64e929	-0.05588642
3	0x3afb753c	0.0019184719
4	0x3b016f37	0.0019750127
5	0xbcbe1c21	-0.023206772
6	0xbc952aea	-0.01820894
7	0x00000000	0.0
8	0x00000000	0.0
9	0x00000000	0.0
10	0x00000000	0.0
11	0x00000000	0.0
12	0x00000000	0.0
13	0x00000000	0.0
14	0x00000000	0.0
15	0x3a9e4685	0.001207546
16	0x00000000	0.0
17	0x00000000	0.0
18	0xbca07d64	-0.01959104
19	0x3afd204b	0.0019311992
20	0x00000000	0.0
21	0x00000000	0.0
22	0x3ae8789a	0.0017736137
23	0x00000000	0.0
24	0x3af3b7dc	0.0018594223
25	0x3ae921d2	0.0017786568
26	0x00000000	0.0
27	0x3af5dca0	0.0018757768
28	0x3af54c34	0.0018714727
29	0x00000000	0.0
30	0x3afab065	0.0019126056
31	0x3aed85a4	0.0018121493

weight f4 [256, 96]
0	0x3e1757fb	0.14779656
1	0xbb25d07c	-0.0025301268
2	0x3c79076c	0.015199523
3	0x3d951443	0.07279255
4	0xbcc8c0f4	-0.02450607
5	0xbc91253d	-0.017717952
6	0xbdcdc487	-0.1004725
7	0xbcda9443	-0.026682025
8	0x3e36d621	0.17855121
9	0x3de05723	0.1095412
10	0x3d13b94a	0.036065377
11	0x3d819b1c	0.06328413
12	0x3dd66787	0.10468965
13	0x3e34538f	0.1761
14	0xbc297993	-0.010343927
15	0xbe06aad9	-0.1315111
16	0x3e29bfbf	0.16577052
17	0xbe541276	-0.20710167
18	0x3e5ef724	0.21773964
19	0xbe1b8baa	-0.15189996
20	0xbca48e98	-0.020087525
21	0x3cefb505	0.029261122
22	0x3dabc71a	0.08387585
23	0xbdd0788a	-0.10179241
24	0x3e1cec95	0.15324624
25	0xbd094018	-0.03350839
26	0x3e02a6fe	0.12759015
27	0xbd3fa00c	-0.046783492
28	0x3dfe0cca	0.12404783
29	0x3d80c2e1	0.0628717
30	0x3ddf1a95	0.10893742
31	0xbe125b85	-0.14292724
32	0x3dc7cfce	0.097564325
33	0x3e3d82eb	0.18506972
34	0x3d9062cc	0.07050094
35	0x3cc25c31	0.0237256
36	0x3e33ce30	0.17559123
37	0xbeb33670	-0.3500247
38	0xbe981724	-0.29705155
39	0xbd81712f	-0.06320416
40	0xbeaf43ee	-0.34231514
41	0x3ea9b2eb	0.33144316
42	0x3c85cacf	0.016332058
43	0x3e0db6e5	0.138393
44	0xbb93f98e	-0.004515833
45	0x3e87303c	0.26403987
46	0xbeab1f22	-0.3342219
47	0xbdb6e2df	-0.08929991
48	0x3ec20f64	0.37902367
49	0xbb7f3116	-0.003893917
50	0xbd41cad8	-0.047312587
51	0xbd4b9e7f	-0.0497117
52	0x3dd4dbdb	0.103934966
53	0x3d7e0d66	0.062024496
54	0xbd27de94	-0.04098375
55	0xbe8fb610	-0.2806859
56	0xbce77aa6	-0.028256726
57	0xbe5b9783	-0.21444516
58	0x3e396092	0.18103245
59	0xbedf1d51	-0.43577054
60	0x3d03b156	0.032151543
61	0xbdc551aa	-0.09634717
62	0xbe94bbd0	-0.2904954
63	0xbe2f54c4	-0.1712218
64	0x3db17f17	0.086668186
65	0xbce81193	-0.028328693
66	0x3c82d875	0.015972355
67	0xbe50ee49	-0.20403399
68	0xbe128a81	-0.14310648
69	0x3b510d66	0.0031898855
70	0xbd1db844	-0.038505808
71	0xbd61bce3	-0.055111777
72	0x3c9ee0b5	0.019394258
73	0xbd593232	-0.053026386
74	0x3db507be	0.08839367
75	0x3cc06da4	0.02348978
76	0xba4d40d3	-0.0007829789
77	0x3d6021ef	0.05471986
78	0xbd95f748	-0.07322556
79	0xbe93cd93	-0.28867778
80	0x3db107ea	0.086440876
81	0x3dc01956	0.093798324
82	0x3d21f3ba	0.039539076
83	0xbe953ecd	-0.29149476
84	0xbd0dfd6c	-0.03466551
85	0x3c9227a0	0.01784116
86	0xbe6952db	-0.22785513
87	0x3bd14138	0.0063859485
88	0xbe1bfba0	-0.15232706
89	0xbdf92d6d	-0.121668674
90	0xbd4ec0bb	-0.05047677
91	0xbe36be93	-0.17846136
92	0xbe8e054e	-0.27738422
93	0x3d7895f3	0.060689878
94	0xbe11a33e	-0.14222428
95	0xbe5882d1	-0.21143652
96	0x3df68356	0.12036769
97	0xb9cc8163	-0.00039006313
98	0xbdd8f0ba	-0.1059279
99	0xbd8052a2	-0.06265761
100	0x3dca2982	0.09871198
101	0xbde483e1	-0.111579664
102	0xbe4bb3b9	-0.19892778
103	0xbca809da	-0.02051251
104	0x3e88534f	0.2662606
105	0x3d926683	0.07148459
106	0xbd98df50	-0.074644685
107	0x3e16c385	0.14723022
108	0x3db8c353	0.0902163
109	0x3e65b80b	0.22433488
110	0x3da30bd6	0.07961242
111	0xbe05c9f9	-0.13065328
112	0x3d4e5174	0.05037065
113	0xbe209265	-0.15680845
114	0x3e37cab1	0.17948414
115	0xbd04a6f6	-0.03238579
116	0x3cb22bb2	0.021749351
117	0xbceba876	-0.028766852
118	0x3d41d3d2	0.04732115
119	0xbd46a9af	-0.048501667
120	0x3d9afa38	0.07567257
121	0x3c1ac7f7	0.009447089
122	0xbccb4d4e	-0.024817135
123	0x3de0c97d	0.10975931
124	0x3cd62f29	0.026145535
125	0x3d597b41	0.05309606
126	0x3d834067	0.06408768
127	0xbe0356e5	-0.12826116
128	0x3e366504	0.17811972
129	0x3e29dcf6	0.16588196
130	0xbd9e0cdd	-0.07717297
131	0x3d8afee4	0.06786898
132	0x3e2bd495	0.16780312
133	0xbeb2078f	-0.34771392
134	0xbe4e86ac	-0.2016856
135	0x3d6cb601	0.05779076
136	0xbe7c647d	-0.24647708
137	0x3eacabed	0.3372492
138	0xbdb6aea4	-0.08920029
139	0x3d77aa45	0.060465116
140	0xbd3499f0	-0.04409212
141	0x3e9578a6	0.2919361
142	0xbeba6486	-0.36404818
143	0x3b9f296d	0.0048572333
144	0x3eae0197	0.33985588
145	0x3d92d480	0.071694374
146	0x3c894d6d	0.016760552
147	0x3dc3d0e4	0.09561327
148	0x3dbb3c30	0.09142339
149	0xbd838c15	-0.06423203
150	0x3dc2705b	0.09494086
151	0xbe604fee	-0.21905491
152	0x3d892fae	0.06698547
153	0xbe461718	-0.19344747
154	0x3e71017d	0.23535724
155	0xbee12532	-0.4397369
156	0xbd9afdb4	-0.07567921
157	0x3d92c955	0.07167307
158	0xbe8ac7af	-0.27105471
159	0xbe26ea16	-0.16300234
160	0xbd19110d	-0.037369777
161	0xbdac9379	-0.08426566
162	0x3d17a0cb	0.03701858
163	0xbe083f2c	-0.13305348
164	0xbe3fa6d3	-0.18715982
165	0x3d206c2d	0.039165664
166	0xbc9762c7	-0.018479718
167	0xba51395c	-0.00079812645
168	0x3dbd9f55	0.09258906
169	0x3c03d2ed	0.008045894
170	0x3d88cc99	0.06679649
171	0xbd9f9892	-0.07792772
172	0x3db67085	0.0890818
173	0x3d602384	0.05472137
174	0xbd07fbd5	-0.03319915
175	0xbe0d4cf5	-0.13798888
176	0x3ccb0b8d	0.024785781
177	0xbdcf3878	-0.101181924
178	0x3d508a02	0.050912865
179	0xbe3fd949	-0.18735231
180	0xbd7135f8	-0.05888936
181	0x3d7a4489	0.061100516
182	0xbe8ecf16	-0.2789237
183	0x3d222d4c	0.03959398
184	0xbe319739	-0.17342843
185	0xbe66a115	-0.22522385
186	0x3d93a2b4	0.072087675
187	0xbe38c4df	-0.1804385
188	0xbe953f11	-0.29149678
189	0x3d92b4a3	0.0716336
190	0xbe69b51e	-0.22822997
191	0xbde3cfdf	-0.11123633
192	0xbe161769	-0.14657368
193	0x3be9d74f	0.0071362625
194	0x3da76dac	0.08175215
195	0x3ddc5462	0.10758282
196	0x3d29f0a3	0.041489255
197	0x3e14e180	0.14539146
198	0x3e692627	0.2276846
199	0x3deba4ab	0.11506017
200	0xbe02ebdc	-0.12785286
201	0xbdc7d682	-0.09757711
202	0xbd9b8529	-0.07593758
203	0xbde8d4eb	-0.11368736
204	0xbe25fae9	-0.16208996
205	0xbd0f372b	-0.03496472
206	0xbd8f70e3	-0.07003953
207	0x3dd709ce	0.10499917
208	0xbe6685f5	-0.22512038
209	0x3e6ddb5e	0.23228213
210	0xbe1ca5f5	-0.15297683
211	0x3dde0a77	0.1084184
212	0xbe13f662	-0.14449456
213	0xbd2570fe	-0.04039096
214	0xbb44aeb8	-0.0030011367
215	0x3e19888b	0.14993493
216	0xbdd5670e	-0.10420047
217	0xb9a91fe9	-0.00032257967
218	0xbdffa5b2	-0.12482776
219	0x3dc00361	0.093756445
220	0xbe16e0fe	-0.14734265
221	0xbb8e7637	-0.0043475884
222	0xbd30af90	-0.04313618
223	0xbaa2dc2b	-0.0012425234
224	0xbe1e312b	-0.15448444
225	0xbe4d32a5	-0.2003885
226	0x3cb5a0d4	0.022171415
227	0xbe296104	-0.16540915
228	0xbdc7a0c7	-0.09747463
229	0x3e927c4b	0.28610453
230	0x3e72bf49	0.23705782
231	0xbcbccfa1	-0.023048224
232	0x3eda715b	0.42664608
233	0xbe94e6e1	-0.29082397
234	0x3da2ce15	0.07949463
235	0xbda879b8	-0.08226341
236	0xbd70bf5f	-0.058776256
237	0xbe93aa6d	-0.28840962
238	0x3ea8fd61	0.33005813
239	0x3d08de27	0.033414986
240	0xbeaa627f	-0.33278272
241	0xbe39b330	-0.18134761
242	0xbda616db	-0.08109828
243	0xbb7f3f9d	-0.0038947829
244	0xbdcd8ee9	-0.100370236
245	0xbd9e6b82	-0.07735349
246	0x3ce4e528	0.027941301
247	0x3e72ece1	0.23723175
248	0xbada35c6	-0.0016648106
249	0x3eb57597	0.35441276
250	0xbe9ceca8	-0.30649304
251	0x3f1385cb	0.57626027
252	0xbd248b68	-0.04017201
253	0xbe418149	-0.18896975
254	0x3eaf4312	0.34230858
255	0x3e80d5fb	0.25163254

bias f4 [256]
0	0xbc72c6fd	-0.01481795
1	0x3c2a7ac6	0.010405248
2	0x3dd406b0	0.10352838
3	0x3e079143	0.13239007
4	0x3d517f40	0.051146746
5	0xbcd9cd4e	-0.026587155
6	0xbdda0b4e	-0.106466874
7	0x3dcc646f	0.09980094
8	0x3d7bc806	0.061470054
9	0xbd6ba012	-0.0575257
10	0xbda9ccd5	-0.08291022
11	0xbd85d237	-0.06534236
12	0x3db1492b	0.08656534
13	0xbe23accc	-0.15983886
14	0x3e3005ac	0.17189664
15	0xbd51ba2a	-0.05120293
16	0x3dce1b7f	0.10063838
17	0xbd5548b9	-0.052071307
18	0xbe002e3d	-0.12517639
19	0xbde15361	-0.110022314
20	0xbc654cb6	-0.01399534
21	0x3d7a1eb6	0.061064444
22	0x3e1eb47b	0.15498535
23	0xbe4789bf	-0.1948614
24	0x3e2741bd	0.16333671
25	0xbe4323b2	-0.19056585
26	0x3e549233	0.20758896
27	0xbdf88012	-0.121338025
28	0x3da3a2e9	0.07990057
29	0x3cf25ccc	0.029585265
30	0x3da64aa6	0.08119707
31	0xbe397ef6	-0.18114838
32	0x3e16cbb0	0.14726138
33	0xbcd135e9	-0.025538402
34	0xbe3d8235	-0.18506701
35	0x3e27ea26	0.16397914
36	0x3e1b15ef	0.15145086
37	0xbe24daf3	-0.16099147
38	0x3cc87c2e	0.024473276
39	0xbd88b33c	-0.06674811
40	0x3d625955	0.055260975
41	0x3c9f17d4	0.019420542
42	0xbcf327ce	-0.029682066
43	0x3e3d5ef7	0.18493257
44	0x3da33ff4	0.079711825
45	0xbd0ff810	-0.03514868
46	0xbe2184cf	-0.15773319
47	0x3d30d8b3	0.04317541
48	0x3e3403d7	0.1757959
49	0x3e29a32a	0.16566148
50	0xbd9afbf2	-0.07567586
51	0x3e1a8977	0.15091501
52	0x3daf9020	0.085724115
53	0xbd30aa07	-0.0431309
54	0x3e0a22a1	0.13489772
55	0xbe254dcc	-0.16142958
56	0xbd302b25	-0.043009896
57	0xbda7a744	-0.081862
58	0x3d9b778e	0.075911626
59	0xbe2d444c	-0.16920584
60	0x3e3d68fc	0.1849708
61	0xbe42e275	-0.19031699
62	0xbe19769f	-0.14986657
63	0x3e14a2fb	0.14515297
64	0xbdbc6f3d	-0.092009045
65	0x3e50c1b4	0.20386392
66	0x3e3293de	0.1743922
67	0xbde126a8	-0.10993701
68	0xbdd77a0a	-0.10521324
69	0x3de07abc	0.1096091
70	0xbe055847	-0.13021956
71	0x3d859bc4	0.065238506
72	0x3e040e05	0.12895973
73	0xbe2dd0bf	-0.16974162
74	0x3e2c7268	0.16840518
75	0x3e07eb29	0.132733
76	0xbd88fb76	-0.06688587
77	0x3e3cc454	0.18434268
78	0x3db07c80	0.086174965
79	0xbe13e24e	-0.14441797
80	0x3e0a453b	0.13502972
81	0xbcf1f74e	-0.02953687
82	0xbe4c4c75	-0.19951041
83	0x3dffd2eb	0.12491401
84	0x3df77b9c	0.120841235
85	0x3e241bdc	0.16026253
86	0xbcca96f3	-0.024730181
87	0xbe3048fd	-0.17215343
88	0xbd13994e	-0.036034875
89	0x3d4e326e	0.050341062
90	0xbdb913c3	-0.090369724
91	0xbc81fb54	-0.015866913
92	0xbe28087d	-0.16409488
93	0x3e192249	0.14954485
94	0xbe1e052f	-0.15431665
95	0x3e06bb73	0.13157444
96	0x3e55c73c	0.20876783
97	0x3df48178	0.11938757
98	0x3de321e6	0.1109045
99	0x3dd6d8de	0.10490583
100	0x3cb158fa	0.021648873
101	0xbbc34daf	-0.0059601883
102	0xbce32b87	-0.027730716
103	0x3dadd831	0.08488501
104	0xbe309987	-0.17246066
105	0xbd2a4252	-0.041567154
106	0xbe2ec24d	-0.17066307
107	0xbbf03ea2	-0.007331685
108	0xbe3bdad6	-0.18345198
109	0xbe1405d2	-0.14455345
110	0x3cad5ce7	0.021162463
111	0x3d96c978	0.07362646
112	0x3c311a8d	0.010809553
113	0xbe064b65	-0.13114698
114	0x3df2a77e	0.11848353
115	0xbd7dab2c	-0.06193082
116	0xbe039931	-0.12851407
117	0x3dfb6ef9	0.12277026
118	0xbe30a22e	-0.17249367
119	0xbe390220	-0.18067217
120	0x3d43baeb	0.04778568
121	0x3d6e1fdb	0.05813585
122	0x3e162c79	0.14665402
123	0xbe2f88e9	-0.17142071
124	0x3ca079ce	0.019589331
125	0xbd369818	-0.04457864
126	0x3e26f244	0.16303355
127	0xbe45ffa1	-0.19335796
128	0x3db17432	0.086647406
129	0xbe4ea2a0	-0.20179224
130	0xbe1c0d82	-0.15239528
131	0xbe374101	-0.17895891
132	0x3c5bd458	0.013417326
133	0x3d3f30a4	0.046677247
134	0x3cb8d768	0.022563651
135	0xbd86029a	-0.06543465
136	0x3d24a287	0.04019406
137	0xbe3b0e1c	-0.18267101
138	0x3db9a1d1	0.09064067
139	0x3dfe13d6	0.12406127
140	0x3dd03fca	0.10168417
141	0xbd0a88b6	-0.033821784
142	0x3c889d4f	0.016676573
143	0xbe45bcac	-0.19310254
144	0x3db38e7c	0.08767411
145	0x3dd4a02a	0.10382111
146	0xba8c5e2a	-0.0010709215
147	0xbe1d24b6	-0.15346035
148	0xbdd3844d	-0.10327969
149	0x3d5ca390	0.053866923
150	0x3e239e11	0.15978266
151	0xbdcf6fd3	-0.10128751
152	0x3e2703a4	0.16309983
153	0x3c9834fd	0.018579954
154	0xbc8a7b45	-0.016904483
155	0x3cb58623	0.022158688
156	0xbdcfb652	-0.10142197
157	0x3b0f2d97	0.0021847242
158	0x3dd7cb84	0.105368644
159	0x3d8b8615	0.068126835
160	0xbbc9c9e6	-0.0061581014
161	0x3dcafb55	0.09911219
162	0x3d830817	0.063980274
163	0xbd9f78a5	-0.07786683
164	0x3e5a5d39	0.21324624
165	0xbe45c919	-0.19314994
166	0xbc7bd104	-0.015369657
167	0xbdd8de0c	-0.10589227
168	0xbe490948	-0.19632447
169	0xbd5444de	-0.05182349
170	0x3c6b4977	0.014360777
171	0xbd985cf3	-0.07439604
172	0xbce00df6	-0.027350407
173	0xbe00939e	-0.12556311
174	0x3d19cff2	0.037551828
175	0xbd7fc822	-0.06244672
176	0xbe25397f	-0.16135214
177	0xbd647e86	-0.055784725
178	0x3e394d0a	0.18095794
179	0x3d5dfe69	0.054197703
180	0xbd332931	-0.043740455
181	0xbe1b294c	-0.15152472
182	0x3c9ff2bc	0.019524924
183	0x3e2a01da	0.16602269
184	0xbd84e750	-0.06489432
185	0x3d157a73	0.03649373
186	0x3db79ed9	0.08965845
187	0xbe29a9d1	-0.16568686
188	0x3c1b4ee4	0.009479258
189	0xbd8d9759	-0.06913633
190	0x3d0206a7	0.031744625
191	0x3e4a35a9	0.19747032
192	0xbd04b79c	-0.032401666
193	0xbc08176f	-0.008306368
194	0xbdec709a	-0.115449145
195	0x3c88e764	0.016711898
196	0xbe18b772	-0.14913729
197	0x3e00a5e7	0.12563287
198	0x3e03f85e	0.12887713
199	0x3d416953	0.047219586
200	0xbcfa0de9	-0.030524211
201	0xbd7b709b	-0.061386686
202	0x3dc63725	0.09678487
203	0x3d8c1a78	0.06840986
204	0xbe0b047e	-0.13575932
205	0x3e4afbfc	0.19822687
206	0x3d6f029d	0.0583521
207	0xbd99ffd0	-0.075194955
208	0x3e0fc95b	0.14041655
209	0xbe2b9749	-0.1675693
210	0x3e087752	0.13326767
211	0xbd77b2f1	-0.060473386
212	0xbe43ec81	-0.19133188
213	0x3d778a65	0.060434718
214	0x3e2c8a4b	0.1684963
215	0x3d7161c4	0.058931127
216	0x3e430461	0.19044639
217	0xbe2605de	-0.16213176
218	0xbe512416	-0.20423922
219	0x3e24b674	0.16085225
220	0xbd3abd09	-0.045590434
221	0xbe2b9698	-0.16756666
222	0xbdd4988c	-0.103806585
223	0x3e1b9ed7	0.15197311
224	0xbd1d49cc	-0.038400456
225	0xbd275ed7	-0.04086193
226	0x3d928154	0.07153574
227	0x3da858a9	0.082200356
228	0xbdbc6513	-0.09198966
229	0xbda68b09	-0.081319876
230	0xbd777c75	-0.060421426
231	0xbe37b994	-0.17941886
232	0x3cdc7714	0.02691225
233	0xbdb7aa98	-0.08968085
234	0x3c1b66ab	0.009484927
235	0x3e06798f	0.13132308
236	0x3e00fc54	0.12596256
237	0x3d3797cb	0.044822495
238	0x3d0aeb08	0.03391555
239	0x3d3290c8	0.043595105
240	0xbc293b86	-0.010329133
241	0x3df17c26	0.117912576
242	0xbd116cee	-0.035504274
243	0xbdbb012b	-0.09131082
244	0x3e2b7c27	0.16746579
245	0x3e375a17	0.1790546
246	0x3e2415d0	0.16023946
247	0x3de1b64d	0.11021099
248	0xbe52fd90	-0.20604539
249	0x3e30c3d1	0.17262198
250	0x3e2c1b9c	0.16807407
251	0x3e1b5a69	0.15171207
252	0x3de65759	0.11247129
253	0xbe0436b2	-0.1291149
254	0x3e03e78a	0.12881294
255	0x3e0d85ed	0.1382062

weight f4 [4, 256]
0	0x3ea16f47	0.3153021
1	0x3e905018	0.28186107
2	0xbee51d41	-0.4474888
3	0xbed262dc	-0.4109105
4	0xbe1ec402	-0.15504459
5	0xbcbd4078	-0.02310203
6	0x3b15ba93	0.0022846803
7	0x3eb72d9d	0.35776988
8	0x3f3016d3	0.68784827
9	0xbe46b83f	-0.19406222
10	0x3e9ad14b	0.30237803
11	0xbe249dda	-0.1607584
12	0xbee2f2ff	-0.44326016
13	0x3e45ca49	0.19315447
14	0x3ea4ce2c	0.32188547
15	0xbeb40495	-0.35159746
16	0x3ea15db1	0.31516793
17	0xbed2bf75	-0.41161695
18	0xbdfd34ea	-0.12363608
19	0xbea3a9fb	-0.31965622
20	0xbe8dabf8	-0.27670264
21	0x3b985fe7	0.0046501043
22	0xbe1f8b67	-0.15580522
23	0xbe6f8a3c	-0.23392576
24	0x3e292d1d	0.16521116
25	0x3e83df11	0.25756124
26	0xbd4350cc	-0.047684476
27	0x3e7fd43f	0.24983309
28	0x3e939040	0.28820992
29	0xbf049a77	-0.51798195
30	0x3d9bbb3f	0.07604074
31	0xbe00c983	-0.1257687
32	0x3d46d648	0.0485442
33	0x3d1b3098	0.03788814
34	0xbea126e9	-0.31475
35	0x3e68cc9d	0.22734304
36	0x3ea22e2d	0.31675854
37	0x3e815a93	0.25264415
38	0x3ecaa616	0.3957984
39	0x3d144db5	0.03620692
40	0x3e93c33f	0.28859898
41	0xbcb34efd	-0.02188825
42	0xbee526be	-0.4475612
43	0x3e7f1357	0.24909721
44	0x3e402285	0.18763168
45	0xbea71d72	-0.32639652
46	0x3e2e8c08	0.17045605
47	0x3ea768af	0.32697055
48	0xbc22c178	-0.009933822
49	0xbd81e2da	-0.063420966
50	0xbe3d5d6c	-0.18492669
51	0x3eb4d33c	0.3531741
52	0x3e7651e9	0.24054684
53	0xbe298dfa	-0.16558066
54	0x3e11b187	0.14227878
55	0xbeb66cd8	-0.35629916
56	0x3e827cf8	0.2548597
57	0xbe97b226	-0.29628104
58	0x3e6dc5cb	0.23219983
59	0xbeccfa4d	-0.40034714
60	0x3d878b51	0.06618369
61	0xbe8b6a52	-0.27229553
62	0x3ec1605b	0.37768826
63	0xbdb4a5a0	-0.08820653
64	0xbee87d36	-0.45408028
65	0x3e6a7b4a	0.22898594
66	0xbd1e047f	-0.038578507
67	0x3d10d508	0.035359412
68	0xbee5d94e	-0.44892353
69	0x3e47ef53	0.19524889
70	0x3de68707	0.11256223
71	0xbe8dfec7	-0.27733442
72	0x3ebc361f	0.3676004
73	0xbe624a97	-0.22098766
74	0x3ee94e47	0.45567533
75	0x3caff500	0.02147913
76	0xbd3cb3b7	-0.046069827
77	0x3e4ae54c	0.19814032
78	0x3e6a1999	0.22861327
79	0x3ca2a225	0.019852707
80	0x3e98cd08	0.29843926
81	0x3f2ed15c	0.6828821
82	0xbe5c25aa	-0.21498743
83	0xbe377272	-0.17914751
84	0xbe00a7bf	-0.1256399
85	0xbdc3a65f	-0.09553217
86	0x3ea77e83	0.32713708
87	0xbeb089d5	-0.34480157
88	0xbda3dd38	-0.080011785
89	0x3e328c60	0.17436361
90	0xbd010a79	-0.031504128
91	0x3e9f5651	0.31120542
92	0x3dcd7cec	0.100335926
93	0xbcf29d8c	-0.02961614
94	0x3eeaafee	0.4583735
95	0xbd5ea1db	-0.054353576
96	0xbe37a762	-0.17934945
97	0x3ed3ebaf	0.4139075
98	0x3e553716	0.20821795
99	0x3e33568d	0.17513485
100	0x3e131ff3	0.14367656
101	0x3e9e76b9	0.30949953
102	0xbeda4bf9	-0.42636088
103	0x3ea929dc	0.3303975
104	0xbe0bdc30	-0.13658214
105	0xbeba8160	-0.3642683
106	0xbe6c3799	-0.23068084
107	0x3ed8302a	0.42224246
108	0x3e837c25	0.25680652
109	0x3e4bc0d6	0.1989778
110	0x3ebcc8f4	0.36872065
111	0xbef5f4d2	-0.48038346
112	0xbec8e499	-0.39236906
113	0xbed40bd3	-0.4141527
114	0x3db14e98	0.08657569
115	0xbe10217f	-0.14075278
116	0x3cf43970	0.029812545
117	0xbb3fac32	-0.0029246924
118	0x3e813644	0.25236714
119	0xbd733714	-0.0593787
120	0xbe249557	-0.16072594
121	0x3e773b09	0.24143614
122	0xbe37b43d	-0.17939849
123	0xbe36bf16	-0.17846331
124	0x3d7ce4ed	0.06174176
125	0x3e362c27	0.1779028
126	0x3a260adb	0.0006334015
127	0x3e06da64	0.13169247
128	0xbe17e27d	-0.14832492
129	0xbe864dfb	-0.2623137
130	0xbcdb9897	-0.026806159
131	0xbe83335c	-0.25625122
132	0x3e7cd34c	0.24689978
133	0x3ebea28a	0.37233382
134	0x3ead8ae6	0.33895034
135	0x3e6147e7	0.22000085
136	0xbd68ddfa	-0.05685232
137	0xbe71d6db	-0.23617117
138	0x3dd04e5d	0.101711966
139	0x3e745a04	0.23862463
140	0x3e423e68	0.18969119
141	0x3eeb7af7	0.45992252
142	0x3ebc7e0b	0.36814913
143	0xbe0634df	-0.13106106
144	0xbde4ac32	-0.11165656
145	0xbe821e68	-0.25413823
146	0xbdf27878	-0.11839384
147	0x3dad1a5d	0.08452294
148	0xbe93474c	-0.28765333
149	0xbef53435	-0.47891393
150	0x3ebef6dd	0.37297717
151	0x3d462a19	0.04837999
152	0xbdad3561	-0.08457447
153	0xbe662dbd	-0.22478385
154	0x3ea344f5	0.31888548
155	0xbe5850f4	-0.21124631
156	0xbea14e9b	-0.31505284
157	0x3e3e8a47	0.18607436
158	0x3ea50434	0.3222977
159	0xbf09fdbe	-0.53902805
160	0xbf40bfaa	-0.75292456
161	0x3d3dcf7b	0.046340447
162	0x3e811e8b	0.25218615
163	0xbebae8a5	-0.3650562
164	0xbdf07934	-0.11741868
165	0xbea79f1c	-0.32738578
166	0xbf3f7c64	-0.7479918
167	0x3e32a912	0.17447308
168	0xbefc9538	-0.49332595
169	0x3db6ab34	0.08919373
170	0xbe8f0831	-0.27935937
171	0xbdb0487b	-0.086075746
172	0xbded7284	-0.11594108
173	0xbe8a95ed	-0.2706751
174	0xbf05eeb4	-0.5231736
175	0x3eb49d6b	0.3527635
176	0x3df004a4	0.11719635
177	0xbe882532	-0.26590878
178	0xbe721cd7	-0.23643814
179	0xbe28ea97	-0.16495739
180	0xbd9d45cb	-0.076793276
181	0xbd3031d7	-0.04301628
182	0xbe13070d	-0.14358158
183	0xbe9cd45c	-0.30630767
184	0xbede9793	-0.43475017
185	0x3e57a4cb	0.21058957
186	0x3e19bab2	0.15012625
187	0xbe34be79	-0.17650785
188	0xbeb6bbe6	-0.3569023
189	0x3f170708	0.58995104
190	0x3f24a05c	0.6430719
191	0xbd1f6fe9	-0.038925085
192	0xbedd85fd	-0.43266287
193	0xbed230a5	-0.41052738
194	0xbda51a90	-0.08061707
195	0xbf2cc886	-0.67493474
196	0xbf0c0ba4	-0.5470526
197	0x3e6d9fed	0.23205538
198	0x3ea8e513	0.3298727
199	0xbf16e049	-0.5893598
200	0x3efe3030	0.4964614
201	0x3d14666e	0.036230497
202	0x3e496ae7	0.19669686
203	0x3d580ae7	0.052744772
204	0xbca42b70	-0.020040244
205	0xbd4c2849	-0.049843106
206	0x3e8c1b38	0.27364516
207	0x3eb5961e	0.35466093
208	0xbe94146a	-0.28921825
209	0xbe133e97	-0.14379345
210	0xbeb080ef	-0.3447337
211	0xbe22e23e	-0.15906617
212	0x3de43125	0.11142186
213	0x3ee7fa2c	0.45308053
214	0x3e5f553f	0.21809863
215	0x3ef787ff	0.48345944
216	0x3d89afbc	0.06722972
217	0x3e39feae	0.18163559
218	0xbe5c8587	-0.21535312
219	0xbe7254c2	-0.23665145
220	0xbe55850f	-0.20851539
221	0xbd2f6481	-0.042820457
222	0x3ecf06a4	0.40434754
223	0xbe9a0267	-0.30079958
224	0x3f06216d	0.52394754
225	0xbe6eb239	-0.23310174
226	0xbead0f7c	-0.33800876
227	0xbdf18ec8	-0.117948115
228	0xbdc861b7	-0.097842626
229	0xbe1e2ccd	-0.15446778
230	0xbee20fb4	-0.44152606
231	0xbcd4b1fc	-0.025963776
232	0x3f020f78	0.50804853
233	0xbe925908	-0.2858355
234	0x3e06b3e4	0.1315456
235	0xbc88ae20	-0.016684592
236	0x3e7136a1	0.23555996
237	0x3e6c8c7b	0.23100464
238	0x3f212422	0.6294576
239	0x3ede9cf4	0.4347912
240	0xbe9f4aa1	-0.31111625
241	0xbf07b550	-0.53011036
242	0xbed80dec	-0.42198122
243	0xbde5ef3b	-0.1122727
244	0x3e7455aa	0.23860803
245	0xbe4ace99	-0.19805373
246	0xbe8dc36f	-0.27688166
247	0xbeb6dad1	-0.3571382
248	0xbd375991	-0.04476315
249	0xbd548152	-0.051881142
250	0xbbe422b6	-0.0069621457
251	0xbef0c1b2	-0.47022778
252	0x3e6eb9bc	0.2331304
253	0xbdf95823	-0.12175014
254	0x3df64211	0.1202432
255	0x3dc673e5	0.09690074

bias f4 [4]
0	0xbb767b0f	-0.003760997
1	0xbd694a2b	-0.056955498
2	0xbdaa338a	-0.083106115
3	0x3e0de866	0.13858184
