examples/trash_pickup_saves/trash_pickup_model_iter_13358.pt (torch, 489822 bytes, 15 tensors)

weight f4 [32, 4, 3, 3]
-0.16763538 0.036524497 -0.26413143 0.2981892 0.24825485 -0.047968037 -0.4007204 -0.16247311
0.06969571 -0.027849035 -0.2763063 -0.219462 -0.28662866 -0.00023480823 0.25389895 -0.5206708
0.13774785 0.5219422 0.6526731 -0.44263574 0.21922983 -0.4486308 -0.032300673 -0.043916605
0.6983122 0.30628246 -0.630781 -0.24055664 0.22433968 0.03502612 -0.02052125 -0.08698334
0.1990536 -0.09190513 0.09633433 0.06722339 -0.24236634 -0.20456664 0.0577566 0.028385129
-0.700318 0.053691085 0.14978959 0.00049583614 0.08387811 -0.057188693 -0.3497396 -0.16491754
-0.39307958 -0.14999703 -0.15174752 0.11921819 -0.22067668 0.026282817 0.42983547 -0.054028217
-0.18598175 0.149632 -0.5243089 0.05048441 0.41490114 -0.0032243102 -0.3424068 -0.2075851
0.10133592 -0.49611047 0.33447954 -0.22385816 -0.1275522 -0.17822172 -0.15301545 0.24634048
-0.047914926 -0.022051543 -0.5129538 -0.18671006 -0.11111843 -0.041989047 0.22371481 0.26867792
0.24999931 -0.10184053 -0.12497316 0.09371704 -0.21816224 0.06862348 0.12744455 -0.057411246
-0.34092516 -0.14342792 1.1699747 0.6904874 0.14448386 0.4838134 -0.1534375 0.03284059
-0.53616047 -0.49144837 -0.16052848 -0.870347 0.2621675 -0.13004373 -0.4436981 0.13702448
0.13500257 -0.26884183 -0.049135167 0.3312856 -0.26347953 0.12969096 0.10745024 -0.08611865
-0.1095736 -0.0059809983 0.011909989 0.007970326 -0.06673357 0.007750301 -0.19028758 0.39038017
-0.28769895 -0.44133794 0.4832799 -0.34028673 -0.012997966 -0.36509088 0.44476977 0.5559807
0.29624254 -0.3038118 -0.55664605 0.50981927 -0.31378108 0.6432465 0.45891553 0.10304721
-0.051917583 -0.22778465 0.39804295 0.12832901 0.25566748 -4.7418227e-05 0.26004347 -0.08975221
-0.1702443 -0.21367684 0.20311248 -0.2550953 -0.11559875 0.42561856 0.18886657 -0.41228795
-0.23089366 0.06225374 0.10373204 -0.23144822 -0.22730075 -0.16029531 0.1779445 0.2375824
-0.07544737 -0.022095224 0.16863291 -0.5765563 -0.027891617 0.7659692 -0.31517738 -0.22261207
0.42014757 0.54145306 -0.4050804 0.2541396 0.26889288 -0.10001569 -0.60361665 0.3046028
0.46068922 -0.27726817 -0.2970834 -0.16446148 0.036368832 -0.41263446 0.0021189223 0.07925091
-0.06879265 0.07648005 -0.14486405 0.2529692 0.3190217 0.21182019 0.0030934592 0.20493694
-0.3486988 0.08063402 0.1819935 0.17908771 0.29206625 0.073745765 -0.06894617 -0.045654953
0.3145211 0.37790465 0.37326935 -0.10300026 0.015151325 0.47845197 0.21446025 0.067553595
-0.35323155 -0.27658796 -0.28090468 -0.2900611 -0.21782696 -0.5217419 -0.26684675 -0.44973922
-0.05717355 0.45808592 0.036733866 0.3818359 0.03214875 0.20231563 -0.12512197 0.13727492
-0.19535165 0.24121213 0.35980174 0.40343156 0.045849986 0.20410079 0.25548166 0.0662288
0.21870409 -0.21655142 -0.33165362 0.17063044 0.10106107 0.06923902 -0.25411943 -0.22229396
-0.059042707 -0.4927629 -0.124950655 -0.9525868 0.24173479 -0.06050998 -0.42319238 -0.16153887
-0.37644526 -0.44859636 -0.20750895 -0.13748169 -0.121744536 0.27989 -0.25763422 0.0068179886
00000000: 9ca8 2bbe b69a 153d 3c3c 87be 41ac 983e
00000010: 8536 7e3e 227a 44bd 392b cdbe 5a5f 26be
00000020: a0bc 8e3d a923 e4bc 0578 8dbe a6ba 60be
00000030: fec0 92be db36 76b9 0bff 813e ae4a 05bf
00000040: c60d 0d3e 019e 053f 9615 273f 27a1 e2be
00000050: c97d 603e f0b2 e5be b64d 04bd e6e1 33bd
00000060: 97c4 323f 0ed1 9c3e dd7a 21bf 7b54 76be
00000070: 4db9 653e 8c77 0f3d 2e1c a8bc 5224 b2bd
00000080: b5d4 4b3e c238 bcbd ef4a c53d 6bac 893d
00000090: e22e 78be eb79 51be 2f92 6c3d ee87 e83c
000000a0: 0a48 33bf 2feb 5b3d 7162 193e 00fb 013a
000000b0: 49c8 ab3d b13e 6abd 1211 b3be 25e0 28be
000000c0: ba41 c9be d298 19be b463 1bbe ab28 f43d
000000d0: 11f9 61be 104f d73c 6513 dc3e b14c 5dbd
000000e0: 0072 3ebe 2239 193e 1c39 06bf bec8 4e3d
000000f0: ec6d d43e f34e 53bb f24f afbe 3091 54be
00000100: 3589 cf3d 3102 febe e740 ab3e 133b 65be
00000110: 0b9d 02be c17f 36be 15b0 1cbe ae40 7c3e
00000120: 7142 44bd 70a5 b4bc f150 03bf ec30 3fbe
00000130: 0f92 e3bd b5fc 2bbd 7f15 653e 2790 893e
00000140: d2ff 7f3e c591 d0bd eef1 ffbd b8ee bf3d
00000150: ec65 5fbe 788a 8c3d d380 023e 0e28 6bbd
00000160: be8d aebe c5de 12be bbc1 953f c8c3 303f
00000170: 94f3 133e 64b6 f73e b81e 1dbe db83 063d
00000180: d041 09bf 1f9f fbbe 9461 24be 10cf 5ebf
00000190: d23a 863e 2f2a 05be 662c e3be 2550 0c3e
000001a0: 1d3e 0a3e a3a5 89be f541 49bd 449e a93e
000001b0: cae6 86be b5cd 043e df0e dc3d fa5e b0bd
000001c0: 2068 e0bd 40fc c3bb 1d22 433c f895 023c
000001d0: 9cab 88bd 3df6 fd3b bfda 42be e9df c73e
000001e0: 474d 93be 0cf7 e1be 7770 f73e 103a aebe
000001f0: 6cf5 54bc 31ed babe ddb8 e33e c054 0e3f
00000200: 1aad 973e 388d 9bbe 5b80 0ebf 8483 023f
00000210: eaa7 a0be cdab 243f faf6 ea3e 6a0a d33d
00000220: 88a7 54bd 6140 69be 49cc cb3e ae68 033e
00000230: d9e6 823e efe2 46b8 6b24 853e 02d0 b7bd
00000240: 8654 2ebe 1ace 5abe b8fc 4f3e da9b 82be
00000250: 0abf ecbd adea d93e 3d66 413e 6817 d3be
00000260: 636f 6cbe c7fd 7e3d 7771 d43d c300 6dbe
00000270: 87c1 68be 7424 24be 1537 363e cd48 733e
00000280: 2784 9abd 0b01 b5bc 1bae 2c3e 3299 13bf
00000290: f67c e4bc 8f16 443f ee5e a1be 6bf4 63be
000002a0: 951d d73e ab9c 0a3f b366 cfbe 961e 823e
000002b0: 54ac 893e 07d5 ccbd 9f86 1abf e6f4 9b3e
000002c0: 75df eb3e 18f6 8dbe 511b 98be 9768 28be
000002d0: 7cf7 143d d344 d3be 9edd 0a3b 4d4e a23d
000002e0: 29e3 8cbd 93a1 9c3d 3e57 14be 2e85 813e
000002f0: d056 a33e 64e7 583e a2bb 4a3b fdda 513e
00000300: a688 b2be 7323 a53d 815c 3a3e c562 373e
00000310: b589 953e 0508 973d a633 8dbd b000 3bbd
00000320: e908 a13e b87c c13e 291d bf3e cdf1 d2bd
00000330: 433d 783c a8f7 f43e 789b 5b3e 8a59 8a3d
00000340: c4da b4be f09c 8dbe bdd2 8fbe e382 94be
00000350: 080e 5fbe e190 05bf 23a0 88be 3844 e6be
00000360: d02e 6abd 3d8a ea3e 4076 163d ff7f c33e
00000370: 68ae 033d d42b 4f3e f91f 00be cc91 0c3e
00000380: 430a 48be 5000 773e ef37 b83e 958e ce3e
00000390: 32cd 3b3d ccff 503e 7ece 823e f7a2 873d
000003a0: f7f3 5f3e a8bf 5dbe 81ce a9be bfb9 2e3e
000003b0: 1bf9 ce3d 30cd 8d3d f11b 82be 07a1 63be
000003c0: c4d6 71bd 6b4b fcbe 21e6 ffbd bbdc 73bf
000003d0: 5389 773e 50d9 77bd acac d8be 726a 25be
000003e0: 6fbd c0be 6cae e5be 3a7d 54be 00c8 0cbe
000003f0: 3355 f9bd be4d 8f3e a2e8 83be 6f69 df3b

bias f4 [32]
0.03337999 -0.15040055 -0.017732915 0.057203837 -0.018561987 -0.2112442 -0.06780434 -0.11493406
-0.09787354 -0.099977 -0.009287204 0.033931136 0.014828811 -0.044835255 -0.031406384 -0.07726723
-0.025923612 -0.14118144 -0.034579575 -0.11745864 -0.15731756 -0.10987592 -0.0030172737 0.0073684724
-0.14211199 0.00039354272 0.06094572 -0.09847887 -0.13560002 -0.01605882 -0.09553748 -0.07673389
00000000: 75b9 083d 9a02 1abe 9e44 91bc 924e 6a3d
00000010: 4f0f 98bc 6650 58be 00dd 8abd 8c62 ebbd
00000020: ec71 c8bd bec0 ccbd 5b29 18bc 60fb 0a3d
00000030: 8bf4 723c 2ca5 37bd fba3 00bd 483e 9ebd
00000040: c15d d4bc de91 10be 50a3 0dbd 288e f0bd
00000050: db17 21be a006 e1bd 74bd 45bb 3a73 f13b
00000060: ce85 11be 6954 ce39 38a2 793d 4aaf c9bd
00000070: bbda 0abe c98d 83bc 28a9 c3bd a826 9dbd

weight f4 [64, 32, 3, 3]
-0.16545588 0.0682807 -0.12797576 0.024755672 -0.057593074 -0.06784508 0.046504278 0.0925656
0.042266592 -0.090118155 -0.0048074448 0.055111397 0.034491554 0.13331617 -0.27871 -0.04993923
-0.018535566 0.015882285 -0.10591792 0.014158858 -0.20351326 0.110422045 0.12748188 -0.22570612
-0.06637063 0.0518477 -0.1525477 0.04811645 -0.07499443 0.044549458 0.06454451 0.0080570225
0.066730104 -0.21118608 -0.35249197 0.01823231 0.01723554 0.24818115 -0.15261862 0.029131094
-0.101182885 0.00858513 0.10214732 0.0972815 -0.1559979 -0.01638278 0.0014885408 -0.13586037
-0.033050068 -0.028545784 -0.02565017 -0.047797043 0.12835036 -0.19599254 0.015296122 -0.0914158
-0.14576498 -0.21067618 0.010975585 -0.09921706 -0.15324683 0.1260494 -0.12804107 0.033163518
0.027167626 0.060187813 0.07016081 -0.07856892 0.02326685 -0.02972495 -0.02812464 0.09258579
-0.091068715 -0.15720141 -0.10445722 -0.082841754 0.022547511 -0.074532025 -0.30046645 -0.08007202
0.037215002 -0.050087336 0.02398157 0.0025316777 0.15953436 -0.094919175 -0.011823712 -0.18887322
0.016651971 -0.12592533 0.015742961 -0.11282782 -0.039108414 -0.07009929 -0.062049128 0.07471692
-0.07003743 -0.07802378 0.102302365 -0.10808372 -0.057335272 -0.011354319 0.081852354 -0.1557494
0.05783985 0.116011344 -0.038826413 0.103716 0.14676528 0.23682237 0.09378388 0.20061359
-0.034144294 0.23624338 -0.09549963 -0.08416693 -0.02911323 -0.1682265 -0.023284914 0.015065963
-0.19122611 0.02101668 0.047385678 -0.092367224 -0.016307592 -0.15857208 -0.10954664 -0.12848747
-0.20319556 -0.0026301434 0.045407463 -0.074313715 -0.16668011 -0.14424698 -0.24107592 -0.13920306
0.04699199 -0.20448779 0.04907421 0.045443438 -0.06517714 -0.12823913 -0.06822487 0.023238169
0.08922142 -0.07713177 0.059649866 -0.040729925 -0.22175498 -0.0050188424 0.22545353 0.015604884
0.08576504 -0.14745414 -0.03666199 -0.18120012 -0.18857922 -0.02533048 -0.1548197 -0.007974411
0.073058285 0.09805578 -0.02737638 -0.060843345 -0.15634426 0.03125335 -0.024302157 -0.21079208
-0.060141575 -0.039338246 0.0015383887 -0.08511629 0.082565345 -0.0984663 0.06659772 0.082664765
0.055461217 0.2268217 0.059708774 0.0480527 0.07906038 -0.01648579 -0.20798291 0.08856626
-0.047301352 -0.10600948 -0.06785806 -0.02371283 -0.027070433 0.07182935 -0.13838933 0.016253812
0.1812223 0.05490622 -0.0013387282 0.048456486 -0.03060345 -0.18447837 0.046908386 0.16598126
0.08727867 -0.0059756855 0.0047444915 -0.09117491 0.12598436 -0.35036755 0.14878722 0.0503896
-0.09327555 -0.06612614 -0.16277435 0.07668266 -0.041312944 0.11305246 -0.22058727 0.043558426
-0.0618781 -0.09304812 -0.19686158 0.0012484125 -0.07845164 -0.059154086 -0.19906797 -0.12036496
-0.06558659 0.10989032 -0.06720797 -0.019292774 0.043606736 -0.034532182 -0.011768826 -0.07905203
0.07922125 0.22407313 0.028237237 -0.053000867 -0.07672111 0.085678644 0.02302898 2.9927845e-05
-0.11099806 0.12917401 -0.005880874 -0.0060891695 -0.09466941 -0.15147157 0.0087744 -0.023327831
-0.050221726 -0.044976342 -0.15964837 -0.0063728387 0.06973712 0.11700152 -0.031467523 -0.115166284
00000000: 446d 29be c0d6 8b3d 140c 03be 68cc ca3c
00000010: b7e6 6bbd 5cf2 8abd 457b 3e3d 0993 bd3d
00000020: bc1f 2d3d de8f b8bd c587 9dbb 7dbc 613d
00000030: 0447 0d3d 0984 083e 14b3 8ebe 148d 4cbd
00000040: e6d7 97bc 911b 823c 7feb d8bd 8efa 673c
00000050: c865 50be f424 e23d 9c8a 023e 811f 67be
00000060: 53ed 87bd 415e 543d 7735 1cbe c115 453d
00000070: ae96 99bd 7e79 363d e92f 843d 9a01 043c
00000080: cba9 883d 2a41 58be d479 b4be ed5b 953c
00000090: 8c31 8d3c 3323 7e3e 0e48 1cbe 55a4 ee3c
000000a0: f938 cfbd a5a8 0c3c 9d32 d13d 863b c73d
000000b0: eabd 1fbe 2e35 86bc 241b c33a fb1e 0bbe
000000c0: 825f 07bd d9d8 e9bc 4e20 d2bc d5c6 43bd
000000d0: 476e 033e 45b2 48be 969c 7a3c 3538 bbbd
000000e0: 6a43 15be 7fbb 57be f1d2 333c 5032 cbbd
000000f0: bdec 1cbe 1813 013e 331d 03be 78d6 073d
00000100: a48e de3c 7f87 763d 79b0 8f3d bee8 a0bd
00000110: 1f9a be3c bd81 f3bc a565 e6bc 9e9d bd3d
00000120: 3c82 babd 68f9 20be abed d5bd f0a8 a9bd
00000130: 8fb5 b83c 3fa4 98bd bdd6 99be cdfc a3bd
00000140: c26e 183d 6128 4dbd ff74 c43c 81ea 253b
00000150: fa5c 233e fc64 c2bd 3eb8 41bc fb67 41be
00000160: b769 883c 92f2 00be 62f7 803c 4612 e7bd
00000170: 2530 20bd 3790 8fbd 3a27 7ebd 2f05 993d
00000180: c96f 8fbd eeca 9fbd e783 d13d ff5a ddbd
00000190: 64d8 6abd 7707 3abc 35a2 a73d c57c 1fbe
000001a0: 7be9 6c3d 5b97 ed3d 7208 1fbd 0e69 d43d
000001b0: a349 163e 9081 723e c311 c03d a66d 4d3e
000001c0: e3da 0bbd c9e9 713e 4f95 c3bd b65f acbd
000001d0: de7e eebc 9143 2cbe 01c0 bebc 3bd7 763c
000001e0: c7d0 43be 2c2b ac3c 7c17 423d 072b bdbd
000001f0: 8097 85bc b860 22be fd59 e0bd 3892 03be
00000200: 7f12 50be 7c5e 2cbb 2dfd 393d ca31 98bd
00000210: 31ae 2abe 7bb5 13be 9bdc 76be 3f8b 0ebe
00000220: ac7a 403d 3f65 51be 0a02 493d e622 3a3d
00000230: 987b 85bd 1e51 03be 7bb9 8bbd f95d be3c
00000240: b8b9 b63d 43f7 9dbd 6b53 743d 6cd4 26bd
00000250: bd13 63be 1a75 a4bb 4add 663e a1ab 7f3c
00000260: 95a5 af3d 38fe 16be e22a 16bd 868c 39be
00000270: e91a 41be de81 cfbc 0e89 1ebe 1ba7 02bc
00000280: 959f 953d 78d1 c83d 6e44 e0bc df36 79bd
00000290: b618 20be 8303 003d 5115 c7bc e1d9 57be
000002a0: 0357 76bd 2421 21bd c2a3 c93a 7351 aebd
000002b0: 0518 a93d b3a8 c9bd 6364 883d 254c a93d
000002c0: 4d2b 633d f343 683e 3091 743d e8d2 443d
000002d0: 69ea a13d 350d 87bc 79f9 54be 3a62 b53d
000002e0: 10bf 41bd 801b d9bd 2bf9 8abd 6941 c2bc
000002f0: d0c2 ddbc 441b 933d efb5 0dbe b726 853c
00000300: 5792 393e 58e5 603d 4478 afba 4f7a 463d
00000310: 16b4 fabc e6e7 3cbe 0223 403d fef6 293e
00000320: 29bf b23d afcf c3bb ae77 9b3b e9b9 babd
00000330: 0b02 013e 6063 b3be ad5b 183e 5365 4e3d
00000340: 4007 bfbd 246d 87bd 52ae 26be cc0b 9d3d
00000350: c337 29bd 0c88 e73d a1e1 61be 526a 323d
00000360: e473 7dbd 0390 bebd 1596 49be c6a1 a33a
00000370: 41ab a0bd 8e4b 72bd 79d8 4bbe e781 f6bd
00000380: 4352 86bd 2d0e e13d 55a4 89bd e10b 9ebc
00000390: fa9c 323d 9e71 0dbd 09d2 40bc 08e6 a1bd
000003a0: c03e a23d 6d73 653e c751 e73c 7017 59bd
000003b0: f51f 9dbd 4978 af3d 45a7 bc3c 8f0d fb37
000003c0: f352 e3bd 3146 043e 59b4 c0bb a887 c7bb
000003d0: 09e2 c1bd 5d1b 1bbe 80c2 0f3c 021a bfbc
000003e0: 4cb5 4dbd 1d39 38bd dd7a 23be 3fd3 d0bb
000003f0: 56d2 8e3d 7e9e ef3d 17e4 00bd 4ddc ebbd

bias f4 [64]
-0.05860739 -0.03258333 -0.11817998 -0.014785482 -0.05657555 -0.021173192 -0.070185006 -0.049029134
-0.025435684 -0.07357123 0.00938885 -0.017698973 -0.10355443 -0.09117096 -0.031037819 -0.092201985
-0.07289044 -0.012587755 -0.07938057 -0.06330387 -0.06568067 -0.018221341 -0.018571457 -0.008198138
-0.079078816 -0.08032446 -0.12136208 -0.027138542 -0.03729157 -0.028636834 -0.037226062 -0.049745027
-0.027352402 -0.053837467 -0.10107932 -0.049545772 -0.030153882 -0.0071038734 -0.07301351 0.0022048168
-0.04178464 -0.041302636 -0.037244935 -0.023968007 -0.019208446 -0.010655479 -0.01673975 -0.025343593
-0.07851646 -0.03449115 -0.0028222294 0.002116514 -0.04197578 -0.17426914 -0.038577262 -0.0754524
-0.090737216 -0.052853897 -0.045423154 -0.01463279 -0.057141796 -0.07444666 -0.075042605 -0.04750263
00000000: 4d0e 70bd 1976 05bd 5808 f2bd ce3e 72bc
00000010: c4bb 67bd 6773 adbc 28bd 8fbd c6d2 48bd
00000020: 7f5e d0bc 83ac 96bd b1d3 193c 70fd 90bc
00000030: 5814 d4bd d7b7 babd 0643 febc 65d4 bcbd
00000040: 9547 95bd df3c 4ebc 4892 a2bd 76a5 81bd
00000050: 9683 86bd ec44 95bc 2b23 98bc 7c51 06bc
00000060: 13f4 a1bd 2781 a4bd af8c f8bd a651 debc
00000070: 0cbf 18bd cb97 eabc 5b7a 18bd 71c1 4bbd
00000080: 2512 e0bc ad84 5cbd ad02 cfbd 82f0 4abd
00000090: 4605 f7bc 9cc7 e8bb 1b88 95bd b07e 103b
000000a0: 5f26 2bbd f42c 29bd 258e 18bd 8e58 c4bc
000000b0: 085b 9dbc 5194 2ebc cd21 89bc 5e9d cfbc
000000c0: 3dcd a0bd 9846 0dbd 27f5 38bb 36b5 0a3b
000000d0: ccee 2bbd 9c73 32be 3103 1ebd ca86 9abd
000000e0: 6fd4 b9bd 547d 58bd a10d 3abd 5fbe 6fbc
000000f0: 840d 6abd 7e77 98bd f0af 99bd 1e92 42bd

weight f4 [32, 2304]
-0.049796257 -0.078081526 0.051201504 0.037991237 0.12111325 0.11592294 -0.009406857 0.023922566
-0.057517543 0.06541812 2.2735565e-05 -0.04209018 0.10686729 -0.10276075 0.02389115 0.03722594
-0.011057173 0.0378918 -0.08973608 -0.042837817 -0.07054827 -0.014640522 0.0074781524 0.033527836
-0.10029931 0.10218278 0.0058202604 -0.047689706 0.0049433457 0.10962419 -0.05174566 -0.15490374
0.025462067 0.077715 -0.15081432 0.04904592 -0.13272078 -0.11672992 0.14540797 -0.059091974
0.039929748 -0.14033449 -0.10845809 0.006655073 -0.051018335 -0.13401642 0.09343262 -0.19740523
-0.13033101 0.050074287 0.08526705 0.13160507 0.23220861 -0.20399702 -0.055447847 0.085492894
0.0798377 0.000120417135 0.019501058 -0.23054151 0.032903377 0.03834079 0.23815607 0.04796361
0.013230489 -0.07364587 0.14705807 0.035857547 0.011115909 -0.020987255 0.029981783 -0.09130077
-0.030049268 0.105465226 -0.22395681 -0.102153696 0.14461009 0.07203329 -0.080700114 -0.07891653
-0.0019435983 0.13969757 0.1771361 0.033591114 -0.032038987 -0.17180797 -0.12192203 0.14578219
-0.10012203 0.05263952 0.06941702 0.06994666 -0.06335527 0.031259697 0.06129355 -0.082681075
0.06095938 0.18414216 -0.11000365 -0.064591944 0.044759072 -0.0013650222 0.17678419 -0.018908612
-0.03234539 -0.01032626 -0.14087577 -0.065581836 -0.09682468 0.013463377 -0.16509078 -0.13077609
-0.07925313 -0.004865794 0.07108808 0.008408642 0.0037702092 -0.05753007 0.20608822 -0.044173066
0.030477408 0.00093568343 -0.13459533 0.04250063 -0.0435437 0.060611866 -0.121215194 0.009685229
-0.0005161331 0.022321176 0.046057392 -0.03659751 -0.0023563441 -0.064098194 -0.04558146 -0.08267815
0.05679369 -0.037006494 -0.074465655 -0.042377356 -0.11038267 -0.06648067 -0.24189968 0.09788232
-0.18374643 0.022471108 -0.06618195 0.06826602 0.29590684 0.034386825 0.13131012 0.074826084
0.13752474 -0.004427862 0.1229604 0.0054259677 0.08582767 0.09782394 -0.03984194 0.10127974
0.05123498 0.21069475 -0.066330865 -0.06530378 -0.14518844 0.05362443 0.0801705 0.049610134
-0.13978392 -0.075424984 -0.041031476 0.17353624 0.080865845 0.16459915 -0.05288966 -0.11250533
0.06309567 -0.083891995 0.04728141 0.18489565 -0.24359602 -0.14748475 0.07508803 0.041032806
-0.10789213 -0.06994135 0.047508694 0.14484727 -0.011395656 -0.1521063 0.04127261 -0.028132489
-0.2107463 -0.034965206 -0.046501603 -0.06701279 0.03590178 0.048244838 -0.110556506 -0.14344923
-0.09027246 -0.0391516 0.05002073 -0.14370064 -0.15562885 -0.004079495 -0.07796266 -0.012669587
-0.056253273 0.10417481 -0.2021907 -0.16953059 -0.12853396 0.032931264 -0.002674003 0.0759307
0.1354998 0.006258372 -0.2977352 -0.05783304 0.032418456 0.071312144 -0.042223696 0.030634128
0.12077861 0.034770086 -0.015945729 -0.029906074 0.08934771 -0.035951186 0.060153566 -0.16762018
0.10822306 0.07541991 0.10451802 -0.047017924 0.106708065 -0.033396404 0.11244808 0.18211304
-0.0034102532 0.13350183 -0.0008708985 0.103186436 -0.0024788873 -0.24214958 0.30077583 0.38977814
-0.028145699 0.4369594 -0.2792969 0.10041083 -0.20593318 -0.1734605 0.07053898 -0.21111853
00000000: 29f7 4bbd 35e9 9fbd abb8 513d b39c 1b3d
00000010: 390a f83d 0269 ed3d 381f 1abc 42f9 c33c
00000020: 8497 6bbd eff9 853d 41b8 be37 c166 2cbd
00000030: 3ddd da3d 3a74 d2bd 5fb7 c33c 3a7a 183d
00000040: 2529 35bc 6f34 1b3d 8dc7 b7bd b576 2fbd
00000050: 9d7b 90bd cdde 6fbc 4a0b f53b 7c54 093d
00000060: ba69 cdbd 3545 d13d e2b7 be3b 4856 43bd
00000070: cafb a13b a682 e03d 42f3 53bd 169f 1ebe
00000080: d395 d03c 0b29 9f3d 126f 1abe 60e4 483d
00000090: f5e7 07be 1910 efbd d4e5 143e 6d0a 72bd
000000a0: 608d 233d d8b3 0fbe 461f debd cc12 da3b
000000b0: 9af8 50bd 9a3b 09be 9a59 bf3d 9924 4abe
000000c0: 7e75 05be b21a 4d3d 7ea0 ae3d 7bc3 063e
000000d0: 18c8 6d3e 98e4 50be 481d 63bd e616 af3d
000000e0: f381 a33d 7588 fc38 afc0 9f3c 1313 6cbe
000000f0: b1c5 063d 3b0b 1d3d 2fdf 733e 7e75 443d
00000100: b1c4 583c a5d3 96bd 6496 163e 5ddf 123d
00000110: 801f 363c 77ed abbc 5b9c f53c e6fb babd
00000120: e229 f6bc 27fe d73d ef54 65be f535 d1bd
00000130: ab14 143e 3186 933d 1a46 a5bd fd9e a1bd
00000140: 56c0 feba e10c 0f3e 2a63 353e d696 093d
00000150: 503b 03bd 6eee 2fbe 42b2 f9bd ed47 153e
00000160: c70c cdbd 8a9c 573d 832a 8e3d 3240 8f3d
00000170: 68c0 81bd 2b0a 003d f20e 7b3d b254 a9bd
00000180: 8bb0 793d c38f 3c3e 9849 e1bd c848 84bd
00000190: 4a55 373d 8bea b2ba ea06 353e 3ce6 9abc
000001a0: 9a7c 04bd 792f 29bc bd41 10be c54f 86bd
000001b0: 054c c6bd 7f95 5c3c 8f0d 29be 2bea 05be
000001c0: 774f a2bd 3d71 9fbb a196 913d 67c4 093c
000001d0: 9d15 773b a7a4 6bbd ca08 533e d1ee 34bd
000001e0: c2ab f93c a748 753a 5cd3 09be 2415 2e3d
000001f0: e15a 32bd 2644 783d ac3f f8bd cbae 1e3c
00000200: 1b4d 07ba e6da b63c ada6 3c3d 45e7 15bd
00000210: e56c 1abb ea45 83bd a0b3 3abd 2953 a9bd
00000220: 80a0 683d 1f94 17bd 7381 98bd e193 2dbd
00000230: 4f10 e2bd 0427 88bd 8db4 77be 8776 c83d
00000240: 0628 3cbe 5415 b83c 678a 87bd 0ecf 8b3d
00000250: 1a81 973e 33d9 0c3d 2976 063e 6b3e 993d
00000260: 49d3 0c3e 9917 91bb aad2 fb3d 51cc b13b
00000270: 6bc6 af3d eb57 c83d 4d31 23bd c16b cf3d
00000280: c5db 513d 5dc0 573e 7ad8 87bd fdbd 85bd
00000290: 47ac 14be 4aa5 5b3d 6e30 a43d ff33 4b3d
000002a0: 8423 0fbe 6a78 9abd 9f10 28bd 7cb3 313e
000002b0: fe9c a53d ae8c 283e d4a2 58bd 3269 e6bd
000002c0: 4d38 813d 91cf abbd 27aa 413d 4955 3d3e
000002d0: 3c71 79be 3e06 17be c1c7 993d 0412 283d
000002e0: 8df6 dcbd 693d 8fbd 7a98 423d d852 143e
000002f0: d8b4 3abc c1c1 1bbe 780d 293d 1b76 e6bc
00000300: e1cd 57be ad37 0fbd 7778 3ebd 003e 89bd
00000310: bf0d 133d 619c 453d 736b e2bd 5be4 12be
00000320: c4e0 b8bd 6e5d 20bd 89e2 4c3d 4326 13be
00000330: 2b5d 1fbe 49ad 85bb e3aa 9fbd 1994 4fbc
00000340: d569 66bd 9a59 d53d 140b 4fbe 6d99 2dbe
00000350: 689e 03be efe2 063d 533e 2fbb 8e81 9b3d
00000360: 76c0 0a3e 0813 cd3b c070 98be 56e2 6cbd
00000370: 37c9 043d 1a0c 923d c1f2 2cbd 6cf4 fa3c
00000380: c75a f73d 146b 0e3d 9ea0 82bc 95fd f4bc
00000390: effb b63d 8d41 13bd 9663 763d a0a4 2bbe
000003a0: 0da4 dd3d c175 9a3d 8b0d d63d de95 40bd
000003b0: c289 da3d abca 08bd 2e4b e63d d77b 3a3e
000003c0: 8e7e 5fbb b4b4 083e 024d 64ba 6953 d33d
000003d0: d474 22bb 0ff6 77be 4aff 993e 0091 c73e
000003e0: cf91 e6bc 24b9 df3e 0100 8fbe 31a4 cd3d
000003f0: 26e0 52be a19f 31be be76 903d 752f 58be

bias f4 [32]
-0.051104087 0.064467885 -0.06570748 0.087675124 -0.030641876 0.10503032 -0.04816182 0.14268869
0.057894632 0.14762239 -0.19142532 0.013083178 0.040725913 -0.030032272 -0.16424799 0.10582836
0.066953935 0.12001543 0.029197063 -0.10174664 -0.08939736 -0.2158857 -0.036231723 0.14543314
-0.018222257 -0.020428736 -0.07861208 0.0013295839 0.016571352 0.082708605 0.10136666 0.08131434
00000000: 8552 51bd bd07 843d a591 86bd 048f b33d
00000010: ac04 fbbc 231a d73d 5445 45bd fc1c 123e
00000020: ec22 6d3d 532a 173e 0005 44be d35a 563c
00000030: 37d0 263d 3d06 f6bc a030 28be 8abc d83d
00000040: 251f 893d a6ca f53d ae2e ef3c 8b60 d0bd
00000050: f715 b7bd 2411 5dbe b767 14bd 6dec 143e
00000060: d846 95bc 2a5a a7bc 5fff a0bd 6f45 ae3a
00000070: a5c0 873c 2163 a93d 5399 cf3d 2288 a63d

weight f4 [32, 2]
0.30127507 -0.22173753 0.74826986 0.12529404 -0.31585246 -0.6723718 0.38208377 0.18117753
0.44273 0.04620608 -0.24774247 0.41834944 -0.13287587 0.48939744 -0.20010583 -0.5450966
-0.42682296 0.31292433 0.2086808 -0.42465064 -0.14697906 -0.23527765 0.24247941 0.18401107
0.29673335 0.5382529 0.26657346 -0.42943102 -0.23381916 0.8049385 -0.26811594 -0.02105397
0.50308985 -0.5964606 0.52879053 0.18289872 0.36423928 0.36330125 -0.08422071 -0.13596056
0.3091544 0.2113455 -0.41807878 -0.016647805 -0.06659469 -0.2336807 -0.18973596 0.38856477
0.15553947 0.2859744 -0.3363234 0.17517433 0.13530271 -0.34690693 -0.7561563 0.39264384
-0.13339098 -0.10913283 0.44236988 0.36763167 -0.23307507 0.45596942 0.036365006 0.5623702
00000000: ba40 9a3e 2a0f 63be 9d8e 3f3f 154d 003e
00000010: 6ab7 a1be 8f20 2cbf 7ca0 c33e 9a86 393e
00000020: 82ad e23e 9642 3d3d 34b0 7dbe e631 d63e
00000030: 9d10 08be 4d92 fa3e 8be8 4cbe 738b 0bbf
00000040: 8a88 dabe 9e37 a03e 6bb0 553e cf6b d9be
00000050: ae81 16be a0ec 70be 864c 783e 666d 3c3e
00000060: 6fed 973e f1ca 093f 517c 883e 62de dbbe
00000070: 4a6e 6fbe 7310 4e3f 7e46 89be 6079 acbc
00000080: 7fca 003f a4b1 18bf d15e 073f cd49 3b3e
00000090: 927d ba3e 9f02 ba3e e87b acbd 3f39 0bbe
000000a0: 7c49 9e3e f46a 583e 6c0e d6be fa60 88bc
000000b0: cc62 88bd fe49 6fbe 254a 42be f6f1 c63e
000000c0: bd45 1f3e 3d6b 923e 9532 acbe e660 333e
000000d0: cb8c 0a3e c99d b1be 7693 41bf 9d08 c93e
000000e0: a597 08be 0881 dfbd 4e7e e23e 383a bc3e
000000f0: 3bab 6ebe d374 e93e 79f3 143d 7ef7 0f3f

bias f4 [32]
0.07464153 -0.051436577 0.0 -0.109683394 -0.02166254 0.11804605 0.023956072 0.0
0.29743442 0.23660788 0.0 -0.13065745 -0.16226438 0.22061126 0.06886411 0.0
0.2395265 -0.09714357 -0.19815937 0.0 -0.15432869 0.0 0.0 -0.009563142
-0.12662683 0.29562455 0.24059317 0.22888416 0.0 -0.17928424 0.09196873 -0.003439984
00000000: a9dd 983d 29af 52bd 0000 0000 b0a1 e0bd
00000010: a475 b1bc 21c2 f13d 863f c43c 0000 0000
00000020: 5349 983e 5649 723e 0000 0000 11cb 05be
00000030: a228 26be ebe7 613e a008 8d3d 0000 0000
00000040: 6f46 753e 35f3 c6bd 4aea 4abe 0000 0000
00000050: 5708 1ebe 0000 0000 0000 0000 baae 1cbc
00000060: 77aa 01be 1a5c 973e 0e5e 763e 9c60 6a3e
00000070: 0000 0000 4a96 37be 1a5a bc3d 5b71 61bb

weight f4 [32, 1]
-0.29559505 -0.0027609088 0.05520609 0.2548193 0.5617108 0.021380324 0.016992744 -0.27593207
-0.012964944 -0.026824333 -0.19257453 -0.18129142 -0.2111521 -0.3788782 -0.40377855 0.47573677
-0.3605899 -0.48537365 0.01777939 0.30345887 -0.12248955 -0.108506694 0.27488965 -0.074469425
0.3048513 0.4674164 -0.24978913 0.22631288 0.34675476 -0.14561653 0.31462154 0.36223263
00000000: 3c58 97be 5df0 34bb c81f 623d ad77 823e
00000010: 47cc 0f3f ca25 af3c 5e34 8b3c f846 8dbe
00000020: eb6a 54bc b4be dbbc 4232 45be 75a4 39be
00000030: 4238 58be 53fc c1be 10bc cebe c593 f33e
00000040: 3d9f b8be e582 f8be 15a6 913c f65e 9b3e
00000050: cddb fabd c238 debd 56be 8c3e 6d83 98bd
00000060: 7815 9c3e 3451 ef3e b9c8 7fbe 90be 673e
00000070: d789 b13e 801c 15be 1316 a13e 8e76 b93e

bias f4 [32]
0.0 -0.002952391 -0.05588642 0.0021533521 0.002205028 -0.023206772 -0.01820894 0.0
0.0 0.0 0.0 0.0 0.0 0.0 0.0 0.0014406351
0.0 0.0 -0.01959104 0.0021895845 0.0 0.0 0.0020281796 0.0
0.0020968511 0.0020042313 0.0 0.0021449416 0.0021079087 0.0 0.00216883 0.0020598876
00000000: 0000 0000 e77c 41bb 29e9 64bd 411f 0d3b
00000010: 3b82 103b 211c bebc ea2a 95bc 0000 0000
00000020: 0000 0000 0000 0000 0000 0000 0000 0000
00000030: 0000 0000 0000 0000 0000 0000 b1d3 bc3a
00000040: 0000 0000 0000 0000 647d a0bc 227f 0f3b
00000050: 0000 0000 0000 0000 35eb 043b 0000 0000
00000060: 536b 093b 6c59 033b 0000 0000 2692 0c3b
00000070: d724 0a3b 0000 0000 ee22 0e3b 2eff 063b

weight f4 [256, 96]
0.14677517 -0.0021971827 0.016050493 0.07305892 -0.024869861 -0.017174173 -0.10085664 -0.027178964
0.1787005 0.109502696 0.036189567 0.06312097 0.10515511 0.17598067 -0.009528741 -0.1312343
0.16449438 -0.20725499 0.21765894 -0.15143797 -0.022277921 0.028785223 0.08403373 -0.10155885
0.1526461 -0.032639805 0.12715167 -0.047363967 0.12405881 0.063048474 0.10945766 -0.14238508
0.09726005 0.18424015 0.07050094 0.022746472 0.17481674 -0.35083306 -0.29808605 -0.06320416
-0.3427584 0.33148423 0.016332058 0.13733986 -0.0056548472 0.26403055 -0.33528456 -0.08929991
0.37892503 -0.004806783 -0.04839226 -0.0497117 0.10285448 0.062024496 -0.04098375 -0.28150848
-0.029198319 -0.21481259 0.18108647 -0.4362672 0.032151543 -0.09740215 -0.2913826 -0.172352
0.086668186 -0.028328693 0.015972355 -0.20428872 -0.14337575 0.0031898855 -0.038505808 -0.055111777
0.019394258 -0.053026386 0.08839367 0.02348978 -0.0007829789 0.05471986 -0.07322556 -0.28894386
0.086440876 0.093798324 0.039539076 -0.29175356 -0.03466551 0.01784116 -0.22811157 0.0063859485
-0.15258574 -0.12193524 -0.05047677 -0.17871262 -0.27764568 0.060689878 -0.14248392 -0.21169883
0.11855727 -0.0004193122 -0.10506161 -0.06255988 0.09811831 -0.111143805 -0.19948514 -0.021028724
0.26645035 0.07105833 -0.0745515 0.1470375 0.09038711 0.22393323 0.08044031 -0.13042453
0.04903339 -0.15700613 0.17938049 -0.031916864 0.019783737 -0.029269146 0.047458712 -0.048323013
0.07507101 0.010281644 -0.025604818 0.10893201 0.026091006 0.05312626 0.064385906 -0.12786527
0.17743824 0.16458952 -0.07717297 0.06642322 0.16657637 -0.3485165 -0.20277515 0.05779076
-0.24688926 0.33696753 -0.08920029 0.05892156 -0.04558386 0.29158986 -0.36516908 0.0048572333
0.3394037 0.07031827 0.015207315 0.09561327 0.08983787 -0.06423203 0.09494086 -0.2196861
0.065648526 -0.19382906 0.2350936 -0.43969986 -0.07567921 0.070159286 -0.27193266 -0.16432227
-0.037369777 -0.08426566 0.03701858 -0.13366723 -0.1878043 0.039165664 -0.018479718 -0.00079812645
0.09258906 0.008045894 0.06679649 -0.07792772 0.0890818 0.05472137 -0.03319915 -0.13862793
0.024785781 -0.101181924 0.050912865 -0.18797484 -0.05888936 0.061100516 -0.27954102 0.03959398
-0.17405097 -0.22586274 0.072087675 -0.18104559 -0.29212514 0.0716336 -0.2288541 -0.11186622
-0.1452606 0.006799187 0.08057972 0.10755276 0.042095494 0.14517367 0.22809112 0.115767
-0.12820484 -0.097613715 -0.07579339 -0.11381201 -0.16251676 -0.035219546 -0.07078805 0.10476916
-0.22426419 0.23270996 -0.1527345 0.10794427 -0.14239696 -0.04006427 -0.0032430908 0.14941514
-0.10367702 -0.0013417146 -0.12403606 0.09437223 -0.147492 -0.0042054337 -0.043484982 -0.0023410406
-0.1543643 -0.19967985 0.022171415 -0.16449343 -0.09681448 0.2867746 0.23795111 -0.023048224
0.42689058 -0.29111737 0.07949463 -0.08118222 -0.057739448 -0.28864047 0.33097765 0.033414986
-0.3329427 -0.180532 -0.08004327 -0.0038947829 -0.0992728 -0.07735349 0.027941301 0.23770107
-0.00075935083 0.35456777 -0.306757 0.57612807 -0.04017201 -0.18797955 0.34305784 0.2526379
00000000: 3b4c 163e 9cfe 0fbb 537c 833c ea9f 953d
00000010: e1bb cbbc dab0 8cbc ed8d cebd 6ba6 debc
00000020: 44fd 363e f342 e03d 833b 143d 9145 813d
00000030: 905b d73d 4734 343e 701e 1cbc 4962 06be
00000040: 3771 283e a73a 54be fce1 5e3e 8e12 1bbe
00000050: 3080 b6bc fdce eb3c e019 ac3d 16fe cfbd
00000060: 424f 1c3e 51b1 05bd 0c34 023e b800 42bd
00000070: 8c12 fe3d 8f1f 813d 562b e03d 65cd 11be
00000080: 4730 c73d 73a9 3c3e cc62 903d cf56 ba3c
00000090: 2903 333e 64a0 b3be bc9e 98be 2f71 81bd
000000a0: 077e afbe 4db8 a93e cfca 853c d2a2 0c3e
000000b0: 4c4c b9bb 032f 873e 6baa abbe dfe2 b6bd
000000c0: 7602 c23e 3882 9dbb f636 46bd 7f9e 4bbd
000000d0: 5fa5 d23d 660d 7e3d 94de 27bd e121 90be
000000e0: 5031 efbc d5f7 5bbe bb6e 393e 6a5e dfbe
000000f0: 56b1 033d c77a c7bd 1a30 95be 0b7d 30be
00000100: 177f b13d 9311 e8bc 75d8 823c 1031 51be
00000110: 18d1 12be 660d 513b 44b8 1dbd e3bc 61bd
00000120: b5e0 9e3c 3232 59bd be07 b53d a46d c03c
00000130: d340 4dba ef21 603d 48f7 95bd 73f0 93be
00000140: ea07 b13d 5619 c03d baf3 213d b960 95be
00000150: 6cfd 0dbd a027 923c 1496 69be 3841 d13b
00000160: 703f 1cbe 2fb9 f9bd bbc0 4ebd 7100 37be
00000170: 9327 8ebe f395 783d 4ee7 11be 94c7 58be
00000180: 27ce f23d 21d7 dbb9 8b2a d7bd 651f 80bd
00000190: 41f2 c83d 5d9f e3bd d545 4cbe 6e44 acbc
000001a0: 2e6c 883e 0887 913d 75ae 98bd 0091 163e
000001b0: e11c b93d c14e 653e e4bd a43d 028e 05be
000001c0: 3cd7 483d 37c6 20be 85af 373e 42bb 02bd
000001d0: 8111 a23c d9c5 efbc 1164 423d 5aee 45bd
000001e0: d4be 993d 5774 283c 32c1 d1bc bf17 df3d
000001f0: cebc d53c ec9a 593d c2dc 833d 1def 02be
00000200: 5fb2 353e 288a 283e dd0c 9ebd e608 883d
00000210: ff92 2a3e c170 b2be 4aa4 4fbe 01b6 6c3d
00000220: 8ad0 7cbe 0287 ac3e a4ae b6bd bc57 713d
00000230: 24b6 3abd 444b 953e 71f7 babe 6d29 9f3b
00000240: 52c6 ad3e 0603 903d 1a28 793c e4d0 c33d
00000250: ebfc b73d 158c 83bd 5b70 c23d 65f5 60be
00000260: bc72 863d 207b 46be 60bc 703e 5720 e1be
00000270: b4fd 9abd acaf 8f3d c23a 8bbe 1944 28be
00000280: 0d11 19bd 7993 acbd cba0 173d 10e0 08be
00000290: c54f 40be 2d6c 203d c762 97bc 5c39 51ba
000002a0: 559f bd3d edd2 033c 99cc 883d 9298 9fbd
000002b0: 8570 b63d 8423 603d d5fb 07bd 7bf4 0dbe
000002c0: 8d0b cb3c 7838 cfbd 028a 503d 7a7c 40be
000002d0: f835 71bd 8944 7a3d 0020 8fbe 4c2d 223d
000002e0: 6b3a 32be 9048 67be b4a2 933d 0464 39be
000002f0: 6d91 95be a3b4 923d bb58 6abe 1e1a e5bd
00000300: 32bf 14be b7cb de3b fb06 a53d 9f44 dc3d
00000310: 536c 2c3d 68a8 143e b890 693e 4017 ed3d
00000320: 2148 03be b3e9 c7bd 9139 9bbd 4516 e9bd
00000330: cb6a 26be 5f42 10bd 53f9 90bd 3791 d63d
00000340: 83a5 65be 854b 6e3e 6f66 1cbe e311 dd3d
00000350: 82d0 11be 6f1a 24bd 098a 54bb 4800 193e
00000360: 9e54 d4bd 79dc afba 9e06 febd 3a46 c13d
00000370: 2508 17be bccd 89bb 4f1d 32bd 256c 19bb
00000380: ad11 1ebe e078 4cbe d4a0 b53c f770 28be
00000390: ac46 c6bd 1fd4 923e 75a9 733e a1cf bcbc
000003a0: 6791 da3e 560d 95be 15ce a23d dd42 a6bd
000003b0: 3380 6cbd afc8 93be e775 a93e 27de 083d
000003c0: 7777 aabe 61dd 38be baed a3bd 9d3f 7fbb
000003d0: 8a4f cbbd 826b 9ebd 28e5 e43c e967 733e
000003e0: 2c0f 47ba e889 b53e 410f 9dbe 217d 133f
000003f0: 688b 24bd b67d 40be 47a5 af3e c159 813e

bias f4 [256]
-0.015290696 0.009668049 0.10379756 0.13274506 0.051955618 -0.027199615 -0.10750558 0.099515036
0.06183713 -0.057390027 -0.083298534 -0.06431108 0.0867022 -0.16020854 0.17196633 -0.051535394
0.101274304 -0.051905267 -0.12630488 -0.10951996 -0.014721922 0.06192164 0.15535434 -0.1950453
0.16288026 -0.1906975 0.20695837 -0.12157966 0.07978744 0.029489094 0.08227424 -0.1812829
0.14805394 -0.024719115 -0.18540251 0.16352206 0.15108731 -0.16098021 0.024922086 -0.06734674
0.05520669 0.020236123 -0.029851887 0.18470812 0.08092693 -0.03493641 -0.15776455 0.043327812
0.1757949 0.16529006 -0.076330304 0.15069917 0.08547571 -0.04330444 0.13606559 -0.16170627
-0.043714914 -0.082127675 0.075210385 -0.16938427 0.18573289 -0.19030349 -0.15016463 0.14495806
-0.09218999 0.20405485 0.17400834 -0.11000015 -0.10509503 0.11071058 -0.12955016 0.064980246
0.1288154 -0.16999885 0.16815338 0.13187747 -0.068012096 0.18510148 0.0859026 -0.1451991
0.13487792 -0.029076733 -0.19912353 0.12521568 0.12153584 0.1609057 -0.024985218 -0.17212753
-0.036457308 0.049891427 -0.08960847 -0.016092386 -0.16456173 0.14950825 -0.15444338 0.13202663
0.20812966 0.1195159 0.11099786 0.10515696 0.022482524 -0.006364316 -0.027829358 0.08520964
-0.17254113 -0.041095126 -0.17112698 -0.007171841 -0.18356578 -0.14513922 0.020889815 0.07313848
0.0110318 -0.13148268 0.11942 -0.06329003 -0.12922122 0.12360136 -0.17239264 -0.18072015
0.047662944 0.058145095 0.14693207 -0.17074426 0.018755166 -0.04552903 0.16377069 -0.19312905
0.08746474 -0.20198789 -0.15347864 -0.17956291 0.012636708 0.046618637 0.02238105 -0.066046946
0.041305088 -0.18238173 0.091664374 0.12338337 0.10233233 -0.034241773 0.016746106 -0.19278044
0.08842642 0.10294382 -0.0001074884 -0.15408477 -0.10383534 0.053798243 0.15933773 -0.102075465
0.162614 0.019244784 -0.016824668 0.020939259 -0.10158127 0.0012849835 0.10522759 0.06805835
-0.0063693384 0.09915065 0.063738175 -0.07776644 0.21256524 -0.19298863 -0.015601951 -0.106321506
-0.19638641 -0.05046709 0.013571029 -0.07382143 -0.026772793 -0.12572217 0.03752451 -0.061678927
-0.1616354 -0.055242483 0.18153505 0.0551521 -0.04277942 -0.1510126 0.020424873 0.16607933
-0.06461963 0.036291394 0.08928904 -0.16531217 0.009750198 -0.06895712 0.032373212 0.19678654
-0.032255854 -0.0084160855 -0.115947776 0.016258374 -0.14903237 0.12553695 0.12931526 0.046988267
-0.03000293 -0.060922593 0.09642007 0.06948786 -0.13521759 0.19846983 0.05813893 -0.07536645
0.14087462 -0.16852084 0.1324588 -0.05959212 -0.19139415 0.060403552 0.1694235 0.059717502
0.19051364 -0.161365 -0.20454253 0.16000882 -0.04641669 -0.16825487 -0.103635006 0.15208101
-0.03795737 -0.040555738 0.07101092 0.081898585 -0.091505155 -0.081582434 -0.06022185 -0.17940333
0.027417742 -0.08947343 0.008476421 0.13205864 0.12549032 0.04441804 0.034466833 0.04343716
-0.011127126 0.117454425 -0.035191868 -0.09170914 0.16682097 0.17908683 0.16068564 0.11073257
-0.20684332 0.17286327 0.16843854 0.15198983 0.112044126 -0.12918198 0.12958333 0.13832611
00000000: d485 7abc bd66 1e3c d193 d43d 52ee 073e
00000010: 6acf 543d bad1 debc e32b dcbd 8ace cb3d
00000020: ee48 7d3d ce11 6bbd 6c98 aabd 87b5 83bd
00000030: ec90 b13d b50d 24be f117 303e c716 53bd
00000040: e768 cf3d 9e9a 54bd 1156 01be 004c e0bd
00000050: 3734 71bc 8ca1 7d3d 3515 1f3e f5b9 47be
00000060: 15ca 263e 3546 43be e5ec 533e c2fe f8bd
00000070: 9967 a33d 1d93 f13c 667f a83d 39a2 39be
00000080: 749b 173e be7f cabc 28da 3dbe 5472 273e
00000090: a2b6 1a3e ffd7 24be 6729 cc3c 16ed 89bd
000000a0: 6920 623d 3ac6 a53c f28b f4bc 2024 3d3e
000000b0: 05bd a53d 7b19 0fbd 088d 21be 8178 313d
000000c0: 9403 343e cc41 293e 1053 9cbd e250 1a3e
000000d0: e40d af3d ff5f 31bd c754 0b3e 5496 25be
000000e0: 690e 33bd 8e32 a8bd e707 9a3d 1273 2dbe
000000f0: c330 3e3e ebde 42be c2c4 19be e36f 143e
00000100: 1bce bcbd c1f3 503e 3e2f 323e c247 e1bd
00000110: 103c d7bd 3bbc e23d cca8 04be 5d14 853d
00000120: 2fe8 033e 2e14 2ebe 6630 2c3e e30a 073e
00000130: ed49 8bbd 3e8b 3d3e b4ed af3d 13af 14be
00000140: 701d 0a3e 5432 eebc 0ae7 4bbe 8a38 003e
00000150: c8e7 f83d 77c4 243e cdad ccbc 3342 30be
00000160: 4254 15bd f45a 4c3d a584 b7bd 2ed4 83bc
00000170: df82 28be b118 193e 6826 1ebe fd31 073e
00000180: f11f 553e c1c4 f43d d952 e33d 885c d73d
00000190: 452d b83c c18b d0bb 65fa e3bc 6482 ae3d
000001a0: 9fae 30be 5d53 28bd e93b 2fbe c301 ebbb
000001b0: abf8 3bbe 609f 14be 1e21 ab3c a1c9 953d
000001c0: b9be 343c 65a3 06be 7992 f43d 349e 81bd
000001d0: 9152 04be b622 fd3d b287 30be b40e 39be
000001e0: 383a 433d 8d29 6e3d 5c75 163e 95d7 2ebe
000001f0: 6fa4 993c a67c 3abd 81b3 273e 9fc3 45be
00000200: b720 b33d ead5 4ebe 8129 1dbe 57df 37be
00000210: 320a 4f3c 2ff3 3e3d 7758 b73c 9f43 87bd
00000220: 862f 293d 47c2 3abe 88ba bb3d 6cb0 fc3d
00000230: 9d93 d13d 1a41 0cbd 212f 893c 3c68 45be
00000240: e918 b53d 36d4 d23d 656b e1b8 66c8 1dbe
00000250: 9fa7 d4bd 8c5b 5c3d 6e29 233e f10c d1bd
00000260: 4984 263e 3da7 9d3c e3d3 89bc cf88 ab3c
00000270: d709 d0bd e46c a83a 9081 d73d 2d62 8b3d
00000280: e2b5 d0bb 7f0f cb3d 2989 823d 0344 9fbd
00000290: b4aa 593e d09e 45be 539f 7fbc 17bf d9bd
000002a0: 8519 49be 94b6 4ebd 0559 5e3c b12f 97bd
000002b0: 9e52 dbbc 50bd 00be 4db3 193d 0ba3 7cbd
000002c0: c083 25be f145 62bd 53e4 393e 2be7 613d
000002d0: 7939 2fbd 0ca3 1abe 1052 a73c b310 2a3e
000002e0: 4c57 84bd 49a6 143d 2cdd b63d 9847 29be
000002f0: 4bbf 1f3c 6439 8dbd c699 043d 6982 493e
00000300: b71e 04bd 9fe3 09bc 0776 edbd 4830 853c
00000310: f19b 18be c28c 003e 386b 043e c576 403d
00000320: b4c8 f5bc f889 79bd e377 c53d a74f 8e3d
00000330: 7b76 0abe ad3b 4b3e 1623 6e3d ba59 9abd
00000340: 7041 103e ba90 2cbe 48a3 073e de16 74bd
00000350: d4fc 43be b769 773d 5b7d 2d3e 579a 743d
00000360: 0216 433e de3c 25be 9973 51be 5ad9 233e
00000370: 6d1f 3ebd 014b 2cbe 973e d4bd 20bb 1b3e
00000380: 3079 1bbd c61d 26bd 2c6e 913d 72ba a73d
00000390: 0e67 bbbd b114 a7bd 30ab 76bd 82b5 37be
000003a0: 2c9b e03c d83d b7bd b0e0 0a3c 613a 073e
000003b0: 8980 003e b1ef 353d 182d 0d3d 2aeb 313d
000003c0: 8d4e 36bc f28b f03d 5925 10bd 00d2 bbbd
000003d0: 1ed3 2a3e 8a62 373e c78a 243e c2c7 e23d
000003e0: bcce 53be 1203 313e 277b 2c3e 39a3 1b3e
000003f0: 6477 e53d 4848 04be 7eb1 043e 5ca5 0d3e

weight f4 [4, 256]
0.31585073 0.28230408 -0.44770762 -0.41109583 -0.15517989 -0.02352706 0.0018763617 0.35827124
0.68853664 -0.1945387 0.30290824 -0.16112067 -0.44396338 0.19274773 0.32277358 -0.3517619
0.315927 -0.41233367 -0.1242721 -0.31997624 -0.27737466 0.0051233293 -0.15556489 -0.23456168
0.16556358 0.2570892 -0.04724375 0.24979073 0.28859973 -0.5177251 0.07645982 -0.12666921
0.04886765 0.037437722 -0.31533948 0.22810125 0.31749615 0.25250125 0.39656684 0.035608012
0.28915536 -0.021531746 -0.44801098 0.24998763 0.18775988 -0.32682082 0.1697428 0.32735124
-0.009471463 -0.06290401 -0.18544269 0.3539734 0.24102996 -0.16596904 0.14268312 -0.35669217
0.25543067 -0.2969393 0.23271513 -0.40099114 0.066910945 -0.27306738 0.37698033 -0.087591715
-0.45439947 0.22934861 -0.038437355 0.03487948 -0.44986075 0.19574103 0.11192744 -0.27687594
0.3681123 -0.22148189 0.45629558 0.022297103 -0.046435237 0.19826597 0.2290714 0.01931543
0.29924533 0.68355554 -0.21568277 -0.1786289 -0.12491315 -0.095000856 0.32753888 -0.34520134
-0.080377705 0.17495537 -0.031587996 0.31185865 0.09968938 -0.029260969 0.45846254 -0.053864483
-0.17900464 0.41482216 0.20871511 0.17568928 0.14428006 0.31001747 -0.42684406 0.33130488
-0.13692349 -0.36460134 -0.23099615 0.42194965 0.25686985 0.19869107 0.36850885 -0.48101342
-0.39266422 -0.41483673 0.08709234 -0.14097272 0.029519605 -0.0024769101 0.2523379 -0.059623703
-0.16019596 0.2421695 -0.17902671 -0.1789964 0.06236236 0.17822132 0.0012808136 0.13105436
-0.1478211 -0.2629399 -0.026928682 -0.25695008 0.24722761 0.3728258 0.3395706 0.21975337
-0.056889877 -0.23665841 0.10266844 0.23937978 0.19030681 0.460768 0.36876327 -0.13161781
-0.11133019 -0.25397977 -0.11885767 0.08435414 -0.28819644 -0.47876635 0.37364691 0.047975212
-0.08430141 -0.2253248 0.3190445 -0.2116336 -0.31558084 0.18654978 0.32294443 -0.5396846
-0.7527977 0.04674749 0.2528688 -0.36553818 -0.11707486 -0.328055 -0.7489804 0.17453013
-0.49413738 0.08912042 -0.27980393 -0.08664094 -0.11656595 -0.27122727 -0.5232872 0.3526997
0.11689599 -0.26571772 -0.2361554 -0.16541965 -0.07731767 -0.043426663 -0.14385867 -0.30599317
-0.4355258 0.21121632 0.15071094 -0.1773052 -0.35753134 0.59068626 0.6439003 -0.038662963
-0.4326976 -0.41089666 -0.081259854 -0.67502916 -0.54739344 0.23259842 0.3300679 -0.5895769
0.49652052 0.035654165 0.19747142 0.053108368 -0.020554807 -0.049335033 0.27393654 0.35414466
-0.28964245 -0.14425722 -0.34474328 -0.15952702 0.11107044 0.45328993 0.21832351 0.48396447
0.06751894 0.18125203 -0.21575996 -0.23646717 -0.20930701 -0.043351445 0.40456548 -0.3003988
0.524505 -0.23362795 -0.33787093 -0.117562026 -0.098386176 -0.15498427 -0.4419347 -0.0268005
0.50856286 -0.28661427 0.13131844 -0.016029997 0.2363002 0.23158877 0.6294663 0.4354277
-0.31141642 -0.53063506 -0.42275622 -0.11282894 0.23932762 -0.19755547 -0.27682394 -0.35711485
-0.04519084 -0.05137082 -0.0061420766 -0.47001913 0.23388532 -0.12263136 0.12034654 0.09765628
00000000: 30b7 a13e 298a 903e ef39 e5be 277b d2be
00000010: 7ae7 1ebe d2bb c0bc 40f0 f53a 546f b73e
00000020: f043 303f 2735 47be ca16 9b3e d1fc 24be
00000030: 2b4f e3be a95f 453e 9442 a53e 231a b4be
00000040: 2fc1 a13e 661d d3be 5f82 febd edd3 a3be
00000050: 0d04 8ebe 9ae1 a73b 674c 1fbe f030 70be
00000060: 8089 293e 32a1 833e aa82 41bd 24c9 7f3e
00000070: 58c3 933e a289 04bf f796 9c3d 93b5 01be
00000080: 7229 483d 4c58 193d 2d74 a1be 6093 693e
00000090: db8e a23e d847 813e cf0a cb3e b5d9 113d
000000a0: 2c0c 943e 5863 b0bc b261 e5be c2fc 7f3e
000000b0: 2044 403e 0f55 a7be 0ed1 2d3e 959a a73e
000000c0: 322e 1bbc d1d3 80bd b0e4 3dbe 003c b53e
000000d0: 8fd0 763e caf3 29be 861b 123e 5ba0 b6be
000000e0: cfc7 823e 6e08 98be e04c 6e3e b64e cdbe
000000f0: 9b08 893d 7dcf 8bbe 9103 c13e 4963 b3bd
00000100: 0ca7 e8be 5dda 6a3e 7d70 1dbd c9dd 0e3d
00000110: 2654 e6be 5670 483e 373a e53d afc2 8dbe
00000120: 3779 bc3e 26cc 62be 939f e93e 6aa8 b63c
00000130: e032 3ebd 3c06 4b3e b191 6a3e 653b 9e3c
00000140: af36 993e 7ffd 2e3f f2db 5cbe 7fea 36be
00000150: 77d2 ffbd cf8f c2bd 2db3 a73e 3bbe b0be
00000160: 119d a4bd 8027 333e 6a62 01bd f0ab 9f3e
00000170: f229 cc3d b3b4 efbc 9abb ea3e 01a1 5cbd
00000180: fe4c 37be 9263 d43e 6ab9 553e e4e7 333e
00000190: 27be 133e 9cba 9e3e 4e8b dabe cba0 a93e
000001a0: ac35 0cbe 07ad babe 418a 6cbe c909 d83e
000001b0: 7284 833e ac75 4b3e 31ad bc3e 6447 f6be
000001c0: 490b c9be 7b65 d4be 785d b23d 275b 10be
000001d0: 19d3 f13c a853 22bb 6f32 813e fc37 74bd
000001e0: 690a 24be 48fb 773e c752 37be d54a 37be
000001f0: ad6f 7f3d a67f 363e f9e0 a73a 1d33 063e
00000200: 6a5e 17be 0fa0 86be 8a99 dcbc f68e 83be
00000210: 3c29 7d3e 06e3 be3e 33dc ad3e 0707 613e
00000220: 5c05 69bd 9556 72be d543 d23d f91f 753e
00000230: cadf 423e c9e9 eb3e 8ace bc3e d2c6 06be
00000240: 1501 e4bd a309 82be a66b f3bd ddc1 ac3d
00000250: 7c8e 93be dd20 f5be a64e bf3e a881 443d
00000260: 38a6 acbd 8bbb 66be cd59 a33e 7ab6 58be
00000270: d093 a1be e806 3f3e f958 a53e c528 0abf
00000280: 5ab7 40bf 4c7a 3f3d 0578 813e d227 bbbe
00000290: f2c4 efbd d3f6 a7be 2ebd 3fbf 07b8 323e
000002a0: 93ff fcbe c484 b63d 7642 8fbe ce70 b1bd
000002b0: 21ba eebd 4dde 8abe 26f6 05bf 0e95 b43e
000002c0: 2a67 ef3d 270c 88be b9d2 71be c563 29be
000002d0: ba58 9ebd 28e0 31bd b04f 13be 23ab 9cbe
000002e0: 3dfd debe 1749 583e f853 1a3e 7f8f 35be
000002f0: 590e b7be 3737 173f a6d6 243f 0e5d 1ebd
00000300: 8a8a ddbe 0c61 d2be 916b a6bd b6ce 2cbf
00000310: fa21 0cbf 482e 6e3e a9fe a83e 83ee 16bf
00000320: f037 fe3e 1a0a 123d f335 4a3e 2988 593d
00000330: 8e62 a8bc 8813 4abd 6941 8c3e 7352 b53e
00000340: 044c 94be 2ab8 13be 3182 b0be 0d5b 23be
00000350: e678 e33d 9e15 e83e 3390 5f3e 31ca f73e
00000360: 5f47 8a3d 229a 393e 2ef0 5cbe 7324 72be
00000370: 9454 56be 4991 31bd 3523 cf3e dfcd 99be
00000380: f645 063f 2a3c 6fbe 6bfd acbe 5cc4 f0bd
00000390: b17e c9bd 32b4 1ebe 4445 e2be b98c dbbc
000003a0: 2d31 023f 1bbf 92be 5778 063e 5751 83bc
000003b0: aef8 713e 9b25 6d3e b424 213f 61f0 de3e
000003c0: f971 9fbe b3d7 07bf 8173 d8be dc12 e7bd
000003d0: 4d12 753e fb4b 4abe debb 8dbe c2d7 b6be
000003e0: 081a 39bd 356a 52bd 7943 c9bb 59a6 f0be
000003f0: a27f 6f3e 2726 fbbd 3f78 f63d 0400 c83d

bias f4 [4]
-0.0030475447 -0.05604467 -0.084304154 0.13804528
00000000: 51b9 47bb 198f 65bd a8a7 acbd be5b 0d3e
