examples/trash_pickup_saves/trash_pickup_model_iter_13348.pt (torch, 489822 bytes, 15 tensors)

weight f4 [32, 4, 3, 3]
-0.1671496 0.036666855 -0.26386145 0.29832482 0.24865702 -0.047927212 -0.40036416 -0.16258308
0.069857374 -0.027546221 -0.2767321 -0.21847954 -0.28553098 -0.0010904405 0.2535988 -0.5212589
0.1385452 0.5223705 0.6515693 -0.44270355 0.21800245 -0.44893384 -0.03210203 -0.044061974
0.69802755 0.3080502 -0.6304692 -0.24035805 0.22469452 0.03495737 -0.02103061 -0.0869737
0.19973893 -0.09156576 0.095097974 0.06631864 -0.24225007 -0.20434378 0.05819891 0.028901236
-0.70051634 0.054150354 0.15057944 0.00090527313 0.08412659 -0.05706005 -0.34954172 -0.16450685
-0.3931323 -0.14905001 -0.15239136 0.11856799 -0.21993536 0.026181962 0.4304532 -0.05390101
-0.18540369 0.14970003 -0.52291 0.05103862 0.4145979 -0.0025603953 -0.3424068 -0.20706959
0.10175815 -0.4957935 0.33481172 -0.22430149 -0.12689106 -0.1789394 -0.15350766 0.24739893
-0.0475828 -0.022087466 -0.5125321 -0.18706635 -0.11048651 -0.04252415 0.2237817 0.26873595
0.2501474 -0.10287911 -0.123927824 0.093830734 -0.21761201 0.068959564 0.12780558 -0.057189003
-0.3415471 -0.14455336 1.1701667 0.689112 0.14309871 0.48484132 -0.15409757 0.032901656
-0.5353538 -0.49042374 -0.16010113 -0.87040067 0.26266414 -0.13006544 -0.44317123 0.1359009
0.13632967 -0.2694357 -0.048731428 0.33155364 -0.26352143 0.12974389 0.10762136 -0.08626813
-0.10961355 -0.0057513798 0.01203607 0.008003381 -0.06655408 0.008583932 -0.18987599 0.38969487
-0.28804338 -0.44097206 0.48230237 -0.33992693 -0.013410062 -0.36669657 0.44418755 0.55596334
0.29612735 -0.30415606 -0.55640745 0.51063865 -0.31361184 0.6429347 0.45971245 0.103039056
-0.05248162 -0.22728696 0.39868695 0.12836842 0.2557121 -0.0010367675 0.26053208 -0.09010696
-0.16953516 -0.21302284 0.20306304 -0.2549614 -0.11566297 0.42572123 0.18878205 -0.4118588
-0.23109652 0.061083015 0.102697626 -0.2312639 -0.22812177 -0.16101855 0.17788304 0.23727167
-0.07564289 -0.02162909 0.16797468 -0.5772877 -0.02945092 0.7666335 -0.31534976 -0.22257182
0.42072782 0.54079705 -0.40471175 0.25450042 0.2687977 -0.09888083 -0.60406387 0.3051196
0.46067724 -0.27618203 -0.29687577 -0.16412929 0.03499658 -0.412717 0.0013873912 0.07858666
-0.06979779 0.07584411 -0.14583004 0.25241536 0.31831497 0.21208331 0.0026451384 0.20480399
-0.3494989 0.0800367 0.18135323 0.17922878 0.29239607 0.07324357 -0.06878239 -0.04608445
0.3142045 0.37713686 0.37268734 -0.10362199 0.014867958 0.47675684 0.21406657 0.06792532
-0.3551761 -0.27726448 -0.2807087 -0.2887516 -0.2178112 -0.52243936 -0.268986 -0.44965023
-0.05686193 0.4584391 0.036944967 0.38208413 0.032204203 0.20258807 -0.12521037 0.13731666
-0.19493225 0.24075697 0.36038822 0.404603 0.045627948 0.20447955 0.25669047 0.06711005
0.21940199 -0.21621698 -0.3309952 0.17113468 0.101600625 0.06962095 -0.25366896 -0.22280793
-0.059049062 -0.49280417 -0.1264866 -0.95184684 0.24113514 -0.06127161 -0.42259973 -0.1607838
-0.3770018 -0.4473444 -0.206721 -0.13701393 -0.12220045 0.2795911 -0.25858214 0.005358169
00000000: 4429 2bbe fc2f 163d d918 87be 08be 983e
00000010: f29f 7e3e 534f 44bd 88fc ccbe 2e7c 26be
00000020: 6211 8f3d 9da8 e1bc d4af 8dbe 1ab9 5fbe
00000030: 1e31 92be 1ded 8eba b4d7 813e 3971 05bf
00000040: cbde 0d3e 13ba 053f 3fcd 263f 0aaa e2be
00000050: 093c 5f3e a8da e5be 6b7d 03bd 547a 34bd
00000060: efb1 323f c1b8 9d3e 6e66 21bf 6c20 76be
00000070: 5216 663e 762f 0f3d 6348 acbc 441f b2bd
00000080: 5d88 4c3e d486 bbbd bac2 c23d 11d2 873d
00000090: 6710 78be 7f3f 51be fb61 6e3d 49c2 ec3c
000000a0: 0a55 33bf c3cc 5d3d 7f31 1a3e da4f 6d3a
000000b0: 904a ac3d cdb7 69bd 22f7 b2be 7c74 28be
000000c0: a348 c9be 91a0 18be 7b0c 1cbe c6d3 f23d
000000d0: bc36 61be 8e7b d63c 5d64 dc3e 4ec7 5cbd
000000e0: 77da 3dbe f74a 193e 6edd 05bf df0d 513d
000000f0: 2d46 d43e 4ecc 27bb f24f afbe 0d0a 54be
00000100: 9466 d03d a5d8 fdbe 716c ab3e 4aaf 65be
00000110: bbef 01be e43b 37be 1d31 1dbe 2556 7d3e
00000120: 2fe6 42bd c6f0 b4bc 4e35 03bf 528e 3fbe
00000130: c046 e2bd ce2d 2ebd 0827 653e c297 893e
00000140: 5213 803e 48b2 d2bd dfcd fdbd 542a c03d
00000150: afd5 5ebe ac3a 8d3d 77df 023e 043f 6abd
00000160: 43df aebe cc05 14be 06c8 953f a569 303f
00000170: 7888 123e 1f3d f83e c1cb 1dbe e3c3 063d
00000180: f20c 09bf d218 fbbe 8df1 23be 94d2 5ebf
00000190: ea7b 863e e02f 05be 57e7 e2be 9b29 0b3e
000001a0: 019a 0b3e 7af3 89be 9b9a 47bd 66c1 a93e
000001b0: 48ec 86be 95db 043e 9668 dc3d 58ad b0bd
000001c0: 127d e0bd 1276 bcbb f032 453c 9d20 033c
000001d0: 814d 88bd 9fa3 0c3c da6e 42be 1686 c73e
000001e0: 6c7a 93be 17c7 e1be 56f0 f63e e70a aebe
000001f0: e0b5 5bbc a7bf bbbe 8d6c e33e 9d53 0e3f
00000200: 019e 973e 58ba 9bbe b870 0ebf 37b9 023f
00000210: bb91 a0be 5e97 243f 6e5f eb3e 2406 d33d
00000220: f8f6 56bd eabd 68be b220 cc3e 0373 033e
00000230: b2ec 823e 25e4 87ba 7664 853e ff89 b8bd
00000240: a09a 2dbe a922 5abe c2ef 4f3e 4d8a 82be
00000250: b5e0 ecbd 22f8 d93e 1550 413e 28df d2be
00000260: 91a4 6cbe 2f32 7a3d 2253 d23d 72d0 6cbe
00000270: c198 69be 0ce2 24be f926 363e 58f7 723e
00000280: a9ea 9abd 7d2f b1bc 8e01 2c3e 20c9 13bf
00000290: 0e43 f1bc 1842 443f 8675 a1be dee9 63be
000002a0: a369 d73e ad71 0a3f 6136 cfbe e14d 823e
000002b0: da9f 893e 0882 cabd eea3 1abf a338 9c3e
000002c0: e3dd eb3e bb67 8dbe 1a00 98be 8211 28be
000002d0: 9358 0f3d a54f d3be 20d9 b53a 0bf2 a03d
000002e0: 25f2 8ebd 2854 9b3d 7854 15be 963c 813e
000002f0: 2efa a23e 5e2c 593e 0f5a 2d3b 23b8 513e
00000300: 85f1 b2be 48ea a33d a9b4 393e c087 373e
00000310: f0b4 953e ba00 963d c8dd 8cbd 0cc3 3cbd
00000320: 6adf a03e 1518 c13e e0d0 be3e c437 d4bd
00000330: bc98 733c 7919 f43e 4434 5b3e 6e1c 8b3d
00000340: a4d9 b5be 9cf5 8dbe 0db9 8fbe 40d7 93be
00000350: e609 5fbe 96be 05bf 88b8 89be 8e38 e6be
00000360: 0ee8 68bd 88b8 ea3e 9b53 173d 88a0 c33e
00000370: 8ee8 033d 3f73 4f3e 2637 00be bd9c 0c3e
00000380: 529c 47be ff88 763e ce84 b83e 2028 cf3e
00000390: 5fe4 3a3d 1663 513e ef6c 833e fe70 893d
000003a0: eaaa 603e fc67 5dbe 3478 a9be ee3d 2f3e
000003b0: fd13 d03d 6e95 8e3d e6e0 81be c327 64be
000003c0: 6edd 71bd d450 fcbe b485 01be 3cac 73bf
000003d0: 21ec 763e f1f7 7abd fe5e d8be 82a4 24be
000003e0: 6106 c1be 530a e5be abae 53be 614d 0cbe
000003f0: 3b44 fabd 9126 8f3e e164 84be 9493 af3b

bias f4 [32]
0.03356669 -0.1498927 -0.01765018 0.057227623 -0.018484185 -0.21204743 -0.06749501 -0.1153722
-0.09738916 -0.10000941 -0.009019717 0.03380502 0.014853354 -0.044899546 -0.03188202 -0.077128276
-0.025125837 -0.13999027 -0.034797657 -0.118199706 -0.15714832 -0.10948836 -0.003086289 0.007014431
-0.14175563 0.0009128557 0.060640465 -0.098508716 -0.13648582 -0.016041683 -0.095087305 -0.076364405
00000000: 3a7d 093d 797d 19be 1c97 90bc 8367 6a3d
00000010: 256c 97bc f622 59be d33a 8abd 4348 ecbd
00000020: f873 c7bd bcd1 ccbd 6fc7 13bc 2277 0a3d
00000030: 7b5b 733c 96e8 37bd b996 02bd 6ef5 9dbd
00000040: b3d4 cdbc 9c59 0fbe fd87 0ebd b012 f2bd
00000050: 7deb 20be 6f3b e0bd 5643 4abb 50d9 e53b
00000060: 6328 11be b64c 6f3a 2362 783d f0be c9bd
00000070: f0c2 0bbe d969 83bc 22bd c2bd f164 9cbd

weight f4 [64, 32, 3, 3]
-0.16436498 0.068654135 -0.12777062 0.024706407 -0.05718953 -0.06755673 0.047893755 0.09162961
0.042627737 -0.0890315 -0.00482302 0.055111397 0.034677595 0.13284478 -0.27893195 -0.04993188
-0.018461382 0.015882285 -0.10558307 0.014520245 -0.20281495 0.1102727 0.12713562 -0.22498283
-0.06661149 0.05271493 -0.15284918 0.048174642 -0.07448309 0.044143267 0.06513107 0.007910567
0.06763333 -0.21079783 -0.35239732 0.018633872 0.017602915 0.24761364 -0.15155467 0.030379243
-0.10089173 0.010190773 0.10176605 0.09849523 -0.15691985 -0.01619317 0.0006805097 -0.13535696
-0.031439416 -0.02756376 -0.026046814 -0.0475372 0.12901634 -0.19583093 0.015639903 -0.09062937
-0.14539158 -0.21147028 0.011863057 -0.09925934 -0.15366192 0.12568395 -0.12814058 0.03237623
0.026813012 0.06022518 0.07031769 -0.07791636 0.02362809 -0.029194616 -0.027464014 0.09291598
-0.091597 -0.15746678 -0.10452496 -0.08353165 0.022168703 -0.074695416 -0.30084136 -0.080691494
0.038086526 -0.049873147 0.023502963 0.0021984833 0.15992573 -0.093800955 -0.011104455 -0.1894926
0.017961847 -0.12628625 0.014631605 -0.11234074 -0.04163617 -0.07021782 -0.06272207 0.077828646
-0.07020901 -0.07837749 0.10307013 -0.10852733 -0.056556735 -0.011919444 0.083010286 -0.15571918
0.05893292 0.116144076 -0.038473215 0.10402013 0.14638808 0.23742317 0.094054036 0.20015095
-0.033674445 0.23515588 -0.09462341 -0.08391241 -0.025878433 -0.16739164 -0.024086382 0.015579942
-0.19052806 0.021373563 0.047713295 -0.09118924 -0.016050061 -0.15915683 -0.10825961 -0.12942725
-0.20363049 -0.003466013 0.0461921 -0.07374976 -0.16702206 -0.14339963 -0.24154232 -0.13961452
0.04705019 -0.20493232 0.04866634 0.04718847 -0.06497624 -0.12778443 -0.068068966 0.022686366
0.088365816 -0.07625154 0.05897033 -0.03995056 -0.22131376 -0.0050132 0.2260458 0.01792364
0.086280614 -0.14745414 -0.03517766 -0.18076557 -0.18867804 -0.025252694 -0.1547372 -0.0081809
0.07161573 0.09748304 -0.026920443 -0.060288507 -0.15595342 0.031870276 -0.024357367 -0.21008082
-0.05913619 -0.03921191 0.0016024603 -0.08546182 0.08211027 -0.09905016 0.06710174 0.083288595
0.054721817 0.22725128 0.059747294 0.048191726 0.07912823 -0.015878405 -0.20779787 0.08830427
-0.04769975 -0.1085834 -0.067867644 -0.023950385 -0.02644096 0.073016815 -0.1383129 0.017336696
0.18074518 0.054785717 -0.001204946 0.048124723 -0.02986641 -0.18390915 0.04624483 0.16645029
0.08717083 -0.0064362963 0.0035754635 -0.092301086 0.12602997 -0.34941155 0.14976586 0.051207013
-0.09247313 -0.06555314 -0.1620277 0.07729956 -0.04123789 0.114163496 -0.22092758 0.043974563
-0.062570244 -0.09382893 -0.19617355 8.076652e-05 -0.078895815 -0.059504192 -0.19947425 -0.11996306
-0.0650826 0.109708585 -0.06712866 -0.019971501 0.04374488 -0.033303622 -0.012208237 -0.07846701
0.07955974 0.22450617 0.027770836 -0.053613476 -0.0773459 0.08579911 0.023008939 0.0009472757
-0.11032537 0.12800796 -0.0052462174 -0.0072377846 -0.09530113 -0.15343748 0.008615223 -0.022866644
-0.049522847 -0.044580866 -0.15950544 -0.00599727 0.06975306 0.117096506 -0.031329967 -0.11479567
00000000: 4b4f 28be 8a9a 8c3d 4dd6 02be 1765 ca3c
00000010: 923f 6abd 2f5b 8abd 3e2c 443d 4ea8 bb3d
00000020: 6c9a 2e3d 2656 b6bd 6d0a 9ebb 7dbc 613d
00000030: 180a 0e3d 7608 083e 2bd0 8ebe 5f85 4cbd
00000040: 533c 97bc 911b 823c f03b d8bd 52e6 6d3c
00000050: b9ae 4fbe a7d6 e13d d72f 023e e661 66be
00000060: 9b6b 88bd 9ceb 573d 7f84 1cbe c652 453d
00000070: 978a 98bd 92cf 343d 7063 853d 539b 013c
00000080: 5883 8a3d 63db 57be 6c6d b4be 10a6 983c
00000090: fd33 903c 6e8e 7d3e 2631 1bbe e4dd f83c
000000a0: 53a0 cebd 33f7 263c b86a d03d deb7 c93d
000000b0: 99af 20be 8aa7 84bc 3c64 323a 049b 0abe
000000c0: 9ec6 00bd 65cd e1bc 2160 d5bc 5eb6 42bd
000000d0: dc1c 043e e787 48be 411f 803c e49b b9bd
000000e0: 88e1 14be aa8b 58be 445d 423c 7b48 cbbd
000000f0: 8d59 1dbe 4bb3 003e 4937 03be f09c 043d
00000100: f6a6 db3c aeae 763d b902 903d 9d92 9fbd
00000110: b28f c13c 8c29 efbc 36fc e0bc bc4a be3d
00000120: 3597 bbbd f93e 21be 2f11 d6bd a412 abbd
00000130: 249b b53c e9f9 98bd e107 9abe 9541 a5bd
00000140: 9e00 1c3d c947 4cbd 4989 c03c 6e14 103b
00000150: 92c3 233e b71a c0bd 76ef 35bc 590a 42be
00000160: b924 933c 2f51 01be 66b9 6f3c e712 e6bd
00000170: b08a 2abd 5cce 8fbd 6e74 80bd a064 9f3d
00000180: bec9 8fbd 6184 a0bd 6f16 d33d 9443 debd
00000190: 09a8 67bd c649 43bc 4c01 aa3d d974 1fbe
000001a0: a563 713d f2dc ed3d 1796 1dbd 8208 d53d
000001b0: c2e6 153e 0f1f 733e 679f c03d 5ff4 4c3e
000001c0: 37ee 09bd b4cc 703e ebc9 c1bd 45da abbd
000001d0: 02ff d3bc b768 2bbe ce50 c5bc 0343 7f3c
000001e0: ca19 43be 9c17 af3c 046f 433d 6dc1 babd
000001f0: 6b7b 83bc 02fa 22be 37b7 ddbd 9488 04be
00000200: 8384 50be 0c26 63bb ed33 3d3d 1d0a 97bd
00000210: d507 2bbe 5ad7 12be df56 77be 1cf7 0ebe
00000220: b3b7 403d c7d9 51be 5b56 473d b248 413d
00000230: 4312 85bd ecd9 02be be67 8bbd c2d8 b93c
00000240: 23f9 b43d c429 9cbd df8a 713d 33a3 23bd
00000250: 13a0 62be c545 a4bb 8d78 673e 99d4 923c
00000260: e4b3 b03d 38fe 16be 7316 10bd 9c1a 39be
00000270: d134 41be bdde cebc 6e73 1ebe 2e09 06bc
00000280: 45ab 923d 30a5 c73d 4388 dcbc 15f1 76bd
00000290: 41b2 1fbe 688a 023d 1a89 c7bc 6d1f 57be
000002a0: ca38 72bd ab9c 20bd a509 d23a 9b06 afbd
000002b0: 6e29 a83d cfda cabd a36c 893d 3693 aa3d
000002c0: fc23 603d 8fb4 683e 94b9 743d b064 453d
000002d0: fb0d a23d 6e13 82bc f7c8 54be ded8 b43d
000002e0: d060 43bd f960 debd 31fe 8abd 9933 c4bc
000002f0: b69a d8bc d789 953d e6a1 0dbe b005 8e3c
00000300: 4415 393e fd66 603d 47ef 9dba 6e1e 453d
00000310: 67aa f4bc ae52 3cbe 386b 3d3d f271 2a3e
00000320: 9f86 b23d 91e7 d2bb 5352 6a3b 5a08 bdbd
00000330: 000e 013e 12e6 b2be 395c 193e 72be 513d
00000340: 8d62 bdbd ba40 86bd 97ea 25be 3b4f 9e3d
00000350: 10e9 28bd 8dce e93d d73a 62be ac1e 343d
00000360: d424 80bd 6229 c0bd b8e1 48be 3261 a938
00000370: 2194 a1bd abba 73bd fa42 4cbe 31af f5bd
00000380: 074a 85bd e5ae e03d c07a 89bd 469b a3bc
00000390: d52d 333d 6169 08bd 0f05 48bc 50b3 a0bd
000003a0: 38f0 a23d f2e4 653e aa7f e33c ce99 5bbd
000003b0: 8767 9ebd 72b7 af3d 3e7d bc3c 9952 783a
000003c0: 45f2 e1bd 8514 033e 76e8 abbb f02a edbb
000003d0: 3d2d c3bd b71e 1dbe dd26 0d3c d452 bbbc
000003e0: 78d8 4abd 6d9a 36bd 6555 23be bf84 c4bb
000003f0: b1da 8e3d 4bd0 ef3d da53 00bd fe19 ebbd

bias f4 [64]
-0.058426857 -0.032504637 -0.11817998 -0.0151741225 -0.05624523 -0.021375053 -0.070218645 -0.048547726
-0.02487572 -0.07347346 0.009935071 -0.01810575 -0.10355443 -0.090482876 -0.031138351 -0.09157057
-0.07289044 -0.011965707 -0.079913005 -0.0634181 -0.06560263 -0.019094357 -0.018077608 -0.008343018
-0.07895034 -0.08083642 -0.12118505 -0.02691881 -0.037789155 -0.028469868 -0.03713628 -0.04988925
-0.026983498 -0.054055493 -0.100297526 -0.04980268 -0.030456757 -0.0065791607 -0.0727102 0.0023363812
-0.04066529 -0.04092909 -0.03729278 -0.02413216 -0.020056946 -0.01113271 -0.016738057 -0.025831597
-0.07875541 -0.03523301 -0.002853633 0.0021944898 -0.042109467 -0.17426914 -0.039023004 -0.0754524
-0.090737216 -0.052330274 -0.044457808 -0.013973608 -0.05743497 -0.07444666 -0.075042605 -0.04748989
00000000: 0051 6fbd 9523 05bd 5808 f2bd e29c 78bc
00000010: 6661 66bd bc1a afbc cbce 8fbd fbd9 46bd
00000020: 2ac8 cbbc 4179 96bd b5c6 223c 8352 94bc
00000030: 5814 d4bd 164f b9bd db15 ffbc 5a89 bbbd
00000040: 9547 95bd d00b 44bc 6ea9 a3bd 59e1 81bd
00000050: ac5a 86bd c56b 9cbc 7e17 94bc 27b1 08bc
00000060: b7b0 a1bd 918d a5bd de2f f8bd d684 dcbc
00000070: cdc8 1abd a439 e9bc 361c 18bd ac58 4cbd
00000080: 7f0c ddbc 4b69 5dbd ca68 cdbd e5fd 4bbd
00000090: 7380 f9bc 0096 d7bb 16e9 94bd f91d 193b
000000a0: a690 26bd 43a5 27bd 50c0 18bd cfb0 c5bc
000000b0: 774e a4bc f865 36bc 401e 89bc c99c d3bc
000000c0: 844a a1bd 7d50 10bd 0404 3bbb 6ed1 0f3b
000000d0: fa7a 2cbd 9c73 32be 96d6 1fbd ca86 9abd
000000e0: 6fd4 b9bd 4558 56bd 6419 36bd 8ff1 64bc
000000f0: ee40 6bbd 7e77 98bd f0af 99bd c284 42bd

weight f4 [32, 2304]
-0.049556565 -0.078081526 0.05065184 0.037953347 0.121423 0.11544821 -0.009872152 0.022874247
-0.057530038 0.06641292 0.00025906533 -0.041008893 0.10700182 -0.10295759 0.024627898 0.035563126
-0.012283602 0.03745526 -0.08973018 -0.04241205 -0.07054743 -0.014892959 0.007252423 0.03389499
-0.10035146 0.103281885 0.0077776797 -0.048424177 0.0046683606 0.10996892 -0.05177952 -0.15491334
0.025467439 0.0779329 -0.14982338 0.04910303 -0.13343105 -0.11750238 0.14464822 -0.059956145
0.039337177 -0.14094804 -0.108494475 0.0062811035 -0.051336564 -0.13262816 0.09344441 -0.19753996
-0.13037665 0.04937781 0.08526378 0.13295186 0.23166499 -0.20401193 -0.054610327 0.08398699
0.078672715 5.781438e-05 0.017421085 -0.23077947 0.03434461 0.03749441 0.23804191 0.04737756
0.011562278 -0.07526642 0.14877915 0.035547007 0.0118692545 -0.0217008 0.028801251 -0.09149115
-0.030049268 0.105465226 -0.22395681 -0.102153696 0.14461009 0.07203329 -0.080700114 -0.07891653
-0.0019435983 0.13969757 0.1771361 0.033591114 -0.032038987 -0.17180797 -0.12192203 0.14578219
-0.10012203 0.05263952 0.06941702 0.06994666 -0.06335527 0.031259697 0.06129355 -0.082681075
0.06095938 0.18414216 -0.11000365 -0.064591944 0.044759072 -0.0013650222 0.17678419 -0.018908612
-0.03234539 -0.01032626 -0.14087577 -0.065581836 -0.095762424 0.013902378 -0.16570659 -0.12943242
-0.07836827 -0.0044881576 0.071829416 0.007955025 0.002621317 -0.057443906 0.20522156 -0.046252914
0.030409379 0.0003286038 -0.13739784 0.04231908 -0.042385187 0.059613597 -0.119905934 0.008317761
-0.0012471622 0.021511994 0.046320345 -0.037529502 -0.0025484706 -0.063298054 -0.04640761 -0.082250826
0.057048753 -0.038719393 -0.074217096 -0.04390103 -0.10927505 -0.06641826 -0.24269468 0.0975487
-0.18305293 0.021468857 -0.06542379 0.06829971 0.2975054 0.03642365 0.13137491 0.07532047
0.137533 -0.0040685106 0.12440675 0.006435386 0.0857632 0.09728266 -0.04068055 0.101266526
0.05159459 0.21100451 -0.06707612 -0.06497059 -0.14470991 0.05377725 0.08044346 0.049758196
-0.14077087 -0.075681575 -0.04149199 0.17326397 0.08217727 0.16503154 -0.052493107 -0.113163
0.06226256 -0.08441724 0.04719154 0.18533494 -0.24329893 -0.14747995 0.0759142 0.04219631
-0.10739117 -0.07012209 0.04833058 0.14385188 -0.0117324935 -0.15156211 0.042349864 -0.028591277
-0.21124557 -0.036569245 -0.048314743 -0.06795018 0.03451537 0.045960505 -0.11050969 -0.14395408
-0.091196634 -0.03975828 0.048289437 -0.14380366 -0.15529414 -0.0049927942 -0.07823106 -0.013805064
-0.057075314 0.103911884 -0.2020917 -0.16992773 -0.12900762 0.03267774 -0.0040649227 0.07535946
0.13604322 0.0037989472 -0.2978523 -0.05781071 0.033252675 0.071990944 -0.043028742 0.030890193
0.119756095 0.034001023 -0.018488029 -0.029600479 0.0899756 -0.036092233 0.05961484 -0.16770127
0.10746837 0.07716395 0.105308115 -0.046147604 0.10599997 -0.03260129 0.11083653 0.18287668
-0.0031089913 0.13326916 -0.0015413744 0.103075325 -0.0026667626 -0.24150227 0.30232555 0.3908957
-0.028714743 0.43790534 -0.28122026 0.10137924 -0.2051483 -0.17431287 0.07020521 -0.21200818
00000000: d3fb 4abd 35e9 9fbd 4e78 4f3d f874 1b3d
00000010: 9fac f83d 1c70 ec3d cebe 21bc c662 bb3c
00000020: 9ea4 6bbd 7f03 883d 29d3 8739 f1f8 27bd
00000030: c523 db3d 6edb d2bd 72c0 c93c a4aa 113d
00000040: 2941 49bc b06a 193d 75c4 b7bd 42b8 2dbd
00000050: 2c7b 90bd 9901 74bc bca5 ed3b 79d5 0a3d
00000060: 1185 cdbd 7485 d33d e8db fe3b 6e58 46bd
00000070: 0cf9 983b 6337 e13d c316 54bd 9aa1 1ebe
00000080: 17a1 d03c 499b 9f3d 4d6b 19be 4220 493d
00000090: 26a2 08be 16a5 f0bd aa1e 143e 9394 75bd
000000a0: 0520 213d af54 10be 5a32 debd b7d1 cd3b
000000b0: 4a46 52bd adcf 07be c85f bf3d ea47 4abe
000000c0: 7581 05be 6340 4a3d c79e ae3d 8824 083e
000000d0: 9639 6d3e 81e8 50be 14af 5fbd 5f01 ac3d
000000e0: 291f a13d b87d 7238 aab6 8e3c 7451 6cbe
000000f0: efac 0c3d bd93 193d 42c1 733e f90e 423d
00000100: b56f 3d3c 4825 9abd 9059 183e bd99 113d
00000110: 4377 423c e0c5 b1bc 9af0 eb3c b65f bbbd
00000120: e229 f6bc 27fe d73d ef54 65be f535 d1bd
00000130: ab14 143e 3186 933d 1a46 a5bd fd9e a1bd
00000140: 56c0 feba e10c 0f3e 2a63 353e d696 093d
00000150: 503b 03bd 6eee 2fbe 42b2 f9bd ed47 153e
00000160: c70c cdbd 8a9c 573d 832a 8e3d 3240 8f3d
00000170: 68c0 81bd 2b0a 003d f20e 7b3d b254 a9bd
00000180: 8bb0 793d c38f 3c3e 9849 e1bd c848 84bd
00000190: 4a55 373d 8bea b2ba ea06 353e 3ce6 9abc
000001a0: 9a7c 04bd 792f 29bc bd41 10be c54f 86bd
000001b0: 171f c4bd cdc6 633c fdae 29be ef89 04be
000001c0: 8b7f a0bd 6511 93bb 4d1b 933d cb55 023c
000001d0: 67ca 2b3b 4d4a 6bbd 9a25 523e b273 3dbd
000001e0: 171d f93c 7548 ac39 05b2 0cbe c656 2d3d
000001f0: 179c 2dbd 632d 743d 3e91 f5bd 3847 083c
00000200: d277 a3ba ec39 b03c 67ba 3d3d 89b8 19bd
00000210: 3e04 27bb 69a2 81bd e815 3ebd 1f73 a8bd
00000220: f4ab 693d 3a98 1ebd 22ff 97bd 91d1 33bd
00000230: 99cb dfbd 4c06 88bd f484 78be 9dc7 c73d
00000240: 3a72 3bbe 75df af3c e8fc 85bd b8e0 8b3d
00000250: a152 983e f730 153d 2587 063e 9e41 9a3d
00000260: 73d5 0c3e 2451 85bb f7c8 fe3d eedf d23b
00000270: 9ea4 af3d 223c c73d a6a0 26bd d364 cf3d
00000280: d954 533d 9111 583e 345f 89bd 4d0f 85bd
00000290: d62e 14be 8945 5c3d 8abf a43d 40cf 4b3d
000002a0: 3d26 10be f1fe 9abd 81f3 29bd 1c6c 313e
000002b0: 8e4c a83d 07fe 283e 0303 57bd 01c2 e7bd
000002c0: 0707 7f3d f2e2 acbd eb4b 413d 71c8 3d3e
000002d0: 5b23 79be fc04 17be e778 9b3d 0ad6 2c3d
000002e0: e7ef dbbd 2c9c 8fbd 49f6 453d e84d 133e
000002f0: a539 40bc 1933 1bbe 0d77 2d3d 4138 eabc
00000300: c250 58be a2c9 15bd aee5 45bd 7729 8bbd
00000310: fd5f 0d3d 1541 3c3d e852 e2bd b368 13be
00000320: 4dc5 babd 94d9 22bd 25cb 453d 4441 13be
00000330: 6d05 1fbe 989a a3bb 9b37 a0bd a32e 62bc
00000340: cec7 69bd c1cf d43d 20f1 4ebe 8901 2ebe
00000350: 931a 04be 18d9 053d 0b33 85bb 1056 9a3d
00000360: ea4e 0b3e c2f7 783b 1980 98be ecca 6cbd
00000370: f533 083d fd6f 933d e83e 30bd 6e0d fd3c
00000380: af42 f53d a844 0b3d 3574 97bc b47c f2bc
00000390: 2145 b83d 73d5 13bd b12e 743d e2b9 2bbe
000003a0: 6018 dc3d 2208 9e3d c8ab d73d 4505 3dbd
000003b0: 8316 d93d ee88 05bd 43fe e23d 0644 3b3e
000003c0: 38c0 4bbb b677 083e f107 caba 2819 d33d
000003d0: dac4 2ebb 5f4c 77be 6aca 9a3e 7b23 c83e
000003e0: 2e3b ebbc 2135 e03e 1afc 8fbe eb9f cf3d
000003f0: 6512 52be 137f 32be c0c7 8f3d ac18 59be

bias f4 [32]
-0.051739864 0.06450143 -0.065849125 0.087590404 -0.030977739 0.10468111 -0.048154235 0.14130336
0.05831701 0.14788786 -0.1908267 0.012954153 0.0406976 -0.029535046 -0.16422349 0.10544094
0.06679723 0.120068066 0.028982615 -0.1023605 -0.089011066 -0.21614435 -0.035643715 0.14492379
-0.017566534 -0.020657029 -0.07882644 0.0016114007 0.016352022 0.082134165 0.10124431 0.08094586
00000000: 2eed 53bd 5319 843d e8db 86bd 9962 b33d
00000010: 07c5 fdbc 0d63 d63d 603d 45bd d4b1 103e
00000020: d1dd 6e3d ea6f 173e 1368 43be a83d 543c
00000030: 87b2 263d 7bf3 f1bc 342a 28be 6bf1 d73d
00000040: fccc 883d 3fe6 f53d f36c ed3c 62a2 d1bd
00000050: 6f4b b6bd f254 5dbe 25ff 11bd e766 143e
00000060: b1e7 8fbc ee38 a9bc c26f a1bd a335 d33a
00000070: adf4 853c f535 a83d 2d59 cf3d f1c6 a53d

weight f4 [32, 2]
0.3018647 -0.22064458 0.74896044 0.12588687 -0.31585246 -0.6723718 0.38274136 0.18157423
0.44346207 0.04695243 -0.24828672 0.4173242 -0.1332486 0.48851278 -0.20010583 -0.5450966
-0.42735362 0.31205457 0.20889392 -0.42410105 -0.14697906 -0.23527765 0.24319637 0.18408948
0.29689682 0.53787357 0.26683196 -0.42890236 -0.23423761 0.8040136 -0.26811594 -0.02105397
0.50337756 -0.5960057 0.5294622 0.18332763 0.36463973 0.36296898 -0.08422071 -0.13596056
0.3098947 0.21129075 -0.41807878 -0.016647805 -0.06659469 -0.2336807 -0.19037916 0.38756183
0.15571208 0.28549418 -0.33710706 0.17440905 0.1354792 -0.34647018 -0.7569575 0.39182955
-0.13339098 -0.10913283 0.4429511 0.3676609 -0.2337845 0.45487532 0.036111917 0.5614534
00000000: 038e 9a3e a7f0 61be dfbb 3f3f 7de8 003e
00000010: 6ab7 a1be 8f20 2cbf adf6 c33e 98ee 393e
00000020: 760d e33e 3151 403d e03e 7ebe 84ab d53e
00000030: 5272 08be 591e fa3e 8be8 4cbe 738b 0bbf
00000040: 18ce dabe 9ec5 9f3e 4ae8 553e c623 d9be
00000050: ae81 16be a0ec 70be 7808 793e f481 3c3e
00000060: dc02 983e 15b2 093f 339e 883e 1799 dbbe
00000070: fcdb 6fbe d6d3 4d3f 7e46 89be 6079 acbc
00000080: 5add 003f d493 18bf d68a 073f 3dba 3b3e
00000090: 0fb2 ba3e 12d7 b93e e87b acbd 3f39 0bbe
000000a0: 85aa 9e3e 9a5c 583e 6c0e d6be fa60 88bc
000000b0: cc62 88bd fe49 6fbe c1f2 42be 816e c63e
000000c0: fd72 1f3e 4b2c 923e 4c99 acbe 4998 323e
000000d0: 0fbb 0a3e 8a64 b1be f7c7 41bf e29d c83e
000000e0: a597 08be 0881 dfbd 7dca e23e 0d3e bc3e
000000f0: 3465 6fbe 6be5 e83e 17ea 133d 69bb 0f3f

bias f4 [32]
0.07503328 -0.051182363 0.0 -0.10955398 -0.021314908 0.11773317 0.023411123 0.0
0.29715267 0.23664975 0.0 -0.13061088 -0.16239104 0.22063287 0.06832715 0.0
0.23949403 -0.09690383 -0.198485 0.0 -0.15429924 0.0 0.0 -0.01024474
-0.12706788 0.29515624 0.24057586 0.22858956 0.0 -0.179111 0.09153238 -0.0036995788
00000000: 0cab 993d 99a4 51bd 0000 0000 d65d e0bd
00000010: 9a9c aebc 171e f13d afc8 bf3c 0000 0000
00000020: 6524 983e 5054 723e 0000 0000 dcbe 05be
00000030: d649 26be 95ed 613e 1bef 8b3d 0000 0000
00000040: ec3d 753e 8475 c6bd a73f 4bbe 0000 0000
00000050: 9f00 1ebe 0000 0000 0000 0000 8ed9 27bc
00000060: 151e 02be b81e 973e 8559 763e 6213 6a3e
00000070: 0000 0000 e068 37be 5475 bb3d a274 72bb

weight f4 [32, 1]
-0.29559505 -0.0027609088 0.05520609 0.2552214 0.5620796 0.021380324 0.016992744 -0.27593207
-0.012964944 -0.026824333 -0.19257453 -0.18129142 -0.2111521 -0.3788782 -0.40377855 0.47614282
-0.3605899 -0.48537365 0.01777939 0.3038806 -0.12248955 -0.108506694 0.27528173 -0.074469425
0.30525216 0.46780926 -0.24978913 0.22666886 0.34714848 -0.14561653 0.3150153 0.3626217
00000000: 3c58 97be 5df0 34bb c81f 623d 61ac 823e
00000010: 73e4 0f3f ca25 af3c 5e34 8b3c f846 8dbe
00000020: eb6a 54bc b4be dbbc 4232 45be 75a4 39be
00000030: 4238 58be 53fc c1be 10bc cebe fec8 f33e
00000040: 3d9f b8be e582 f8be 15a6 913c 3d96 9b3e
00000050: cddb fabd c238 debd baf1 8c3e 6d83 98bd
00000060: 034a 9c3e b284 ef3e b9c8 7fbe e21b 683e
00000070: 72bd b13e 801c 15be af49 a13e 8da9 b93e

bias f4 [32]
0.0 -0.002952391 -0.05588642 0.0017775407 0.001808289 -0.023206772 -0.01820894 0.0
0.0 0.0 0.0 0.0 0.0 0.0 0.0 0.0010410291
0.0 0.0 -0.01959104 0.0018228617 0.0 0.0 0.0016414417 0.0
0.0017119604 0.0016186037 0.0 0.0017479919 0.0017276835 0.0 0.001794083 0.0016705219
00000000: 0000 0000 e77c 41bb 29e9 64bd 5efc e83a
00000010: 1c04 ed3a 211c bebc ea2a 95bc 0000 0000
00000020: 0000 0000 0000 0000 0000 0000 0000 0000
00000030: 0000 0000 0000 0000 0000 0000 2473 883a
00000040: 0000 0000 0000 0000 647d a0bc 17ed ee3a
00000050: 0000 0000 0000 0000 a525 d73a 0000 0000
00000060: dc63 e03a 5427 d43a 0000 0000 e01c e53a
00000070: 7073 e23a 0000 0000 7027 eb3a 6af5 da3a

weight f4 [256, 96]
0.14704421 -0.002194856 0.015453114 0.072881766 -0.025105942 -0.016831769 -0.1006895 -0.027056022
0.17926197 0.10988998 0.03649346 0.06308299 0.105038315 0.17576458 -0.009739986 -0.130857
0.16481104 -0.20741975 0.21775177 -0.15167874 -0.021376077 0.028824558 0.0838376 -0.10191442
0.15283343 -0.03355277 0.12746632 -0.0472675 0.12434328 0.06297139 0.10961202 -0.14182112
0.097494334 0.18498074 0.07050094 0.02363659 0.1755047 -0.3499145 -0.29701117 -0.06320416
-0.34213978 0.3314244 0.016332058 0.13822491 -0.004577051 0.26401964 -0.33417785 -0.08929991
0.37898174 -0.003980229 -0.047408283 -0.0497117 0.10375906 0.062024496 -0.04098375 -0.28055
-0.028243879 -0.21427898 0.18107009 -0.43563387 0.032151543 -0.09642377 -0.29039872 -0.17124401
0.086668186 -0.028328693 0.015972355 -0.20443308 -0.1435314 0.0031898855 -0.038505808 -0.055111777
0.019394258 -0.053026386 0.08839367 0.02348978 -0.0007829789 0.05471986 -0.07322556 -0.28909913
0.086440876 0.093798324 0.039539076 -0.2919011 -0.03466551 0.01784116 -0.22825776 0.0063859485
-0.15273361 -0.12208913 -0.05047677 -0.17885485 -0.27779546 0.060689878 -0.14263202 -0.21184935
0.11947074 -0.00033109015 -0.10583903 -0.06281278 0.097970314 -0.11092612 -0.19916177 -0.020896537
0.2670093 0.07148252 -0.074455135 0.14706805 0.09043237 0.22392297 0.08015446 -0.13013457
0.049497943 -0.15717658 0.17962444 -0.032157555 0.020428285 -0.02919574 0.047243815 -0.048776012
0.075189434 0.009498107 -0.024783758 0.109112404 0.026438093 0.052997783 0.06467541 -0.12739357
0.17754246 0.16528927 -0.07717297 0.06730797 0.16722251 -0.34765816 -0.20174068 0.05779076
-0.24633272 0.33676955 -0.08920029 0.0598556 -0.044481188 0.29143766 -0.36411235 0.0048572333
0.33929807 0.071122274 0.01623994 0.09561327 0.090783425 -0.06423203 0.09494086 -0.21882203
0.06668292 -0.19335647 0.23496698 -0.43936664 -0.07567921 0.07115744 -0.27101168 -0.16324933
-0.037369777 -0.08426566 0.03701858 -0.13369705 -0.1878377 0.039165664 -0.018479718 -0.00079812645
0.09258906 0.008045894 0.06679649 -0.07792772 0.0890818 0.05472137 -0.03319915 -0.13866173
0.024785781 -0.101181924 0.050912865 -0.18800564 -0.05888936 0.061100516 -0.27957156 0.03959398
-0.17408195 -0.22589572 0.072087675 -0.18107475 -0.29215667 0.0716336 -0.22888513 -0.111898124
-0.14596158 0.0068186633 0.08144997 0.10773341 0.04200691 0.1446736 0.22779265 0.115458414
-0.12824492 -0.09782821 -0.07614337 -0.113685384 -0.16241303 -0.034795135 -0.0703793 0.104381666
-0.22456302 0.2328768 -0.15300901 0.108101465 -0.14330542 -0.04009166 -0.0029743619 0.14989857
-0.10384335 -0.00047932164 -0.12467905 0.09408967 -0.14752479 -0.0043690386 -0.043583736 -0.0025994296
-0.15455076 -0.20036161 0.022171415 -0.16532622 -0.09745266 0.2860083 0.23704123 -0.023048224
0.42644307 -0.29099196 0.07949463 -0.08202332 -0.058679678 -0.28856823 0.33003825 0.033414986
-0.33292684 -0.18129705 -0.08093109 -0.0038947829 -0.10013178 -0.07735349 0.027941301 0.23701698
-0.0015799324 0.35419846 -0.30668417 0.5758474 -0.04017201 -0.18886682 0.34222803 0.25166884
00000000: c292 163e 93d7 0fbb 0f2f 7d3c 0943 953d
00000010: faaa cdbc c7e2 89bc 4c36 cebd 97a4 ddbc
00000020: 7390 373e ff0d e13d 2b7a 153d a831 813d
00000030: 541e d73d a1fb 333e 7694 1fbc 61ff 05be
00000040: 3ac4 283e d865 54be 52fa 5e3e ac51 1bbe
00000050: e21c afbc 7b21 ec3c 0cb3 ab3d 82b8 d0bd
00000060: 5e80 1c3e a16e 09bd 8886 023e 919b 41bd
00000070: b1a7 fe3d 25f7 803d 447c e03d 8e39 11be
00000080: 1cab c73d 976b 3d3e cc62 903d 86a1 c13c
00000090: 81b7 333e fe27 b3be d911 98be 2f71 81bd
000000a0: f22c afbe 75b0 a93e cfca 853c d58a 0d3e
000000b0: 16fb 95bb 952d 873e 5c19 abbe dfe2 b6bd
000000c0: e509 c23e 956c 82bb 302f 42bd 7f9e 4bbd
000000d0: a17f d43d 660d 7e3d 94de 27bd 40a4 8fbe
000000e0: b55f e7bc f36b 5bbe 706a 393e 670b dfbe
000000f0: 56b1 033d d379 c5bd 24af 94be 975a 2fbe
00000100: 177f b13d 9311 e8bc 75d8 823c e856 51be
00000110: e5f9 12be 660d 513b 44b8 1dbd e3bc 61bd
00000120: b5e0 9e3c 3232 59bd be07 b53d a46d c03c
00000130: d340 4dba ef21 603d 48f7 95bd cd04 94be
00000140: ea07 b13d 5619 c03d baf3 213d 1074 95be
00000150: 6cfd 0dbd a027 923c 67bc 69be 3841 d13b
00000160: 3366 1cbe de09 fabd bbc0 4ebd ba25 37be
00000170: 353b 8ebe f395 783d 210e 12be 09ef 58be
00000180: 13ad f43d 2b96 adb9 22c2 d8bd fda3 80bd
00000190: a9a4 c83d 3c2d e3bd 10f1 4bbe 372f abbc
000001a0: 71b5 883e 6d65 923d ef7b 98bd 0299 163e
000001b0: 9b34 b93d 104c 653e 0628 a43d ff41 05be
000001c0: 5bbe 4a3d e6f2 20be 78ef 373e a4b7 03bd
000001d0: 3859 a73c e82b efbc bb82 413d 5bc9 47bd
000001e0: ebfc 993d f39d 1b3c 4f07 cbbc 5376 df3d
000001f0: b394 d83c 3414 593d 8b74 843d 7673 02be
00000200: b1cd 353e 9741 293e dd0c 9ebd c3d8 893d
00000210: 613c 2b3e 4000 b2be 1c95 4ebe 01b6 6c3d
00000220: a53e 7cbe 0f6d ac3e a4ae b6bd 252b 753d
00000230: e831 36bd 5137 953e ef6c babe 6d29 9f3b
00000240: 7ab8 ad3e 8ea8 913d 9f09 853c e4d0 c33d
00000250: a9ec b93d 158c 83bd 5b70 c23d e212 60be
00000260: 0e91 883d 3dff 45be 2f9b 703e aaf4 e0be
00000270: b4fd 9abd feba 913d 0bc2 8abe d52a 27be
00000280: 0d11 19bd 7993 acbd cba0 173d e1e7 08be
00000290: 8758 40be 2d6c 203d c762 97bc 5c39 51ba
000002a0: 559f bd3d edd2 033c 99cc 883d 9298 9fbd
000002b0: 8570 b63d 8423 603d d5fb 07bd 57fd 0dbe
000002c0: 8d0b cb3c 7838 cfbd 028a 503d 8d84 40be
000002d0: f835 71bd 8944 7a3d 0124 8fbe 4c2d 223d
000002e0: 8a42 32be 3551 67be b4a2 933d a96b 39be
000002f0: 8f95 95be a3b4 923d dd60 6abe d82a e5bd
00000300: f476 15be 186f df3b 3ecf a63d 56a3 dc3d
00000310: 700f 2c3d 5125 143e 7a42 693e 7675 ec3d
00000320: a352 03be 285a c8bd 0ef1 9bbd e2d3 e8bd
00000330: 9a4f 26be 5885 0ebd 0623 90bd 0ec6 d53d
00000340: d9f3 65be 4177 6e3e 65ae 1cbe 4d64 dd3d
00000350: a8be 12be 2737 24bd 83ed 42bb 037f 193e
00000360: d3ab d4bd 764d fbb9 bb57 ffbd 16b2 c03d
00000370: bd10 17be 272a 8fbb dc84 32bd 315b 2abb
00000380: 8e42 1ebe 982b 4dbe d4a0 b53c 474b 29be
00000390: 4395 c7bd ae6f 923e f0ba 723e a1cf bcbc
000003a0: bf56 da3e e6fc 94be 15ce a23d d8fb a7bd
000003b0: 1a5a 70bd 37bf 93be c6fa a83e 27de 083d
000003c0: 6375 aabe efa5 39be 33bf a5bd 9d3f 7fbb
000003d0: e411 cdbd 826b 9ebd 28e5 e43c 94b4 723e
000003e0: bc15 cfba 8059 b53e b505 9dbe bc6a 133f
000003f0: 688b 24bd 4e66 41be 8338 af3e bdda 803e

bias f4 [256]
-0.0147576295 0.0101246415 0.10338052 0.13229938 0.05153792 -0.026890408 -0.107025154 0.09976413
0.062147517 -0.057485987 -0.08292674 -0.0647004 0.0862618 -0.1598005 0.17207268 -0.051686592
0.10118826 -0.05222151 -0.12604944 -0.10987529 -0.014759195 0.061530303 0.15503667 -0.19491333
0.16290613 -0.19020875 0.20685524 -0.121050276 0.07982566 0.02907423 0.081980444 -0.18111493
0.1477307 -0.0246151 -0.18559042 0.16373624 0.15131184 -0.16062394 0.025026346 -0.06710852
0.05541481 0.019860089 -0.030213917 0.18465172 0.08064647 -0.035113312 -0.15747663 0.043492157
0.17544809 0.16505486 -0.076311044 0.1508886 0.085637696 -0.04329761 0.1356335 -0.16178603
-0.04340641 -0.08234323 0.07550071 -0.16953237 0.18547614 -0.19043401 -0.14967404 0.14464475
-0.09259599 0.20390886 0.17380804 -0.10956741 -0.105322935 0.11049906 -0.12928297 0.06451999
0.12900412 -0.16987252 0.16836233 0.13202567 -0.067538805 0.18478604 0.08597499 -0.14488597
0.13498464 -0.028817726 -0.19913003 0.12468496 0.12109951 0.16034965 -0.0244161 -0.17218691
-0.036404863 0.04998494 -0.08989922 -0.015812756 -0.1641131 0.14926736 -0.15392971 0.13161047
0.20784399 0.11977609 0.11097426 0.105136946 0.02226604 -0.0060918047 -0.02803097 0.08533729
-0.1724419 -0.041655824 -0.17110102 -0.006818744 -0.18315886 -0.144703 0.021247623 0.07281408
0.01056248 -0.13160709 0.11913154 -0.063086525 -0.12877281 0.12333426 -0.17192686 -0.18060128
0.047401678 0.058233548 0.1463792 -0.17101173 0.018945575 -0.045052804 0.16342069 -0.19289649
0.08698405 -0.20198765 -0.15302078 -0.17956245 0.01302412 0.047014788 0.022705961 -0.065609485
0.040880147 -0.18243547 0.091455325 0.12364005 0.10218369 -0.033788957 0.017039534 -0.19269696
0.08814515 0.10269903 -0.00041733688 -0.15382408 -0.10388365 0.0533382 0.15950197 -0.10157305
0.16237888 0.018871853 -0.016581437 0.021040011 -0.10177469 0.0016762178 0.10537754 0.067656085
-0.0068469653 0.0988865 0.06381106 -0.07807341 0.21237668 -0.19303316 -0.015975388 -0.10587546
-0.19644381 -0.050812803 0.013429565 -0.07401792 -0.026927076 -0.12578818 0.037074994 -0.061458595
-0.16120994 -0.055701695 0.18100698 0.054750983 -0.04300211 -0.15092756 0.020148925 0.16568205
-0.06490092 0.036426716 0.0892935 -0.16547562 0.009397292 -0.06859137 0.032524675 0.19673823
-0.032684952 -0.008736471 -0.11572157 0.015861534 -0.14934872 0.12565406 0.129464 0.046514332
-0.029571572 -0.060788732 0.09656918 0.06917163 -0.13510084 0.19820127 0.0583286 -0.074885204
0.14038798 -0.16822366 0.13208123 -0.0598657 -0.19100964 0.060838725 0.16930437 0.05994244
0.1901764 -0.16122489 -0.20446505 0.15973938 -0.046391435 -0.16802485 -0.10325444 0.15168165
-0.037676048 -0.040714484 0.07068927 0.08148063 -0.09152016 -0.081500806 -0.06064662 -0.17918417
0.027659303 -0.08961485 0.008891266 0.13189791 0.12560895 0.044576064 0.0348386 0.043664847
-0.011421734 0.11708466 -0.03551744 -0.09152811 0.1669973 0.17862347 0.16029902 0.11015002
-0.20645949 0.17247434 0.16829841 0.15147631 0.11218217 -0.128946 0.12946887 0.13808984
00000000: fcc9 71bc d3e1 253c 2bb9 d33d 7d79 073e
00000010: 6d19 533d 4649 dcbc 0130 dbbd 2351 cc3d
00000020: 658e 7e3d 6d76 6bbd 7fd5 a9bd a581 84bd
00000030: 07aa b03d bea2 23be d233 303e 52b5 53bd
00000040: ca3b cf3d 39e6 55bd 1b13 01be 4c06 e1bd
00000050: 8dd0 71bc 3307 7c3d efc1 1e3e 5c97 47be
00000060: ddd0 263e 15c6 42be dcd1 533e 35e9 f7bd
00000070: a37b a33d 142d ee3c 5de5 a73d 3176 39be
00000080: b746 173e 9ba5 c9bc 6a0b 3ebe 79aa 273e
00000090: 7ef1 1a3e 9a7a 24be 0d04 cd3c 3170 89bd
000000a0: a4fa 623d a0b1 a23c 2d83 f7bc 5715 3d3e
000000b0: fa29 a53d fad2 0fbd 8e41 21be d524 323d
000000c0: aaa8 333e 2404 293e f748 9cbd 8b82 1a3e
000000d0: d162 af3d d658 31bd 82e3 0a3e 3dab 25be
000000e0: ebca 31bd 91a3 a8bd 1ea0 9a3d e599 2dbe
000000f0: 75ed 3d3e 2201 43be 2744 19be c11d 143e
00000100: f7a2 bdbd 7ccd 503e bcfa 313e e164 e0bd
00000110: 8db3 d7bd 554d e23d c162 04be 0e23 843d
00000120: a819 043e 10f3 2dbe 2d67 2c3e bd31 073e
00000130: c951 8abd 8d38 3d3e a813 b03d fd5c 14be
00000140: 6a39 0a3e 2713 ecbc bee8 4bbe d45a ff3d
00000150: 0503 f83d b332 243e 4604 c8bc c451 30be
00000160: 441d 15bd 02bd 4c3d 151d b8bd c189 81bc
00000170: 440d 28be 8bd9 183e c09f 1dbe e5c4 063e
00000180: 0ed5 543e 2b4d f53d 7946 e33d 0a52 d73d
00000190: 4567 b63c c39d c7bb 34a1 e5bc 51c5 ae3d
000001a0: 9c94 30be 4c9f 2abd 1b35 2fbe c56f dfbb
000001b0: ff8d 3bbe 062d 14be 7f0f ae3c 8c1f 953d
000001c0: 410e 2d3c 02c4 06be 3dfb f33d 8233 81bd
000001d0: 05dd 03be ac96 fc3d 980d 30be 8bef 38be
000001e0: 4328 423d 4d86 6e3d 6ee4 153e b31d 2fbe
000001f0: c033 9b3c 4a89 38bd c157 273e a886 45be
00000200: b224 b23d dad5 4ebe 7bb1 1cbe 38df 37be
00000210: 1e63 553c 9492 403d da01 ba3c 445e 86bd
00000220: f171 273d 5dd0 3abe ee4c bb3d ff36 fd3d
00000230: af45 d13d 4a66 0abd 7e96 8b3c 5a52 45be
00000240: 7285 b43d de53 d23d 02ce dab9 0f84 1dbe
00000250: f3c0 d4bd 2879 5a3d 7c54 233e 8805 d0bd
00000260: a646 263e 2599 9a3c cbd5 87bc 1a5c ac3c
00000270: 406f d0bd 89b4 db3a 2ed0 d73d 468f 8a3d
00000280: 825c e0bb 0185 ca3d 5faf 823d f4e4 9fbd
00000290: 4679 593e 7caa 45be d1de 82bc 3cd5 d8bd
000002a0: 9128 49be 1621 50bd ae07 5c3c b596 97bd
000002b0: 2c96 dcbc 9ece 00be f3db 173d 02bc 7bbd
000002c0: 3814 25be 7627 64bd e559 393e 9142 603d
000002d0: fb22 30bd c18c 1abe 5c0f a53c 8ea8 293e
000002e0: c6ea 84bd 2e34 153d 83df b63d 7172 29be
000002f0: 19f7 193c a279 8cbd 9838 053d bf75 493e
00000300: a8e0 05bd 6a23 0fbc 6eff ecbd 0cf0 813c
00000310: dfee 18be 75ab 003e 3692 043e d085 3e3d
00000320: 1540 f2bc 9bfd 78bd 10c6 c53d dba9 8d3d
00000330: e057 0abe 46f5 4a3e f8e9 6e3d 6a5d 99bd
00000340: dec1 0f3e d342 2cbe 4d40 073e bc35 75bd
00000350: 0898 43be 0732 793d 205e 2d3e 3486 753d
00000360: 9abd 423e 2318 25be 495f 51be b892 233e
00000370: f204 3ebd b50e 2cbe 1077 d3bd 6f52 1b3e
00000380: 3352 1abd 3bc4 26bd 89c5 903d 51df a63d
00000390: ec6e bbbd e5e9 a6bd 9768 78bd 0e7c 37be
000003a0: c395 e23c fe87 b7bd acac 113c 3f10 073e
000003b0: a29f 003e 6495 363d ebb2 0e3d e9d9 323d
000003c0: 3922 3bbc 15ca ef3d bc7a 11bd 1773 bbbd
000003d0: 5701 2b3e 12e9 363e 6d25 243e 5596 e13d
000003e0: 1e6a 53be 1d9d 303e 6b56 2c3e 9b1c 1b3e
000003f0: c4bf e53d 6c0a 04be 7d93 043e 6c67 0d3e

weight f4 [4, 256]
0.31545258 0.28192067 -0.44743684 -0.41094622 -0.1550437 -0.023161612 0.0017215145 0.35812217
0.68830156 -0.19420488 0.302549 -0.16070655 -0.443493 0.19277954 0.32252145 -0.35190722
0.31564492 -0.41207522 -0.12429698 -0.31983477 -0.2775442 0.005095741 -0.1556201 -0.23392552
0.16521686 0.2572066 -0.0478521 0.2494691 0.28844675 -0.5176384 0.076712176 -0.12626417
0.048655346 0.03814441 -0.3152066 0.22765818 0.31714025 0.25282127 0.3964021 0.03594531
0.28896967 -0.021665512 -0.4477838 0.24945205 0.18816327 -0.32650152 0.17001761 0.32750025
-0.009563016 -0.06349068 -0.18566965 0.35342747 0.24063505 -0.16556422 0.14296868 -0.35680035
0.2547992 -0.296649 0.23239608 -0.40076333 0.06669544 -0.27277565 0.37691447 -0.088188216
-0.45493537 0.22931832 -0.03871233 0.035168692 -0.449065 0.19614084 0.112633966 -0.2773415
0.36761418 -0.22135542 0.45568302 0.021489434 -0.04642846 0.19846608 0.22872478 0.019511197
0.29891887 0.68358487 -0.21503717 -0.1790932 -0.124993786 -0.09504456 0.32739395 -0.3449551
-0.08014972 0.17455713 -0.032135192 0.3113857 0.09995835 -0.029572114 0.45835322 -0.054065842
-0.17939748 0.41447327 0.20847446 0.1756513 0.14422221 0.3096432 -0.4266054 0.3308517
-0.13652705 -0.3642633 -0.23104377 0.4228233 0.25669932 0.19855268 0.3684508 -0.4809961
-0.3925004 -0.41465288 0.08705459 -0.14144732 0.029497726 -0.002391252 0.25230077 -0.059535563
-0.16061845 0.24194767 -0.17912935 -0.17856416 0.061973456 0.17797777 0.0010346399 0.1316821
-0.14779717 -0.26259646 -0.026796376 -0.25687957 0.24693708 0.37276807 0.33933386 0.2196883
-0.05649985 -0.23653077 0.10264073 0.23890102 0.1901159 0.4599951 0.3684446 -0.1310244
-0.11108986 -0.25476116 -0.1183086 0.08412866 -0.28792724 -0.47920144 0.37303278 0.04790775
-0.08462657 -0.22489686 0.31903628 -0.21184699 -0.31554958 0.1860991 0.32241398 -0.5391584
-0.7529533 0.046271 0.25240642 -0.36518964 -0.117439106 -0.3275851 -0.7484994 0.1741831
-0.49365574 0.08940948 -0.280279 -0.08622749 -0.11612504 -0.2709357 -0.52328664 0.3537008
0.11706086 -0.26579347 -0.23619787 -0.16506399 -0.07688615 -0.04283677 -0.1434109 -0.30629992
-0.43505555 0.21081863 0.15026243 -0.17671591 -0.35724938 0.5902125 0.6439977 -0.0392092
-0.43244022 -0.41058385 -0.080805406 -0.6754515 -0.54704857 0.23226592 0.33017367 -0.5890783
0.49723002 0.036293276 0.19705048 0.05316726 -0.020075578 -0.049564537 0.2739293 0.3544924
-0.2891184 -0.1442951 -0.3452981 -0.15914877 0.11140361 0.4531693 0.21871734 0.4843589
0.06729285 0.18208663 -0.21564797 -0.23704647 -0.209232 -0.04305009 0.40467548 -0.30043596
0.524657 -0.23329179 -0.33838114 -0.11810313 -0.09767411 -0.15464811 -0.44180337 -0.026331913
0.50828385 -0.28602633 0.13111866 -0.016209861 0.23582447 0.23111814 0.63024235 0.43482432
-0.31181547 -0.53056186 -0.4222043 -0.112530194 0.23885843 -0.1978965 -0.27661496 -0.35711676
-0.045390315 -0.051551055 -0.0064393464 -0.4697923 0.23323348 -0.12193404 0.12042913 0.0972159
00000000: 0083 a13e e857 903e 7116 e5be 8b67 d2be
00000010: c7c3 1ebe 6cbd bdbc 71a4 e13a ca5b b73e
00000020: 8834 303f a5dd 46be b4e7 9a3e 4290 24be
00000030: 8411 e3be 0068 453e 8821 a53e 2f2d b4be
00000040: 369c a13e 86fb d2be 6a8f febd 62c1 a3be
00000050: 461a 8ebe 2cfa a63b e05a 1fbe 2c8a 6fbe
00000060: 9c2e 293e 95b0 833e 9000 44bd d474 7f3e
00000070: 4baf 933e f383 04bf 461b 9d3d 654b 01be
00000080: d44a 473d 503d 1c3d c262 a1be 3a1f 693e
00000090: 3560 a23e ca71 813e 37f5 ca3e 643b 133d
000000a0: d5f3 933e df7b b1bc eb43 e5be 5c70 7f3e
000000b0: dfad 403e 352b a7be 1919 2e3e 1dae a73e
000000c0: 32ae 1cbc 6707 82bd 2f20 3ebe 72f4 b43e
000000d0: 0969 763e ab89 29be 6266 123e 89ae b6be
000000e0: 0a75 823e 61e2 97be 3df9 6d3e da30 cdbe
000000f0: 9e97 883d 40a9 8bbe effa c03e 069c b4bd
00000100: 4aed e8be 6cd2 6a3e d290 1ebd 0c0d 103d
00000110: d9eb e5be 25d9 483e a3ac e63d b5ff 8dbe
00000120: ed37 bc3e ffaa 62be 494f e93e 9c0a b03c
00000130: c52b 3ebd b13a 4b3e d436 6a3e f2d5 9f3c
00000140: e50b 993e 6bff 2e3f b432 5cbe 3564 37be
00000150: befc ffbd b9a6 c2bd 2ea0 a73e f49d b0be
00000160: 8925 a4bd 1bbf 323e 31a0 03bd f26d 9f3e
00000170: f7b6 cc3d 3841 f2bc 46ad ea3e 2574 5dbd
00000180: f9b3 37be d735 d43e 547a 553e efdd 333e
00000190: fdae 133e 8e89 9e3e 066c dabe 6565 a93e
000001a0: bfcd 0bbe b880 babe bd96 6cbe 4c7c d83e
000001b0: 186e 833e 6551 4b3e 95a5 bc3e 1f45 f6be
000001c0: d0f5 c8be 624d d4be ad49 b23d 91d7 10be
000001d0: 37a5 f13c 8db6 1cbb 912d 813e 90db 73bd
000001e0: 2a79 24be 21c1 773e af6d 37be 86d9 36be
000001f0: e1d7 7d3d ce3f 363e c19c 873a acd7 063e
00000200: 2458 17be 0b73 86be 1384 dbbc b885 83be
00000210: 13dd 7c3e 75db be3e 2bbd ad3e f8f5 603e
00000220: 636c 67bd 1f35 72be 4e35 d23d 78a2 743e
00000230: bead 423e 7a84 eb3e c5a4 bc3e 432b 06be
00000240: 1583 e3bd 0e70 82be c74b f2bd a64b ac3d
00000250: 336b 93be e459 f5be 27fe be3e eb3a 443d
00000260: b250 adbd 5d4b 66be b958 a33e 6bee 58be
00000270: b78f a1be c390 3e3e 7213 a53e 4906 0abf
00000280: 8cc1 40bf a986 3d3d 6a3b 813e 23fa babe
00000290: ea83 f0bd 3cb9 a7be a89d 3fbf 0e5d 323e
000002a0: 72c0 fcbe 511c b73d bb80 8fbe 0a98 b0bd
000002b0: f7d2 edbd 16b8 8abe 1df6 05bf 4518 b53e
000002c0: 9bbd ef3d 1516 88be dbdd 71be 8906 29be
000002d0: 7c76 9dbd 9c75 2fbd 4fda 12be 58d3 9cbe
000002e0: 9abf debe d7e0 573e 65de 193e 04f5 34be
000002f0: 64e9 b6be 2b18 173f 09dd 243f d399 20bd
00000300: ce68 ddbe 0c38 d2be 4e7d a5bd 64ea 2cbf
00000310: 600b 0cbf 1ed7 6d3e 860c a93e d6cd 16bf
00000320: ef94 fe3e 42a8 143d 9ac7 493e eac5 593d
00000330: 8a75 a4bc 2f04 4bbd 7640 8c3e 0780 b53e
00000340: 5407 94be 18c2 13be eaca b0be e5f7 22be
00000350: 9327 e43d ce05 e83e 70f7 5f3e e4fd f73e
00000360: d5d0 893d eb74 3a3e d2d2 5cbe 4fbc 72be
00000370: ea40 56be 4b55 30bd a031 cf3e bed2 99be
00000380: ec4f 063f 0be4 6ebe 4b40 adbe 0ee0 f1bd
00000390: 5d09 c8bd 135c 1ebe 0d34 e2be 06b6 d7bc
000003a0: e41e 023f 0b72 92be f843 063e 8bca 84bc
000003b0: f87b 713e 3caa 6c3e 9057 213f 4ba1 de3e
000003c0: 47a6 9fbe e7d2 07bf 292b d8be 3b76 e6bd
000003d0: 4e97 743e 61a5 4abe 7aa0 8dbe 02d8 b6be
000003e0: 32eb 39bd 3327 53bd 2701 d3bb 9e88 f0be
000003f0: c2d4 6e3e 8eb8 f9bd 8ca3 f63d 2119 c73d

bias f4 [4]
-0.0027818673 -0.056280695 -0.08400356 0.13782483
00000000: fd4f 36bb 9686 66bd 0f0a acbd f421 0d3e
